Tennis/checkpoint_actor1.pth (torch_old, 159204 bytes, 6 tensors)

fc1.weight f4 [256, 24]
0	0x3ebbe960	0.36701488
1	0xbf1e986c	-0.6195133
2	0x3e837919	0.25678328
3	0xbf17f685	-0.59360534
4	0xbec375a4	-0.3817569
5	0xbf325acb	-0.6966979
6	0x3e4cc5fc	0.199974
7	0xbf23f691	-0.64048105
8	0x3e9fed27	0.3123562
9	0xbeeaaf02	-0.45836645
10	0xbe0157c7	-0.1263114
11	0x3f10a7ed	0.56506234
12	0xbe28ba74	-0.16477376
13	0xbedfca5e	-0.4370908
14	0xbe380a78	-0.17972744
15	0x3efc5a97	0.49287865
16	0x3ec11c32	0.37716824
17	0xbee838d4	-0.45355856
18	0xbdbb0cc6	-0.09133296
19	0x3cef059f	0.029177485
20	0x3e40e40a	0.1883699
21	0xbdf455b2	-0.119304076
22	0xbd19a991	-0.037515227
23	0x3cbafe15	0.022826234
24	0x3e946d44	0.28989613
25	0x3f0e99f8	0.5570369
26	0x3e3360d4	0.17517406
27	0x3dc500f0	0.096193194
28	0xbe319a1d	-0.17343946
29	0xc009caa4	-2.1529932
30	0x3e35df29	0.1776091
31	0x3cbdad11	0.023153814
32	0x3e29bdf5	0.16576369
33	0x3e9f1ad9	0.3107517
34	0xbe10cebe	-0.14141366
35	0xbdddb8a9	-0.10826237
36	0xbea93504	-0.3304826
37	0xbff489a3	-1.9104503
38	0xbe2d410b	-0.16919343
39	0xbd9e9dfe	-0.07744978
40	0x3e54e3b3	0.20789985
41	0x3df3b485	0.11899666
42	0x3e7f4119	0.24927177
43	0xbf0205e3	-0.5079023
44	0xbeda4381	-0.42629626
45	0xbfde7161	-1.737835
46	0x3e8cc3af	0.27493045
47	0xbf19919b	-0.599878
48	0x3ea80ba5	0.32821384
49	0xbec03927	-0.37543604
50	0xbdbcaf19	-0.09213085
51	0xbee500c3	-0.44727144
52	0x3f08072f	0.5313596
53	0xbf18062a	-0.59384406
54	0xbdcd2b4b	-0.10018023
55	0xbebd6c6f	-0.3699679
56	0x3ed1b18e	0.40955776
57	0xbe9e78db	-0.3095158
58	0x3d3fd4c9	0.046833787
59	0x3ddeaefe	0.10873221
60	0x3f2779ab	0.65420026
61	0xbf6bb727	-0.92076343
62	0x3de743b2	0.11292209
63	0x3dc0515b	0.09390517
64	0x3e90fd3a	0.28318197
65	0xbe0e4f7d	-0.1389751
66	0xbe93df6b	-0.28881392
67	0xbd02b794	-0.031913355
68	0x3f4c9f50	0.7993059
69	0xbf195e11	-0.5990916
70	0xbea1a676	-0.31572312
71	0x3d53fa98	0.051752657
72	0x3deaec2e	0.11470829
73	0x3d4fb776	0.05071207
74	0x3de75e01	0.11297227
75	0x3deb4e06	0.11489491
76	0xbca84246	-0.020539414
77	0xbf518401	-0.81842047
78	0x3d264eba	0.040602423
79	0x3e432433	0.19056778
80	0x3d813b68	0.06310159
81	0x3e85dc83	0.261448
82	0xbea556b9	-0.32292727
83	0x3eef77a2	0.4677096
84	0x3e2af284	0.16694075
85	0xbf80682c	-1.0031791
86	0xbe976219	-0.2956703
87	0x3ee84bf0	0.45370436
88	0x3e3d28b5	0.1847256
89	0x3eeecd87	0.4664118
90	0xbdcbc0b0	-0.099488616
91	0x3ea3280f	0.318665
92	0x3f1541a2	0.5830327
93	0xc01503e4	-2.3283625
94	0xbd3e3901	-0.046441082
95	0x3eb0dbaa	0.3454259
96	0x3f02147d	0.5081251
97	0xbf2a740f	-0.6658334
98	0xbe394cde	-0.18095729
99	0x3f2e3e70	0.6806402
100	0x3f0e49b2	0.555812
101	0xbf0875d0	-0.5330477
102	0xbe4c58ab	-0.19955699
103	0x3f213abe	0.6298026
104	0x3ef0a640	0.4700184
105	0xbf002049	-0.50049263
106	0xbe3c7d70	-0.18407226
107	0x3daa3bc0	0.08312178
108	0x3f22c9b5	0.6358903
109	0xbf6fe0f6	-0.9370264
110	0xbe628a2e	-0.22123024
111	0x3e2523b2	0.16126898
112	0x3f0e36a1	0.5555211
113	0xbf03cf87	-0.51488537
114	0xbe1e0ea5	-0.15435274
115	0x3ed00e02	0.40635687
116	0x3f1c37ef	0.6102285
117	0xbf8aa112	-1.0830405
118	0xbe039fe8	-0.12853968
119	0x3eba1e5d	0.3635129
120	0x3e95dae9	0.29268578
121	0xbed21ac6	-0.41036052
122	0xbdca250a	-0.09870346
123	0xbebe3684	-0.37150967
124	0x3f27c420	0.6553364
125	0xbf516e84	-0.8180926
126	0xbe3e8646	-0.18605909
127	0xbeee4f58	-0.4654491
128	0x3eccf6c3	0.40032014
129	0xbf25c060	-0.64746666
130	0x3e6528b9	0.22378816
131	0xbf04c36b	-0.51860684
132	0x3ebffbf0	0.374969
133	0xbef8ac13	-0.48568782
134	0x3e63c253	0.22242098
135	0xbf08bcb2	-0.53412926
136	0x3f2b62bb	0.66947526
137	0xbf271fbf	-0.65282816
138	0x3e770fbe	0.24127099
139	0x3d99ee1e	0.075161204
140	0x3eb6b04b	0.35681376
141	0x3e6d76ec	0.23189896
142	0x3e93f04d	0.28894272
143	0x3cf937d9	0.030422138
144	0x3e0c6103	0.13708882
145	0x3da9a851	0.08284057
146	0xbea2c62a	-0.31791812
147	0x3e2c8013	0.16845731
148	0xbf5ddb88	-0.86663103
149	0xbd3d1eae	-0.046171837
150	0xbeb89ba0	-0.36056232
151	0x3e615b9b	0.22007601
152	0x3e1a0c5f	0.15043782
153	0xbbdcd7c5	-0.006739589
154	0x3c0ad180	0.0084728
155	0xbf04ec1f	-0.5192279
156	0xbd4576bd	-0.04820894
157	0x3ed5cc79	0.41757563
158	0xbd596f7b	-0.05308483
159	0xbee5f705	-0.44915023
160	0x3ea62536	0.32450265
161	0x3e524da2	0.20537427
162	0x3e65d541	0.22444631
163	0x3dc875e0	0.09788108
164	0x3ec62f56	0.3870799
165	0xbc0a3f82	-0.008437993
166	0x3e610acf	0.2197678
167	0x3e204163	0.15649943
168	0x3e2de37d	0.16981311
169	0xbe87008c	-0.26367605
170	0x3db964ba	0.09052415
171	0xbcb70973	-0.022343373
172	0xbe91c676	-0.28471726
173	0xbfa6e9f6	-1.3040149
174	0x3d13fc92	0.03612954
175	0xbd992b81	-0.07479001
176	0x3eaf1147	0.3419287
177	0xbd2108a0	-0.039314866
178	0xbc9014b9	-0.017588006
179	0x3eb385b0	0.35062933
180	0xbecc9c97	-0.3996322
181	0xbf3d407e	-0.7392653
182	0xbdf59838	-0.11991924
183	0x3e9298ca	0.28632194
184	0x3f0be0e8	0.54640055
185	0x3e98aac3	0.2981778
186	0xbe83010c	-0.25586736
187	0x3ec38d00	0.38193512
188	0xbf3d9590	-0.7405634
189	0xbea573cf	-0.32314917
190	0xbe8e6e8c	-0.27818716
191	0x3e9d438f	0.30715606
192	0x3e08e9fb	0.13370506
193	0x3d40f439	0.04710791
194	0x3cf72bc7	0.030172242
195	0xbec9ebf8	-0.39437842
196	0x3fa26a8b	1.2688764
197	0x3f574767	0.84093326
198	0xbc5f3e03	-0.013625625
199	0xbeecdf29	-0.46264008
200	0x3e8384ac	0.25687158
201	0x3f061b8a	0.5238577
202	0xbe6f95bf	-0.23396967
203	0x3f8f2952	1.1184485
204	0x3eb6e958	0.35724902
205	0xbd14843b	-0.036258917
206	0xbe283a7e	-0.16428563
207	0x3f83aabe	1.0286481
208	0x3e87f233	0.2655197
209	0x3eef0236	0.46681374
210	0xbd6cae28	-0.057783276
211	0xbe35b101	-0.17743303
212	0xbeba369c	-0.3636979
213	0xbf8eb339	-1.1148444
214	0xbdd7a5ef	-0.10529696
215	0xbe271a09	-0.16318525
216	0x3ee3550f	0.44400832
217	0xbe4176d5	-0.18892987
218	0xbdd31956	-0.10307567
219	0x3ed7f3e4	0.4217826
220	0x3fb0b598	1.3805418
221	0x3ecf1b83	0.40450677
222	0xbe0774d2	-0.13228157
223	0x3ed1b8b7	0.4096124
224	0x3f15648b	0.5835654
225	0xbc61984f	-0.013769223
226	0xbedc7397	-0.43056938
227	0x3ee52ca5	0.44760624
228	0x3f48e962	0.78481114
229	0xbe56f0fa	-0.20990363
230	0xbed6b681	-0.41936114
231	0x3f06b7d8	0.52624273
232	0x3f1bdcbc	0.6088369
233	0x3df754d6	0.12076728
234	0x3e531814	0.20614654
235	0x3db4177e	0.08793543
236	0x3eb0dc62	0.3454314
237	0xbec7e9b4	-0.3904549
238	0x3e61ec31	0.22062756
239	0x3e053fea	0.13012663
240	0x3f591451	0.84796625
241	0xbf1c0338	-0.6094241
242	0x3e5e1b55	0.21690114
243	0x3ef0085e	0.46881384
244	0x3f75b6ed	0.9598225
245	0x3f2af753	0.66783637
246	0x3e567306	0.20942315
247	0x3edb5294	0.4283644
248	0x3f65e8bc	0.8980825
249	0xbec31672	-0.38103062
250	0xbe24df85	-0.16100891
251	0x3dabbdeb	0.08385833
252	0x3f4353c0	0.7629967
253	0xbdc28cb7	-0.094994955
254	0xbdd110d3	-0.10208287
255	0x3db99207	0.09061056

fc1.bias f4 [256]
0	0xbf64309a	-0.8913666
1	0xbeb29157	-0.3487651
2	0xbe345c94	-0.17613441
3	0xbed2c086	-0.4116251
4	0x3dc0a844	0.09407094
5	0xbe89f999	-0.2694824
6	0xbf33414d	-0.70021516
7	0xbf265522	-0.6497365
8	0x3e1f6db6	0.15569195
9	0xbf1e5587	-0.61849254
10	0xbf1cbef0	-0.6122885
11	0xbeb83cd1	-0.359839
12	0x3e0d0110	0.13769937
13	0xbe6b6265	-0.22986753
14	0xbec37cc3	-0.38181123
15	0xbed014d5	-0.40640894
16	0x3c16213e	0.009163199
17	0xbef23e24	-0.47313035
18	0xbe8c9ae3	-0.2746192
19	0xbf0034b0	-0.50080395
20	0xbeaf81a8	-0.34278607
21	0xbe3fafaf	-0.18719362
22	0xbe5f49e5	-0.21805532
23	0x3ea9ca15	0.3316199
24	0xbe959001	-0.2921143
25	0xbe092a91	-0.13395144
26	0x3d859021	0.06521631
27	0xbf316eb5	-0.6930955
28	0xbeef2115	-0.46704927
29	0xbf31804f	-0.6933641
30	0xbde43ba7	-0.1114419
31	0xbe44bbe0	-0.19212294
32	0x3e82883f	0.25494573
33	0xbe9bf1e6	-0.3045799
34	0x3e84790e	0.25873607
35	0xbea7dca8	-0.32785535
36	0xbeec0510	-0.46097612
37	0xbe8d6fbd	-0.27624312
38	0xbea16585	-0.31522766
39	0xbee11d75	-0.43967786
40	0xbe2b931c	-0.16755337
41	0xbf1b98c3	-0.6077997
42	0x3e916600	0.28398132
43	0xbe93ce64	-0.288684
44	0xbe166420	-0.14686632
45	0xbf09009a	-0.5351654
46	0xbe8dba2e	-0.27681106
47	0xbeb7ca62	-0.35896593
48	0xbdf5861e	-0.119884714
49	0xbeb2496e	-0.34821647
50	0xbd0c9c3e	-0.03432869
51	0xbf1d750a	-0.6150671
52	0xbeacab26	-0.33724326
53	0x3e96b63a	0.29435903
54	0xbed83ae9	-0.42232445
55	0xbe27850e	-0.1635935
56	0xbf319592	-0.6936885
57	0x3f05d030	0.52270794
58	0xbe6043db	-0.21900885
59	0x3d22c955	0.039742786
60	0xbdcb7d2b	-0.09935983
61	0x3e1f850a	0.15578094
62	0xbdb1f1e8	-0.08688718
63	0xbf12d120	-0.5735035
64	0x3df20611	0.11817563
65	0xbd4c118c	-0.04982142
66	0xbd4faf42	-0.05070425
67	0xbe5a77bc	-0.21334738
68	0xbf6ee016	-0.9331068
69	0xbf56e1f1	-0.8393851
70	0xbe9dabda	-0.30795175
71	0xbe7e8ee1	-0.24859191
72	0xbf28e4d2	-0.6597415
73	0x3daf6b4d	0.08565388
74	0xbf1cc9b3	-0.6124527
75	0xbbf90541	-0.0075995033
76	0xbf0ef20b	-0.5583808
77	0xbe633d12	-0.22191265
78	0xbe2ab419	-0.16670264
79	0xbef89dfc	-0.48558033
80	0xbf4600a6	-0.7734474
81	0xbdc8e0e1	-0.09808517
82	0xbe8301ab	-0.2558721
83	0xbf400e82	-0.7502214
84	0xbe87216c	-0.26392686
85	0xbe77f22e	-0.24213478
86	0x3e61c4bd	0.22047706
87	0x3e5a1d01	0.21300127
88	0xbefe4440	-0.49661446
89	0x3d6d60e5	0.057953734
90	0xbddcf769	-0.10789377
91	0xbf010edc	-0.504133
92	0xbe825267	-0.25453493
93	0x3db4f377	0.088355
94	0xbf0d1211	-0.5510569
95	0xbd8adc96	-0.06780355
96	0xbf1154cf	-0.5677003
97	0xbec049bb	-0.37556252
98	0xbed8af6c	-0.42321336
99	0xbd2cf703	-0.042227756
100	0xbed690be	-0.41907305
101	0xbeda9a1a	-0.42695695
102	0xbdd5f7a8	-0.10447627
103	0xbeddd47c	-0.43326175
104	0xbec571ea	-0.38563472
105	0xbed27e11	-0.41111806
106	0xbe98faea	-0.29878932
107	0xbf27a044	-0.6547892
108	0xbeee1840	-0.46502876
109	0xbf2751e7	-0.6535935
110	0xbf64e801	-0.8941651
111	0xbf3e0e6a	-0.74240744
112	0xbe78b693	-0.24288397
113	0xbee38bef	-0.44442698
114	0xbf82a9bf	-1.0208052
115	0xbf07fe9b	-0.5312287
116	0xbf87e2e5	-1.0616118
117	0xbeddd6c7	-0.43327925
118	0xbf46d211	-0.77664286
119	0xbd9dad38	-0.076990545
120	0xbefa2ed2	-0.48863846
121	0xbd9445e0	-0.0723989
122	0xbeb37c63	-0.35055837
123	0xbe699d50	-0.22813916
124	0xbe6659c7	-0.22495185
125	0x3d6150b1	0.055008594
126	0xbecc4719	-0.39897993
127	0xbe5200ef	-0.20508169
128	0x3e209fda	0.15685979
129	0x3e53cc69	0.20683445
130	0xbc1c3b5c	-0.009535637
131	0xbeb6002c	-0.35547006
132	0xbecd7733	-0.40130004
133	0xbf08b15e	-0.5339564
134	0x3e139d86	0.14415559
135	0xbf808708	-1.0041208
136	0x3eaf142a	0.3419507
137	0xbd41cd71	-0.047315065
138	0xbeae7102	-0.34070593
139	0xbe277b61	-0.16355659
140	0xbe7ad4e2	-0.24495271
141	0x3e2edb0b	0.17075746
142	0xbf1cceeb	-0.6125323
143	0x3da6e622	0.08149363
144	0xbb83523d	-0.0040076063
145	0xbe3c3401	-0.18379213
146	0xbe0c1634	-0.13680345
147	0xbd14d26e	-0.036333494
148	0xbef6c4e6	-0.48197097
149	0x3ebadf02	0.36498266
150	0xbe9f57ac	-0.31121576
151	0xbf119670	-0.56870174
152	0xbf1abcc4	-0.60444283
153	0xbefdefa8	-0.49596906
154	0xbef48fb0	-0.47765875
155	0xbe0d12a5	-0.13776644
156	0xbeb2becd	-0.34911194
157	0xbf038e00	-0.5138855
158	0xbf315a0e	-0.6927804
159	0xbeccee25	-0.4002544
160	0xbc9500d4	-0.018188871
161	0xbf6d7c46	-0.9276775
162	0xbee45c5b	-0.44601712
163	0xbe4f6097	-0.2025169
164	0xbf5664f3	-0.83747786
165	0xbceb4324	-0.028718539
166	0xbf47024e	-0.7773789
167	0xbdd71dba	-0.10503717
168	0xbeb2a35b	-0.34890255
169	0xbe3b4693	-0.1828864
170	0xbb96f6ae	-0.004607043
171	0xbe1851dc	-0.14874977
172	0xbe449107	-0.19195949
173	0xbf1b1cf9	-0.60591084
174	0xbe9f1eb2	-0.31078106
175	0xbf2c9a7f	-0.6742324
176	0xbe94ab42	-0.2903691
177	0xbefea7d9	-0.49737433
178	0xbd2ab627	-0.04167762
179	0xbeac5aa4	-0.33662903
180	0xbec3c9b0	-0.38239813
181	0xbeba9c11	-0.36447194
182	0x3c040050	0.008056715
183	0xbf077209	-0.5290838
184	0xbf5b8bd6	-0.8576025
185	0xbd0e3be4	-0.034725085
186	0xbefc3418	-0.49258494
187	0xbea5d25d	-0.32387057
188	0xbe058a95	-0.13041146
189	0xbe2c4982	-0.16824916
190	0xbf0a0cd9	-0.53925854
191	0xbebcfd12	-0.36911827
192	0xbebcb43b	-0.36856255
193	0xbf036c03	-0.5133669
194	0xbe0d9547	-0.13826476
195	0x3da17114	0.07882896
196	0xbec9cf53	-0.39415988
197	0xbf2ca453	-0.6743824
198	0xbcdbcaa6	-0.026830029
199	0xbf01b834	-0.50671697
200	0xbe52ba05	-0.20578773
201	0xbe872fbc	-0.26403606
202	0xbf3c21d8	-0.7348914
203	0xbf5fffa2	-0.8749944
204	0xbf7238ac	-0.94617724
205	0xbf0c0712	-0.5469829
206	0xbe5da915	-0.21646531
207	0xbde2e764	-0.110792905
208	0xbecd7642	-0.40129286
209	0xbe2c42eb	-0.16822402
210	0xbf1cab89	-0.6119924
211	0xbf090462	-0.5352231
212	0xbf287184	-0.6579821
213	0xbf51b2a0	-0.81913185
214	0xbf3f95fa	-0.7483822
215	0xbf2481a5	-0.6426032
216	0xbedc77de	-0.430602
217	0x3d4cb824	0.049980298
218	0xbedd9b11	-0.4328237
219	0xbed66239	-0.41871813
220	0xbebd6684	-0.36992276
221	0xbe8e3410	-0.27774096
222	0xbf380a1b	-0.7189042
223	0xbf4e9443	-0.8069498
224	0xbef5fd26	-0.480447
225	0xbf4aca1b	-0.7921464
226	0xbf3dda1f	-0.7416095
227	0xbea8eb3a	-0.32991964
228	0xbed08e14	-0.40733397
229	0xbec56294	-0.38551772
230	0xbef2e615	-0.47441164
231	0xbf21d2ef	-0.63212484
232	0xbeae1bce	-0.34005588
233	0xbf25646f	-0.64606375
234	0xbf0d4f9b	-0.55199593
235	0xbe3d8ba5	-0.18510301
236	0xbec71036	-0.38879555
237	0xbf120b9e	-0.57048976
238	0xbe691301	-0.22761156
239	0xbd7b212a	-0.061310925
240	0xbf1e7a52	-0.61905396
241	0xbf26cc4b	-0.65155476
242	0xbf046a54	-0.51724744
243	0xbf26e8dc	-0.65199065
244	0xbee587b9	-0.4483011
245	0xbea71a09	-0.3263705
246	0x3e04125c	0.12897629
247	0x3dd1d857	0.10246342
248	0x3daadfeb	0.0834349
249	0xbefb5d04	-0.49094403
250	0xbef06a65	-0.46956173
251	0xbee8dfc2	-0.45483214
252	0xbeb8ad76	-0.3606984
253	0xbe3266c7	-0.17422019
254	0x3e81374a	0.25237495
255	0x3d0759cf	0.033044633

fc2.weight f4 [128, 256]
0	0xbe1be5a3	-0.15224318
1	0x3d465053	0.048416447
2	0xbf5237f8	-0.8211665
3	0xbf202131	-0.62550646
4	0xbe822567	-0.2541916
5	0xbc7c6852	-0.015405731
6	0xbf575ba9	-0.8412424
7	0x3e64de7e	0.22350499
8	0x3ef1a391	0.47195104
9	0x3f596926	0.8492607
10	0xbf5ad470	-0.85480404
11	0xbf9777e2	-1.183346
12	0xbd9c7812	-0.07640089
13	0xbf929000	-1.1450195
14	0x3f1c361a	0.6102005
15	0xbdec43e1	-0.115363844
16	0xbebefc45	-0.3730184
17	0x3eebe683	0.46074304
18	0x3ec506c2	0.38481718
19	0xbf29e911	-0.66371256
20	0x3f5ba6b5	0.8580125
21	0xbfe95937	-1.8230351
22	0xbeab5149	-0.33460453
23	0xbd173be8	-0.036922365
24	0xbf47660f	-0.77890104
25	0xbe7957d5	-0.24349912
26	0xbe0f643a	-0.14003077
27	0x3fbec319	1.4903289
28	0xc0007ccf	-2.0076177
29	0x3e8b3d6e	0.27195305
30	0xbc10847a	-0.008820647
31	0xbf407878	-0.7518382
32	0x3efdbbc4	0.49557316
33	0x3e749c90	0.23887849
34	0x3e064599	0.13112487
35	0xbefc930d	-0.4933094
36	0xbec8ad78	-0.39194846
37	0x3d8adcb3	0.06780376
38	0xbe213350	-0.1574223
39	0x3d11c725	0.03559031
40	0xbebca9e6	-0.36848372
41	0x3e4511c2	0.19245055
42	0xbf91f999	-1.1404296
43	0x3e9e8f90	0.30968904
44	0x3e4d6fc3	0.20062165
45	0xbe072a00	-0.13199615
46	0x3f358b85	0.70916015
47	0xbf49af6f	-0.78783315
48	0x3e8dea94	0.2771803
49	0x3f2a7c4c	0.6659591
50	0x3f2667fa	0.65002406
51	0x3e4c078e	0.19924757
52	0x3e9c5f71	0.30541566
53	0x3e3ff076	0.18744072
54	0xbdfc08f0	-0.12306392
55	0x3e638c17	0.22221409
56	0x3ef61544	0.480631
57	0xbf2f29fc	-0.6842344
58	0x3ea23c32	0.3168655
59	0xbf161c54	-0.58636975
60	0xbf829ce4	-1.0204129
61	0x3e82c381	0.25539783
62	0x3f2fb93b	0.68642014
63	0xbf322c36	-0.6959871
64	0x3f2bb684	0.6707537
65	0xbf1c1150	-0.60963917
66	0xbe5db86c	-0.21652383
67	0xbf331bc3	-0.69964236
68	0x3f360492	0.71100724
69	0x3fa8632c	1.3155265
70	0xbf0ea0ac	-0.55713916
71	0x3ec3c507	0.38236257
72	0x3e45cfe2	0.19317582
73	0xbe96a989	-0.2942622
74	0x3f097323	0.5369131
75	0x3eee57bd	0.46551314
76	0x3f5f1f6d	0.87157327
77	0xbe3b775f	-0.18307255
78	0xbf3625b6	-0.7115129
79	0x3e195bef	0.14976476
80	0x3f2d1a1b	0.6761796
81	0xbe839c95	-0.257054
82	0xbe7b4de1	-0.24541427
83	0x3e5bf30a	0.21479431
84	0xbf3ff19d	-0.7497805
85	0xbe3a931e	-0.18220183
86	0xbd521b97	-0.051295843
87	0xbf612d4b	-0.87959737
88	0xbec3fb4d	-0.38277665
89	0x3d9d9e84	0.0769625
90	0x3e4a2d61	0.19743873
91	0x3f4fb2ff	0.811325
92	0xbe3a4dba	-0.18193713
93	0xbe733e0e	-0.2375414
94	0x3f583a6e	0.84464157
95	0xbf5ca415	-0.8618787
96	0xbf093b67	-0.53606266
97	0x3d2df1c1	0.042466883
98	0x3e9f3907	0.31098196
99	0xbe7f23c6	-0.2491599
100	0x3b2555cc	0.002522814
101	0x3d07e80a	0.033180274
102	0x3dccf414	0.10007492
103	0xbf1b839c	-0.60747695
104	0x3e4cf587	0.20015536
105	0xbf051236	-0.5198091
106	0xbda8b1db	-0.08237048
107	0xbfd8cde2	-1.693783
108	0xbe2ba8d4	-0.16763622
109	0xbf802188	-1.0010233
110	0x3e757f8b	0.23974435
111	0xbf1287bb	-0.5723836
112	0x3f4a22d7	0.7895941
113	0x3f69a344	0.9126475
114	0xbec909ff	-0.3926544
115	0x3f337ad9	0.70109326
116	0x3f090d00	0.5353546
117	0xbe49d0ce	-0.19708559
118	0x3f066ef3	0.52513045
119	0x3ed66333	0.41872558
120	0x3d63f42e	0.05565279
121	0xbef594b6	-0.4796502
122	0x3dc982bd	0.098393895
123	0x3f58e6f9	0.84727436
124	0x3f08ff97	0.53515
125	0xbd161b00	-0.036646843
126	0xbfc518dd	-1.5398213
127	0xbf254131	-0.645526
128	0xbe72a3d8	-0.23695314
129	0xbf6391d6	-0.88894403
130	0xbebf8d47	-0.37412474
131	0x3ee03226	0.4378826
132	0x3f0f8276	0.5605844
133	0x3e3c1636	0.18367848
134	0xbfb4d1ac	-1.4126487
135	0x3f7c30d1	0.9851199
136	0x3f11ef02	0.5700532
137	0xbe899c3e	-0.26877016
138	0x3e795ba5	0.24351366
139	0x3c86340d	0.016382242
140	0x3e9dbef6	0.30809754
141	0xbf1b34a7	-0.60627216
142	0x3ca8d5bd	0.02060973
143	0x3ea76ad0	0.3269868
144	0xbe8f206a	-0.27954417
145	0x3eaad3ec	0.3336481
146	0xbf236671	-0.6382819
147	0x3ea6f3d1	0.32607892
148	0x3ee5fbb4	0.44918597
149	0xbea37106	-0.31922168
150	0xbd02b2f0	-0.03190893
151	0xbea88aaf	-0.32918307
152	0xbfe1a329	-1.7627918
153	0x3e0363c1	0.12831022
154	0x3e6d0177	0.2314509
155	0x3de3b1af	0.11117875
156	0x3ec0255f	0.37528512
157	0xbfa960cb	-1.3232664
158	0xbd3c9f1a	-0.04605017
159	0xbdd6c9c2	-0.10487701
160	0xbeac5da4	-0.33665192
161	0xbf02be77	-0.51071876
162	0xbf70d33a	-0.94072306
163	0xbcc53b1e	-0.02407604
164	0xbdfbf798	-0.12303084
165	0xbed39b98	-0.41329646
166	0x3eb50489	0.35355023
167	0x3e090378	0.1338023
168	0xbec84b33	-0.39119872
169	0xbf0b875c	-0.54503417
170	0x3eef1f83	0.4670373
171	0xba02823f	-0.00049785146
172	0x3d64ae80	0.05583048
173	0xbd3f4711	-0.046698634
174	0xbdf50886	-0.11964516
175	0xbe65fa19	-0.22458686
176	0x3ff0ee81	1.8822786
177	0xbe8dac45	-0.27670494
178	0x3e4f7a0f	0.20261405
179	0xbfb0b528	-1.3805285
180	0xbf164d6e	-0.587119
181	0x3e766661	0.24062492
182	0x3ea939ea	0.33051997
183	0x3d08838c	0.033328578
184	0xbe99235c	-0.2990979
185	0xbf1afe8e	-0.6054467
186	0x3c94b227	0.018151356
187	0xbeab1b30	-0.3341918
188	0xbdd5f7b6	-0.10447638
189	0x3de48b75	0.11159412
190	0xbfc59e31	-1.5438901
191	0x3f153eea	0.58299124
192	0xbf1e7582	-0.6189805
193	0x3f28cab8	0.65934324
194	0x3f5b4074	0.8564522
195	0xbc21bcc9	-0.00987167
196	0x3e2f45bc	0.17116445
197	0xbeef0e75	-0.46690717
198	0xbe3cbfe4	-0.18432575
199	0xbfa78f8e	-1.3090684
200	0xbe0fbd44	-0.14037043
201	0xbf766670	-0.9625006
202	0x3fb27be6	1.3944061
203	0xbf5964e2	-0.8491956
204	0xbe629271	-0.22126175
205	0x3f5d4a1c	0.86441207
206	0xbd972934	-0.07380906
207	0xbefa9426	-0.48941153
208	0xbf528e2b	-0.8224818
209	0xbecb0328	-0.39650846
210	0xbd727dde	-0.059202068
211	0x3f296471	0.66168886
212	0x3f7c3bfe	0.9852904
213	0x3fdcea18	1.725894
214	0x3f29dfd5	0.66357166
215	0xbf23fbff	-0.6405639
216	0x3eab6a1c	0.33479393
217	0x3ec03844	0.37542927
218	0xbe8dfbc7	-0.27731153
219	0x3f487dad	0.78316766
220	0x3e9c9d21	0.3058863
221	0xbec5a1bc	-0.38599956
222	0x3daf5884	0.08561805
223	0x3f046a57	0.5172476
224	0xbe641c64	-0.22276455
225	0xbe43d0d9	-0.19122638
226	0x3e9a641d	0.30154505
227	0xbf0adb05	-0.5424045
228	0xbe807c04	-0.25094616
229	0x3f80729d	1.0034977
230	0xbf07596b	-0.52870816
231	0xbee8ab3d	-0.45443144
232	0x3e7fbc9b	0.24974291
233	0xc008c612	-2.1370893
234	0xbf651512	-0.89485276
235	0x3e0fc8ab	0.14041393
236	0x3e16426b	0.14673774
237	0x3ee502ba	0.44728643
238	0x3eb9077a	0.36138517
239	0x3ca558e7	0.020183994
240	0xbee35e53	-0.444079
241	0x3c90ff94	0.017699994
242	0xbe2e4bd7	-0.17021118
243	0xbf217a49	-0.6307722
244	0xbf099099	-0.53736264
245	0x3f9931b8	1.1968298
246	0x3dd77f72	0.10522355
247	0xbbd9eb32	-0.006650352
248	0xbf3da9f3	-0.74087447
249	0xbf7a6f55	-0.9782613
250	0x3f273804	0.6531985
251	0xbe84397a	-0.258251
252	0xbe527d7b	-0.2055568
253	0xbd6a35cd	-0.057180215
254	0xc01753b7	-2.3644845
255	0x3f503840	0.8133583

fc2.bias f4 [128]
0	0x3eb11fcf	0.3459458
1	0x3e3b96e9	0.18319286
2	0xbe4b6296	-0.19861826
3	0xbe76e65b	-0.24111311
4	0xbf51796c	-0.818259
5	0xbf60eec2	-0.87864316
6	0xbd5b9ce0	-0.053616405
7	0xbe40d07c	-0.1882953
8	0xbda0d846	-0.07853751
9	0xbe9f2ece	-0.31090397
10	0xbe00e8c1	-0.12588789
11	0xbfad6348	-1.3545923
12	0xbf2d400c	-0.6767585
13	0xbf533758	-0.8250632
14	0xbd4791ae	-0.048722915
15	0xbf56637a	-0.8374554
16	0xbe760374	-0.24024755
17	0xbe9a1da3	-0.30100736
18	0xbe06010b	-0.13086335
19	0xbcd0edab	-0.025503954
20	0xbf36a962	-0.7135221
21	0xbedb26bf	-0.42802998
22	0xbf0a0b60	-0.53923607
23	0xbed44582	-0.4145928
24	0xbf422757	-0.7584128
25	0xbd5dc609	-0.05414394
26	0xbe423558	-0.18965662
27	0xbddd4c9e	-0.10805629
28	0xbcacce17	-0.021094365
29	0xbd4d832c	-0.050173923
30	0xbe577e2d	-0.21044226
31	0xbd21340d	-0.03935628
32	0xbee628b2	-0.44952923
33	0xbe4fbcd7	-0.2028688
34	0xbd28cbf0	-0.041210115
35	0xbec997cb	-0.3937362
36	0xbd0cad51	-0.034344975
37	0xbf3498bc	-0.70545554
38	0xbf210f5c	-0.6291406
39	0x3d80b00c	0.06283578
40	0xbc1ba4bc	-0.009499725
41	0xbf15ab90	-0.5846491
42	0xbd3c74df	-0.046009894
43	0xbee26176	-0.44214982
44	0xbf563361	-0.8367215
45	0x3e9a3226	0.30116385
46	0x3d7245b3	0.0591485
47	0xbd95e088	-0.073182166
48	0xbf215d8c	-0.63033366
49	0xbf199b58	-0.6000266
50	0xbeae1f97	-0.34008476
51	0xbf2c081d	-0.6719988
52	0xbed8e0ef	-0.4235911
53	0x3e8be9cc	0.2732681
54	0x3e18b488	0.14912617
55	0xbf596422	-0.84918416
56	0x3d93a659	0.07209463
57	0xbf24f25a	-0.644323
58	0xbec99149	-0.39368656
59	0xbe0ce6b6	-0.13759884
60	0xbf496c38	-0.78680754
61	0xbe7ab76b	-0.24484031
62	0xbea57276	-0.3231389
63	0xbdeef846	-0.11668448
64	0xbc2a65a0	-0.010400206
65	0xbe96f962	-0.2948714
66	0x3e45b01e	0.19305465
67	0xbecc04c8	-0.39847398
68	0xbf059a53	-0.52188605
69	0x3e133b0a	0.1437799
70	0xbd9c3370	-0.076269984
71	0xbf39ecd7	-0.72627014
72	0xbda2be0c	-0.07946405
73	0xbf48f2e1	-0.78495604
74	0xbdad637b	-0.0846624
75	0xbee91e5f	-0.45530984
76	0xbdcbf9c3	-0.09959748
77	0xbdc1a7e8	-0.09455854
78	0xbeea5809	-0.4577029
79	0xbf45acea	-0.7721697
80	0xbdb1de45	-0.08684973
81	0xbe6883ab	-0.22706477
82	0xbf229f09	-0.6352392
83	0x3c3a66af	0.011377021
84	0xbdc2e0bb	-0.0951552
85	0x3e5447a5	0.20730455
86	0xbedf3861	-0.435977
87	0x3d9d110e	0.076692685
88	0xbe306aa8	-0.17228186
89	0xbe1e709c	-0.15472645
90	0xbddd5938	-0.10808033
91	0xbd4fb618	-0.050710768
92	0xbf87c9dd	-1.0608479
93	0xbd9b97b2	-0.07597293
94	0xbf2839b5	-0.65713054
95	0xbf5b80b1	-0.8574324
96	0xbf441805	-0.7659915
97	0xbdd4c236	-0.10388605
98	0xb9f27894	-0.00046247675
99	0xbe8300d3	-0.25586566
100	0xbc0b49fd	-0.008501527
101	0xbf3ded46	-0.74190176
102	0xbf28d978	-0.6595683
103	0xbf2927f5	-0.66076595
104	0xbecda2b3	-0.40163192
105	0xbf1875e7	-0.59554905
106	0xbe713124	-0.23553902
107	0xbf0b774b	-0.544789
108	0xbe6aec90	-0.22941804
109	0xbea0677d	-0.31328955
110	0xbe581d08	-0.21104825
111	0xbea0b4bf	-0.31387898
112	0xbdc060a4	-0.09393433
113	0x3ea5bb5d	0.3236951
114	0x3c4f665c	0.012658682
115	0xbdb30dd1	-0.0874287
116	0xbf9ea6f5	-1.2394701
117	0x3e2c34e5	0.16817053
118	0xbf8c5c18	-1.0965605
119	0xbbe5e810	-0.0070161894
120	0xbecbab25	-0.3977901
121	0xbe5ea3c9	-0.21742167
122	0xbdf8c2c5	-0.12146524
123	0xbf23b834	-0.63952947
124	0xbe9a4252	-0.30128723
125	0xbec7e2f6	-0.39040345
126	0xbdf59ad9	-0.119924255
127	0xbee46d86	-0.4461481

fc3.weight f4 [2, 128]
0	0xbe030b74	-0.12797338
1	0xbf598c29	-0.8497949
2	0x3e0cc435	0.13746722
3	0xbdc6e143	-0.09710934
4	0x3eeab4c4	0.45841038
5	0x3f6cf073	0.92554396
6	0x3cb5ec6c	0.022207461
7	0x3d05f480	0.032703876
8	0x3e05d81d	0.13070722
9	0xbc6d06c5	-0.014466946
10	0xbd2265e8	-0.039647967
11	0xbe10513b	-0.14093487
12	0xc00b6946	-2.1783004
13	0xbd586bd5	-0.05283721
14	0x3d262be3	0.040569197
15	0x3b61f03e	0.003447547
16	0x3d185ba8	0.037196785
17	0x3daec207	0.085331015
18	0x3d57770b	0.052603763
19	0x3db4d11b	0.08828946
20	0x3f116374	0.5679238
21	0xbde1b8a9	-0.11021549
22	0x3e636652	0.22207001
23	0x3eb56842	0.35431105
24	0xc0184fe5	-2.3798764
25	0xbf271a32	-0.65274346
26	0xbfa7d404	-1.3111577
27	0xb9459666	-0.00018843412
28	0x3db0b9c4	0.08629182
29	0xbc6849d4	-0.014177758
30	0xbf102a13	-0.563142
31	0x3bf9047e	0.0075994125
32	0x3e1d8e4b	0.15386312
33	0x3e4e2a46	0.20133314
34	0x3d95cbe7	0.07314282
35	0xbcbd5580	-0.023112059
36	0xbc66ef2f	-0.014095112
37	0x3d28dcf6	0.04122635
38	0x3db76dc3	0.08956482
39	0xbe45ca3b	-0.19315426
40	0xbd40ab98	-0.047038645
41	0xbf0ed206	-0.5578922
42	0xbcccfd3c	-0.025023095
43	0xbd6c8846	-0.057747148
44	0x3e79e6e1	0.2440448
45	0x3dfb04de	0.12256788
46	0x3e0de5de	0.13857219
47	0x3dd5fa48	0.10448128
48	0xc0727460	-3.788353
49	0xbec2536c	-0.3795427
50	0xc0393796	-2.8940177
51	0xbd68b188	-0.056809932
52	0xbdb4fe86	-0.08837609
53	0xbe44f2ff	-0.1923332
54	0xbda33364	-0.07968786
55	0x3f0a6b8d	0.5407036
56	0x3d804b9d	0.06264422
57	0xc039d37a	-2.9035325
58	0xbf298b39	-0.6622806
59	0x3e2a17f5	0.16610701
60	0xc08b648c	-4.356024
61	0x3e123cfc	0.14281076
62	0xbca0c225	-0.019623825
63	0xbe1f2917	-0.15543018
64	0x3d8746f9	0.06605334
65	0x3d934114	0.07190147
66	0xbe9f8c92	-0.31161934
67	0xbe9f6ee4	-0.3113929
68	0xbed00dad	-0.40635434
69	0xbd9932c5	-0.07480387
70	0x3c9cc140	0.019135118
71	0xbb8f1198	-0.004366111
72	0xbd21ffc8	-0.039550573
73	0xbfe53187	-1.790574
74	0xbcf8ead5	-0.030385414
75	0xbdcbd1f3	-0.09952154
76	0xbc142071	-0.009040938
77	0x3bfea68c	0.007771319
78	0xbe7fdb99	-0.24986114
79	0xc04e3721	-3.2221148
80	0x3d348887	0.044075515
81	0xbd93d302	-0.07217981
82	0xbd8d5ffb	-0.069030724
83	0x3e87f192	0.2655149
84	0x3c1cc633	0.009568739
85	0x3ef1f432	0.4725662
86	0xc0620d4e	-3.532062
87	0x3e1b2e84	0.15154463
88	0xbc08e3c8	-0.0083550885
89	0x3e645d17	0.22301136
90	0xbd2f0e14	-0.042738035
91	0x3c51d4e4	0.012807105
92	0x3e257af2	0.16160181
93	0x3c467347	0.012112445
94	0xbcde8993	-0.02716521
95	0xbe06f468	-0.13179171
96	0x3cb5b9c2	0.022183303
97	0x3c0f1c3c	0.008734759
98	0x3ea40c4b	0.3204063
99	0x3d970463	0.073738836
100	0xbc172131	-0.009224222
101	0x3e770902	0.2412453
102	0x3df1d945	0.11809019
103	0x3debec33	0.11519661
104	0x3dacb6d8	0.08433312
105	0xbe6b80e2	-0.22998384
106	0xbb95c671	-0.004570775
107	0x3e26031b	0.16212122
108	0xbf23423e	-0.6377295
109	0xbfebd11f	-1.8423194
110	0xbeb4f804	-0.3534547
111	0x3e34c0de	0.17651698
112	0xbc50509a	-0.012714529
113	0x3f065e10	0.5248728
114	0x3f5165a6	0.8179573
115	0xbf0296a3	-0.51011103
116	0xbc69deeb	-0.014274339
117	0xbed55d4f	-0.4167275
118	0xc09f417d	-4.976744
119	0xbf5183fe	-0.8184203
120	0x3b9e11ee	0.0048239147
121	0xbe47733e	-0.19477555
122	0x3de8aee3	0.11361482
123	0xbea46af0	-0.32112837
124	0xbbc7728e	-0.006086654
125	0x3d8ab43e	0.0677266
126	0xbc749d2c	-0.014930051
127	0xc04029ad	-3.0025437
128	0xbec4a294	-0.38405287
129	0xbd333565	-0.043752093
130	0x3bf4ebb4	0.007474387
131	0xbee905dc	-0.45512283
132	0xbd702be9	-0.058635626
133	0xbf0cc366	-0.54985654
134	0x3c9848d4	0.018589415
135	0xbefdfaa3	-0.49605283
136	0x3e337f88	0.17529118
137	0xbed8ee89	-0.42369488
138	0x3d379724	0.044821873
139	0x3fa33061	1.2749139
140	0x3f3b913e	0.73268497
141	0x3eec3f5f	0.46142098
142	0xbed7f3b4	-0.42178118
143	0x3ebc3f26	0.36766928
144	0xbeed2c55	-0.46322885
145	0xbe73108d	-0.23736782
146	0x3eece930	0.46271658
147	0x3d5269d7	0.051370468
148	0xbe9a2fbf	-0.30114552
149	0x3e130804	0.14358526
150	0xbe4fd6e1	-0.20296814
151	0x3fa1c76c	1.2638984
152	0xbf10fde0	-0.5663738
153	0xbc76a482	-0.01505387
154	0x3f1473f2	0.5798942
155	0x3b9342bc	0.0044940393
156	0xbe7303a0	-0.23731852
157	0xbd59a3c7	-0.053134706
158	0xbd2ddfef	-0.042449888
159	0xbab2f4dd	-0.0013653297
160	0x3f03bc52	0.5145923
161	0xbe4ed4d4	-0.20198375
162	0x3c90d703	0.01768065
163	0x3ec40ae7	0.38289568
164	0xbd104b10	-0.035227835
165	0x3eeb2448	0.45926118
166	0x3ee2e0fc	0.44312274
167	0x3c90740b	0.017633459
168	0x3e4519d1	0.1924813
169	0x3fa694cf	1.3014163
170	0xbd1eff9d	-0.03881799
171	0xbefa7270	-0.48915434
172	0x3db7967b	0.08964249
173	0xbdc3c95f	-0.09559893
174	0xbf1a4c31	-0.6027251
175	0xbe0d5ce7	-0.1380497
176	0x3f587cb6	0.84565294
177	0x3eb664f7	0.35623905
178	0xc0063eaf	-2.097576
179	0xbf7ef47b	-0.995918
180	0xbf4bae6b	-0.79563016
181	0xbeebeae6	-0.4607765
182	0xbe31722b	-0.17328708
183	0xbfc06edb	-1.503383
184	0xbe726f1a	-0.23675194
185	0xbf06ea85	-0.527016
186	0xbfa8f84a	-1.3200772
187	0x3d38495c	0.044991836
188	0xbbe8775e	-0.007094308
189	0x3e885d5b	0.26633725
190	0x4023bab7	2.5582712
191	0xbe0ad56a	-0.13557974
192	0x3ca6a0b6	0.020340305
193	0xc030ccc8	-2.7624989
194	0x3d52b779	0.051444504
195	0x3eeb6753	0.45977268
196	0x3ea419b9	0.32050875
197	0x3d9acb11	0.07558263
198	0x3bb863b6	0.005627121
199	0x3ebf803e	0.3740253
200	0xbc88448b	-0.016634246
201	0xbf4ab98a	-0.7918936
202	0xbc8876b0	-0.016658157
203	0x3d0870f8	0.03331086
204	0x3d21a16b	0.03946058
205	0x3eba15ab	0.36344656
206	0xbeef572a	-0.46746188
207	0x3e6f7cc6	0.23387441
208	0xbc9ab360	-0.01888436
209	0x3e50d251	0.2039273
210	0xbecb9373	-0.39760932
211	0x3ef71941	0.48261455
212	0xbd3e942e	-0.046528034
213	0xbf61c2af	-0.8818769
214	0x3e390221	0.18067218
215	0x3e0a1077	0.13482843
216	0x3d08ef32	0.03343124
217	0xbdee99e0	-0.11650443
218	0xbcd71f70	-0.026260108
219	0xbc916f5e	-0.0177533
220	0x3f991af6	1.1961353
221	0x3d4f2fee	0.05058282
222	0xbf6924ea	-0.9107195
223	0x3e740af3	0.23832302
224	0xbef9b6bf	-0.48772237
225	0xbcae8db7	-0.02130781
226	0xbed594f1	-0.41715196
227	0xbf035ab3	-0.5131027
228	0x3ec8c341	0.39211467
229	0x3e9dd484	0.308262
230	0x3f41a6ee	0.7564534
231	0x3f052718	0.5201278
232	0x3e2ca1f8	0.16858661
233	0x3f12d459	0.57355267
234	0xbe9b3ca0	-0.3031969
235	0xbf2c4a55	-0.6730092
236	0xbeca39dc	-0.39497268
237	0xbd8dd266	-0.06924896
238	0xbf91f293	-1.1402153
239	0xc06099df	-3.5093915
240	0xbc29ec14	-0.010371227
241	0x3d9d7995	0.076892056
242	0xbcbe7679	-0.023249852
243	0x4018a104	2.3848276
244	0xbf90b9f4	-1.1306748
245	0x3e229599	0.1587738
246	0x3f2c3143	0.6726267
247	0xbb45a78d	-0.0030159683
248	0xbe8a49a3	-0.27009305
249	0xbe84e81d	-0.25958338
250	0x3cb66f8a	0.022269983
251	0xbe1dd1cf	-0.15412067
252	0xbf82c5e7	-1.0216645
253	0xbf150499	-0.5821014
254	0xbd12c15d	-0.035828937
255	0xbe712767	-0.23550187

fc3.bias f4 [2]
0	0x3e226028	0.15856993
1	0x3e036ea3	0.12835173
