Tennis/checkpoint_critic1.pth (torch_old, 424140 bytes, 7 tensors)

fcs1.weight f4 [256, 24]
0	0x3c56e553	0.013116199
1	0xbc997538	-0.018732652
2	0xbd1916df	-0.037375327
3	0x3cd547f6	0.02603529
4	0xbe8ea960	-0.27863598
5	0xbf00376a	-0.50084555
6	0x3c6bff41	0.014404119
7	0xbc4cdb4f	-0.012503459
8	0x3e0a8214	0.13526183
9	0xbba6289b	-0.0050707585
10	0xbd0a866b	-0.033819597
11	0xbb820ccb	-0.00396881
12	0xbe7608c4	-0.24026781
13	0x3eb3eab6	0.35140008
14	0xbcccf619	-0.025019692
15	0x3dce43f8	0.10071558
16	0x3eb9de38	0.36302352
17	0x3dfcdca5	0.12346772
18	0xbcb0d5ef	-0.021586386
19	0x3d9f20c9	0.07769925
20	0xbe6893a6	-0.22712573
21	0x3fb61983	1.4226536
22	0xbc983bee	-0.018583264
23	0x3dc7992f	0.09746014
24	0x3e865922	0.26239878
25	0x3d2bf8ec	0.041985437
26	0xbd9d9493	-0.07694354
27	0xbef7b531	-0.48380426
28	0x3ed100a5	0.40820804
29	0xbe34e257	-0.17664467
30	0x3c0f76a9	0.008756318
31	0xbefa8cb3	-0.4893547
32	0x3ed8478c	0.42242086
33	0x3d04719b	0.032334905
34	0x3dbd9a87	0.092579894
35	0x3eecf633	0.46281585
36	0x3ebc382a	0.367616
37	0xbeb8e77e	-0.36114115
38	0x3d93da18	0.072193325
39	0x3eb96e7a	0.362171
40	0x3eca2b0a	0.3948596
41	0x3e9773ec	0.2958063
42	0xbd8d06ba	-0.068860486
43	0x3f268f8a	0.65062773
44	0xbbc4adae	-0.0060021495
45	0x3f4c9b2c	0.79924273
46	0xbcc27a97	-0.023740096
47	0x3f17b78f	0.59264463
48	0x3ed5b16b	0.41736922
49	0xbfb02285	-1.3760535
50	0x3cb01857	0.021495981
51	0x3e1b38e3	0.1515842
52	0xbec0f5c3	-0.376875
53	0x3dd65f1b	0.10467359
54	0xbd77a572	-0.060460515
55	0x3e180965	0.14847334
56	0x3ecffd2a	0.40622836
57	0xbfadfeb7	-1.3593358
58	0xbda87302	-0.08225061
59	0xbda0d790	-0.07853615
60	0x3e30bcaf	0.17259477
61	0xbd94149f	-0.07230496
62	0xbd99d8f3	-0.07512083
63	0xbdee3060	-0.116303205
64	0x3eb0b43e	0.34512514
65	0xbf8b6d56	-1.0892742
66	0xbe10523c	-0.1409387
67	0x3f081a79	0.53165394
68	0x3f602412	0.8755504
69	0xbf88b57b	-1.0680383
70	0xbd5a14bf	-0.05324244
71	0x3f07a374	0.52983785
72	0x3e94bd4d	0.29050675
73	0x3ff0072d	1.875219
74	0x3cf09fa7	0.029373003
75	0x3ed4421a	0.4145668
76	0x3c4408c2	0.011964979
77	0xbf24b493	-0.64338034
78	0x3d182539	0.037144873
79	0x3ed88c4e	0.42294544
80	0x3e29bbbc	0.16575521
81	0x40247efa	2.57025
82	0xbd8fd1ca	-0.07022436
83	0x3eeb9bb4	0.4601723
84	0xbdddc75a	-0.10829039
85	0xbf8e6aaa	-1.1126301
86	0xbcf18fb4	-0.029487468
87	0x3f05911b	0.5217454
88	0x3e3c42ba	0.18384829
89	0x403005f5	2.7503636
90	0x3cbaffa2	0.022826973
91	0x3dd109f6	0.10206978
92	0xbe28ff10	-0.16503549
93	0xbf87e7c4	-1.0617604
94	0x3dc4585a	0.09587164
95	0x3e01ca76	0.12674889
96	0xbd5efea1	-0.05444205
97	0x3d2adef5	0.041716535
98	0x3ba11c60	0.0049167126
99	0xbc485de2	-0.012229415
100	0xbd45af90	-0.048263133
101	0x3f9ad7dd	1.2097126
102	0xbbe32d97	-0.006932925
103	0x3d05e147	0.032685544
104	0xbcc975e3	-0.024592346
105	0x3d611e20	0.05496037
106	0xbd053087	-0.032516982
107	0xbc9ac73b	-0.018893829
108	0x3e766f24	0.24065834
109	0x3ea93d92	0.33054787
110	0x3d0c8f43	0.034316313
111	0x3c81311b	0.015770486
112	0xbd93a2ff	-0.072088234
113	0x3be2d950	0.0069228783
114	0x3c9ee570	0.019396514
115	0x3ccb6aa7	0.02483113
116	0x3e078b7a	0.132368
117	0xbfbcc357	-1.4747113
118	0xbc2fc975	-0.010729183
119	0x3c1bb952	0.009504633
120	0x3e375c76	0.17906365
121	0xbef46a80	-0.47737503
122	0xbe29c22e	-0.1657798
123	0xbe49b735	-0.19698794
124	0x3ebcc2ee	0.3686747
125	0xbf08c750	-0.53429127
126	0xbe57ca8c	-0.21073359
127	0xbe12decf	-0.14342807
128	0x3c43ecc6	0.011958307
129	0xbf05af75	-0.5222085
130	0xbe512a4a	-0.20426288
131	0x3d97c82b	0.07411226
132	0x3eb0f2d3	0.3456026
133	0xbf663405	-0.89923126
134	0xbe7640a6	-0.24048099
135	0x3da2501f	0.07925438
136	0xbcde7e1a	-0.02715974
137	0xbf04a0bc	-0.5180776
138	0x3c83e3b7	0.016099794
139	0xbda83b48	-0.08214432
140	0xbdbc23db	-0.091865264
141	0xbf1aa48a	-0.60407317
142	0x3d16073a	0.036627986
143	0xbd8b28b4	-0.06794873
144	0x3b3223f7	0.0027182081
145	0x3cc60c48	0.024175778
146	0xbd029a7c	-0.03188561
147	0xbc900872	-0.017582152
148	0xbda3f3a8	-0.08005458
149	0x3f5aba34	0.85440373
150	0xbdc130fa	-0.0943317
151	0x3cf5acbf	0.029989598
152	0x3c3abc6b	0.011397461
153	0xbcd56963	-0.026051229
154	0xbd0e8800	-0.03479767
155	0xbd2a47b2	-0.04157228
156	0x3dac7c33	0.084221266
157	0x3efb901e	0.4913339
158	0xbd6540c0	-0.055969954
159	0xbd903257	-0.070408516
160	0x3c5fbb1c	0.01365545
161	0x3e499f41	0.19689657
162	0xbdb4f818	-0.08836383
163	0x3e87d8db	0.26532635
164	0x3e16127f	0.14655493
165	0xc02ee3af	-2.7326467
166	0xbd976414	-0.07392135
167	0x3eac23e1	0.33621123
168	0x3e5f1345	0.21784694
169	0xbed7aa6a	-0.42122203
170	0xbcc3a55f	-0.023882566
171	0x3e0b4621	0.13600971
172	0xbe9641ac	-0.2934698
173	0xc09eed16	-4.966441
174	0xbd705ecc	-0.058684155
175	0x3dde25c8	0.1084705
176	0x3eaf4852	0.34234864
177	0xbe62f638	-0.22164237
178	0xbcac7d74	-0.021055914
179	0x3ef69e18	0.4816749
180	0x3c9f81d5	0.019471088
181	0xc00b1bad	-2.1735642
182	0xbd324738	-0.04352495
183	0x3ef11f03	0.47093973
184	0x3e7d6c6e	0.24748394
185	0xbebd0ca1	-0.36923698
186	0xbc8134d3	-0.015772259
187	0x3e89730c	0.26845586
188	0x3e777e9f	0.24169396
189	0xbf0edbd4	-0.5580418
190	0xbce46b2b	-0.027883133
191	0x3e4f7476	0.2025927
192	0x3e377fcf	0.17919849
193	0xbef5e101	-0.48023227
194	0xbcf344e9	-0.029695945
195	0xbc930590	-0.017946988
196	0xbead5296	-0.3385207
197	0xbf13332c	-0.5749996
198	0xbd2f0e57	-0.042738285
199	0x3ba8584b	0.0051374785
200	0x3e040881	0.12893869
201	0xbefc5405	-0.49282852
202	0xbd2e79d7	-0.042596664
203	0xbe0a60c2	-0.13513473
204	0xbd70779f	-0.05870783
205	0xbe0b5c51	-0.13609435
206	0xbd96e095	-0.073670544
207	0xbe2bf2f9	-0.16791905
208	0x3e4c56a1	0.19954921
209	0xbebf0901	-0.37311557
210	0x3dae9402	0.08524324
211	0xbf32743b	-0.69708604
212	0x3ddf0acf	0.108907335
213	0x3f4f7348	0.8103528
214	0x3da42dab	0.08016523
215	0xbf231e5d	-0.63718206
216	0x3e8f5f5f	0.2800245
217	0x3eb1dbf3	0.3473812
218	0xbd726fe7	-0.05918875
219	0x3cf7ba36	0.03024016
220	0xbe3c978a	-0.18417183
221	0xbe57e1f8	-0.21082294
222	0xb7833fac	-1.5646066e-05
223	0xbc2dfb48	-0.010618992
224	0x3ea3fcfa	0.32028943
225	0x3df38015	0.11889664
226	0xbdc6ff14	-0.09716621
227	0xbf046947	-0.5172314
228	0x3dfd658e	0.12372886
229	0x3f2fbe9b	0.68650216
230	0xbe081045	-0.13287456
231	0xbf08e2ba	-0.5347096
232	0x3f005b2d	0.50139123
233	0x3e594a82	0.21219829
234	0x3e0cf425	0.13765009
235	0x3ed3a246	0.41334742
236	0x3e6fefb3	0.23431282
237	0x3fa0ba20	1.2556801
238	0x3da2d339	0.07950444
239	0x3e9c7eac	0.30565393
240	0xbe439594	-0.19100028
241	0x3dec6c32	0.11544074
242	0xbcb8bb92	-0.022550378
243	0xbca3044b	-0.019899508
244	0x3e655d16	0.2239879
245	0xbd958e61	-0.07302547
246	0x3cdc0c87	0.026861442
247	0x3c5470b5	0.012966325
248	0x3dc77205	0.097385444
249	0x3de0638d	0.10956488
250	0xbcbc2c34	-0.022970296
251	0x3d46cd0d	0.048535395
252	0xbd56f7eb	-0.052482527
253	0xbd2da017	-0.042389
254	0x3a9973ae	0.0011707449
255	0xbc19183d	-0.009344158

fcs1.bias f4 [256]
0	0xbf628192	-0.8847896
1	0xbee3aa89	-0.44466045
2	0x3ea502e1	0.3222876
3	0xbe6ea859	-0.23306407
4	0x3f2aa0a3	0.6665136
5	0xbe7b819d	-0.24561162
6	0xbe9a81a1	-0.30177024
7	0xbea73bf0	-0.32662916
8	0x3e6c1f5f	0.23058842
9	0xbf058aa1	-0.52164656
10	0xbfa257a8	-1.2683
11	0xbe09209f	-0.1339135
12	0xbddb6947	-0.107134394
13	0xbf56a71c	-0.8384874
14	0xbe7ac0da	-0.2448763
15	0xbf099ef1	-0.5375815
16	0xbf41b3dd	-0.75665075
17	0xbd16c639	-0.036810134
18	0xbe87f44d	-0.26553574
19	0xbe54f654	-0.20797092
20	0xbe80570b	-0.2506641
21	0xbf1c81af	-0.6113538
22	0x3dd28d20	0.10280824
23	0xbc2787fb	-0.010225291
24	0xbf89c906	-1.0764472
25	0xbe471ae0	-0.19443846
26	0xbe4dfdf4	-0.20116407
27	0xbf1ab630	-0.60434246
28	0xbfa6a9ee	-1.3020608
29	0xbead4246	-0.33839625
30	0xbc98cd3f	-0.018652556
31	0xbf39cb91	-0.7257624
32	0xbfa3850e	-1.277498
33	0x3e1b852f	0.15187524
34	0xbda4fc62	-0.08055951
35	0xbf160c1f	-0.58612245
36	0xbebc3e93	-0.3676649
37	0xbf01b62e	-0.5066861
38	0x3f29ba7e	0.6630019
39	0xbf00997a	-0.50234187
40	0xbe013836	-0.12619099
41	0xbfacc2fd	-1.3497006
42	0xbc0e21d1	-0.008675055
43	0xbf9585b6	-1.168143
44	0xbeee19c3	-0.4650403
45	0xbea0c22c	-0.3139814
46	0xbf81a09a	-1.0127137
47	0xbf334114	-0.70021176
48	0xbd98f899	-0.07469291
49	0xbd6fb7c5	-0.058524866
50	0x3f83bf3e	1.0292737
51	0xbef5f519	-0.48038557
52	0xbe2ad015	-0.1668094
53	0xbbb1939e	-0.0054192087
54	0xbf9a4bd6	-1.2054393
55	0xbf7063c2	-0.9390222
56	0xbf170fb5	-0.5900834
57	0xbf9b53f0	-1.2134991
58	0xbeca6d2e	-0.39536422
59	0xbdd0b4de	-0.10190748
60	0xbf62bc26	-0.8856834
61	0xbeab269d	-0.33427897
62	0xbf459e7d	-0.7719496
63	0xbf1695be	-0.5882224
64	0x3d9c24f3	0.07624235
65	0xbf07de32	-0.5307342
66	0xbf52c46f	-0.82330984
67	0xbf6530a7	-0.8952736
68	0xbedcd408	-0.43130517
69	0xbec30295	-0.38087907
70	0xbf4ba1a9	-0.7954355
71	0xbe71697d	-0.23575397
72	0xbe982d9e	-0.29722303
73	0xbf1427f5	-0.5787347
74	0x3cdfe2f7	0.027329905
75	0xbee05cd9	-0.43820837
76	0xbf689c8d	-0.9086388
77	0xbe4720cf	-0.19446109
78	0xbf9f5245	-1.2446982
79	0x3d9675dd	0.073466994
80	0xbf91b8aa	-1.138448
81	0xbf73f739	-0.95299107
82	0xbe820767	-0.25396273
83	0xbf0b3005	-0.54370147
84	0xbebf6c26	-0.37387198
85	0xbea97380	-0.33095932
86	0x3c5f9750	0.013646916
87	0xbdd267a1	-0.10273672
88	0xbe4e1e66	-0.20128784
89	0xbe5ec30e	-0.21754095
90	0xbd0fd9db	-0.035119873
91	0xbef2e1af	-0.47437808
92	0xbbe8a849	-0.0071001393
93	0x3d82569b	0.06364175
94	0xbefc5147	-0.4928076
95	0x3e756b36	0.23966679
96	0xbf52a279	-0.82279164
97	0xbe3a29cc	-0.18180007
98	0xbe7d2391	-0.24720599
99	0xbe493457	-0.19648872
100	0x3e1ce300	0.15320969
101	0x3de9e03a	0.11419721
102	0xbf39f1ac	-0.72634387
103	0xbfa951e3	-1.3228115
104	0xbe85fced	-0.2616953
105	0xbf33946e	-0.7014836
106	0xbe8ee929	-0.27912262
107	0xbf938d6c	-1.1527534
108	0xbf044984	-0.51674676
109	0xbd8ae237	-0.06781428
110	0xbf106b9d	-0.56414205
111	0xbe3392b0	-0.17536426
112	0xbe95244b	-0.29129252
113	0xbf9c3c37	-1.2205876
114	0xbf1d82c6	-0.6152767
115	0x3d00a8da	0.03141103
116	0xbf2bc10e	-0.67091453
117	0xbe596b97	-0.21232449
118	0xbe88296a	-0.26594096
119	0x3d8bc8e2	0.06825425
120	0xbf7d41b6	-0.9892839
121	0xbf841ff0	-1.0322247
122	0xbedde87f	-0.43341443
123	0xbf953a03	-1.1658329
124	0xbf99375d	-1.197002
125	0xbea4efde	-0.32214254
126	0xbea36186	-0.31910342
127	0x3e55ee0f	0.20891593
128	0xbd72c568	-0.059270293
129	0x3ded2694	0.11579624
130	0xbe966b1b	-0.2937859
131	0x3d958387	0.073004775
132	0xbf8b8fc5	-1.090325
133	0x3e1bbb5a	0.15208188
134	0xbf1dd705	-0.6165622
135	0xbd8cd3a4	-0.06876305
136	0xbdd11407	-0.10208898
137	0x3e94c65d	0.2905759
138	0xbe0abd48	-0.13548768
139	0xbe3b1372	-0.18269137
140	0xbc85b685	-0.016322384
141	0xbf0b2bc4	-0.54363656
142	0xbf9ef140	-1.2417374
143	0xbef38196	-0.47559804
144	0x3f0ef5dc	0.558439
145	0xbd88688e	-0.06660567
146	0xbeec923d	-0.4620532
147	0xbe8ed6f5	-0.27898374
148	0xbe2e16a3	-0.17000823
149	0xbe652dae	-0.22380707
150	0x3eb97aa3	0.36226377
151	0x3e0ef192	0.1395934
152	0xbf947b84	-1.1600194
153	0xbe158762	-0.14602426
154	0xbec5bd0a	-0.38620788
155	0xbe05e178	-0.13074291
156	0xbf88f6eb	-1.0700353
157	0xbf42a962	-0.7603971
158	0xbede15bd	-0.4337596
159	0xbee34ca2	-0.44394404
160	0xbe61ad74	-0.22038823
161	0xbf522ea1	-0.821024
162	0xbf94051b	-1.1564058
163	0xbf160b08	-0.5861058
164	0xbec605f4	-0.38676417
165	0xbf6a75a3	-0.9158575
166	0xbeea0edf	-0.4571447
167	0xbf60cebd	-0.8781546
168	0xbf460552	-0.7735187
169	0xbe8c63f5	-0.2742001
170	0xbf9c7d35	-1.222571
171	0xbe70902f	-0.23492502
172	0xbf349bf5	-0.7055047
173	0xbef3b44b	-0.4759849
174	0x3ebc026c	0.36720598
175	0xbef25f6a	-0.4733842
176	0xbe90bac7	-0.282675
177	0x3e84d94f	0.25947043
178	0x3968d690	0.00022205175
179	0xbe160299	-0.14649428
180	0xbe7dca2e	-0.24784157
181	0xbf006952	-0.50160706
182	0xbee3a764	-0.44463646
183	0xbf6aac3e	-0.9166907
184	0xbefa66f7	-0.4890668
185	0x3de2a157	0.110659294
186	0xbeee65bb	-0.4656199
187	0x3e735462	0.23762658
188	0x3eb57214	0.35438597
189	0x3eac8569	0.33695534
190	0x3e541d5b	0.20714323
191	0xbe120535	-0.14259799
192	0xbfae67f6	-1.3625476
193	0xbe083694	-0.1330207
194	0xbee2b812	-0.4428106
195	0xbe9ea4bb	-0.30985054
196	0xbf4b302e	-0.7937039
197	0xbedbe346	-0.42946833
198	0xbf59951e	-0.8499316
199	0xbfa5d4cd	-1.2955567
200	0xbe1cbaef	-0.15305685
201	0xbed54c4b	-0.4165977
202	0xbece6e6c	-0.4031862
203	0xbf294584	-0.661217
204	0xbee770eb	-0.45203337
205	0xbf0a2323	-0.53959864
206	0xbf97486e	-1.1818979
207	0xbed78412	-0.4209295
208	0xbfbb60a4	-1.4638867
209	0x3dafe31f	0.08588242
210	0x3e8dbb78	0.2768209
211	0xbf297dc2	-0.66207516
212	0x3dbb756a	0.09153254
213	0xbf9289e7	-1.1448334
214	0x3e70e296	0.23523936
215	0x3dc15cbb	0.09441515
216	0xbe839d84	-0.25706112
217	0xbec14400	-0.37747192
218	0xbf972471	-1.1807996
219	0xbf8c584c	-1.0964446
220	0xbc137d55	-0.009002049
221	0xbd074079	-0.03302047
222	0xbee6acfb	-0.4505385
223	0xbf8444d7	-1.0333508
224	0xbe09b9b1	-0.13449742
225	0xbef8d071	-0.48596528
226	0xbf73e8bf	-0.9527702
227	0xbf748b2e	-0.9552487
228	0x3ee6196b	0.44941267
229	0xbfa51075	-1.2895647
230	0xbed04888	-0.40680337
231	0xbed31b6d	-0.41231862
232	0x3e87fc4c	0.26559675
233	0xbe298742	-0.16555503
234	0xbf304cb6	-0.6886705
235	0xbf4b6f1f	-0.7946643
236	0xbecef4b0	-0.40421057
237	0xbf9beec0	-1.2182236
238	0xbead48f6	-0.33844727
239	0xbeb7ce66	-0.35899657
240	0xbf95c501	-1.1700746
241	0xbf383a3c	-0.7196386
242	0xbf93e250	-1.155344
243	0xbeede133	-0.46460876
244	0x3de84c87	0.113427214
245	0xbf256c0a	-0.6461798
246	0xbf0776ac	-0.52915454
247	0x3ee2c5f4	0.4429165
248	0xbec9700e	-0.39343303
249	0x3f6e87e2	0.9317609
250	0xbfa0987e	-1.2546537
251	0xbf7f8fda	-0.99828875
252	0xbef8237c	-0.48464572
253	0xbed5c3dd	-0.41750994
254	0x3e83946c	0.25699174
255	0xbedbea55	-0.4295222

fc2.weight f4 [256, 258]
0	0x3e146bb0	0.14494205
1	0xbd28022f	-0.041017707
2	0x3cbacce8	0.022802785
3	0x3e1289e2	0.1431041
4	0xbd9db0c9	-0.07699735
5	0x3de2eca2	0.110802904
6	0x3d57fde8	0.05273238
7	0xbad02f75	-0.0015883284
8	0x3d5130f6	0.051072083
9	0xbcfaaaaf	-0.030598966
10	0x3e2f621d	0.17127271
11	0xbd99ebf1	-0.075157054
12	0xbe05517c	-0.13019365
13	0xbe3bb386	-0.18330202
14	0xbea577c8	-0.32317948
15	0xbe16cfa1	-0.14727642
16	0x3e2407e8	0.16018641
17	0x3e44399c	0.19162601
18	0xbe3a9552	-0.18221024
19	0xbf11a3a9	-0.5689035
20	0x3f0cd137	0.55006737
21	0x3e0bf6d1	0.13668372
22	0xbe745ee5	-0.23864324
23	0x3eccb560	0.39982128
24	0x3e3aa47f	0.18226813
25	0xbd42497b	-0.047433358
26	0x3e3b94f3	0.18318538
27	0xbc20c0b5	-0.00981157
28	0x3d457349	0.048205648
29	0xbebedaea	-0.37276393
30	0x3db63a30	0.08897817
31	0xbed06c39	-0.40707567
32	0x3cb7ff58	0.022460625
33	0xbda75c85	-0.081719436
34	0xbcf9dd52	-0.030501042
35	0x3e8532bd	0.26015273
36	0xbcedb19a	-0.029015351
37	0x3e726bff	0.2367401
38	0xbda509cb	-0.080585085
39	0x3ec2b528	0.38028836
40	0x3e4ce29f	0.20008324
41	0x3e18d107	0.14923488
42	0x3e79cb94	0.24394065
43	0x3dd32f57	0.10311764
44	0xbdc3f2e4	-0.09567812
45	0x3f794ab8	0.97379637
46	0x3ecce684	0.4001962
47	0xbca527d8	-0.0201606
48	0x3e952201	0.29127505
49	0xbd44e800	-0.048072815
50	0x3b474bdd	0.0030410208
51	0x3e07a6d5	0.13247235
52	0xbec4a8ae	-0.38409942
53	0xbda1b901	-0.07896615
54	0x3d332531	0.04373664
55	0xbedf6dbe	-0.43638414
56	0xbe540d72	-0.20708254
57	0x3debce3e	0.11513947
58	0x3e5371b6	0.20648846
59	0xbd4a5c22	-0.04940427
60	0xbe14f046	-0.14544782
61	0x3da5ef0d	0.08102236
62	0x3dce0ddb	0.100612365
63	0x3e45d0cc	0.19317931
64	0xbe409bea	-0.18809476
65	0x3e8f2cc8	0.27963853
66	0x3d8ec416	0.06970994
67	0x3e180dd8	0.14849031
68	0x3e87f582	0.26554495
69	0xbe4bec95	-0.19914468
70	0x3ec35a4d	0.38154832
71	0xbd1a2ca1	-0.037640218
72	0xbd9348e3	-0.071916364
73	0x3e880d09	0.26572445
74	0xbdad57a6	-0.08463983
75	0x3bef7cc3	0.007308574
76	0xbe5f8e30	-0.21831584
77	0x3be4d902	0.006983877
78	0x3c6fbeb0	0.014632866
79	0x3eec3eaf	0.46141574
80	0xbd2c8860	-0.042122245
81	0x3e8ea585	0.27860656
82	0x3e8e3434	0.27774203
83	0x3b4ef037	0.0031576285
84	0xbf289177	-0.6584696
85	0xbdc6559f	-0.096843
86	0x3e386edf	0.18011044
87	0x3f1a92e8	0.6038041
88	0x3e41434c	0.18873328
89	0x3dc630d4	0.09677282
90	0xbe735da1	-0.23766185
91	0x3d9b1a08	0.075733244
92	0x3e9c44e6	0.30521315
93	0xbead1e64	-0.3381225
94	0xbc546a3e	-0.012964783
95	0xbdfba02a	-0.12286408
96	0x3dba3474	0.09092036
97	0x3eb66ec8	0.35631394
98	0xbe5f4359	-0.21803035
99	0xbd59df8d	-0.05319171
100	0x3df98834	0.12184182
101	0x3e793dd0	0.24339986
102	0x3d99f342	0.07517101
103	0x3e4989f7	0.19681536
104	0xbdd41f4a	-0.103575304
105	0xbdc062c0	-0.09393835
106	0x3f46d809	0.77673393
107	0x3e7cf21d	0.24701734
108	0x3dfab917	0.12242334
109	0xbf01a0fa	-0.50636256
110	0xbe0fe586	-0.140524
111	0xbdd299ec	-0.102832645
112	0xbdbae879	-0.09126372
113	0x3d2c4801	0.042060856
114	0x3ee6defa	0.45091993
115	0x3e45d4a8	0.19319403
116	0x3e3b3bc3	0.18284516
117	0xbee98dcb	-0.45615992
118	0x3f3260b8	0.6967883
119	0x3e155495	0.14583047
120	0x3e8139e4	0.2523948
121	0x3ec83c7c	0.39108646
122	0x3e1f2a4e	0.15543482
123	0x3e2aac72	0.16667345
124	0x3d66d6d6	0.056357227
125	0x3de0f9de	0.109851584
126	0xbe092f25	-0.1339689
127	0xbdb911d0	-0.090366006
128	0x3e742381	0.23841669
129	0x3d47745e	0.04869496
130	0xbd9e0137	-0.077150755
131	0xbd1c8291	-0.038210455
132	0x3d2d40dd	0.042298187
133	0x3d5e7240	0.054308176
134	0x3e785370	0.24250579
135	0x3f1b6782	0.60704815
136	0x3f086296	0.5327543
137	0x3ef5b328	0.47988248
138	0xbcad954e	-0.021189358
139	0xbbd11655	-0.006380836
140	0xbb705d7d	-0.0036676817
141	0xbe14d780	-0.14535332
142	0xbed02b8b	-0.4065822
143	0x3ecff7c4	0.40618718
144	0x3d14181f	0.036155816
145	0x3dc12664	0.094311506
146	0x3e4630b0	0.1935451
147	0x3ebd89be	0.3701915
148	0xbe9705f9	-0.29496744
149	0x3da8f05e	0.082489714
150	0xbe11483f	-0.14187716
151	0xbc390d55	-0.0112946825
152	0x3dbbc928	0.09169227
153	0xbd6296d0	-0.055319607
154	0x3e098eef	0.13433431
155	0x3b6c889e	0.0036092172
156	0xbe276c5c	-0.1634993
157	0x3db10582	0.08643629
158	0xbe0838dc	-0.1330294
159	0x3f1a28c2	0.6021844
160	0xbb857a55	-0.004073421
161	0x3eb22ac5	0.34798256
162	0x3d886867	0.06660538
163	0x3e4d1e63	0.20031123
164	0x3e05ebc9	0.13078226
165	0x3ea5d352	0.32387787
166	0x3d8d70c2	0.069062725
167	0x3e39ed39	0.181569
168	0x3d539212	0.051652975
169	0x3d9c0869	0.076187916
170	0x3def5288	0.116856635
171	0xbdc42d27	-0.095789246
172	0xbd0714c9	-0.032978807
173	0xbe1d1de1	-0.15343429
174	0x3e7a6b0b	0.24454896
175	0x3c46cb35	0.012133409
176	0xbe985cf7	-0.29758427
177	0x3db55d6e	0.08855711
178	0x3eb476f3	0.35247
179	0x3dc8f800	0.09812927
180	0x3eaa9e9a	0.33324128
181	0x3eba0723	0.3633357
182	0xbd45bc0a	-0.04827503
183	0x3e6b1e77	0.2296084
184	0xbe7c0a68	-0.24613345
185	0xbdc3f04d	-0.09567318
186	0x3d9fe735	0.07807771
187	0x3f16d3ae	0.5891675
188	0x3e58a144	0.21155268
189	0x3e483582	0.19551662
190	0xbded844a	-0.11597498
191	0x3ec83654	0.3910395
192	0x3e176867	0.1478592
193	0x3dd076ca	0.10178907
194	0x3ba41d9b	0.005008412
195	0x3dd87fcc	0.1057125
196	0x3e239a37	0.15976797
197	0x3d63b855	0.055595715
198	0x3db12456	0.08649509
199	0x3d98794b	0.0744501
200	0x3ba4e17f	0.005031764
201	0x3d012298	0.03152713
202	0x3e84eb40	0.25960732
203	0xbe8b8955	-0.27253214
204	0x3e95bad8	0.29244113
205	0xbe3bda89	-0.18345083
206	0x3e34105d	0.17584367
207	0xbe89673e	-0.2683658
208	0x3e794ab5	0.24344905
209	0xbdf9dfad	-0.12200866
210	0xbe8fd462	-0.28091723
211	0x3f00c9b0	0.5030775
212	0xbe2f86d2	-0.17141274
213	0x3de1f807	0.110336356
214	0x3dddc52b	0.108286224
215	0x3d811800	0.06303406
216	0x3f02169d	0.50815755
217	0xbe2d1aa8	-0.169047
218	0x3e101051	0.14068724
219	0x3e1c74e1	0.15278961
220	0x3e01a780	0.12661552
221	0x3d8e7f1e	0.069578394
222	0x3e526889	0.2054769
223	0xbd8697c9	-0.065719195
224	0x3ead8a61	0.33894637
225	0x3d685ffb	0.05673216
226	0xbe8abd7f	-0.270977
227	0xbdc354e6	-0.095376775
228	0xbdf0ecb3	-0.11763897
229	0x3d9f4154	0.07776132
230	0x3e288673	0.16457538
231	0xbedf5b15	-0.43624178
232	0x3dc4826c	0.095951885
233	0x3e964bcd	0.29354706
234	0x3d1162af	0.035494503
235	0x3ea8938c	0.3292507
236	0x3d777be2	0.06042088
237	0x3dcf2711	0.10114873
238	0xbd3fa108	-0.04678443
239	0x3c9dc987	0.019261135
240	0x3ddd4cd2	0.10805668
241	0xbe28b379	-0.16474713
242	0x3b6e5529	0.0036366677
243	0x3e141c36	0.14463887
244	0x3db4ea00	0.088336945
245	0x3d24cc35	0.04023381
246	0x3ea2a57d	0.31766883
247	0x3d7c00ed	0.06152432
248	0xbd532cf7	-0.051556554
249	0xbd625de4	-0.055265322
250	0x3dee594c	0.11638126
251	0x3d804719	0.06263561
252	0xbe0ea375	-0.13929541
253	0xbd6052e9	-0.05476657
254	0x3df879ab	0.12132581
255	0xbe3916f9	-0.1807517

fc2.bias f4 [256]
0	0xbf03ec64	-0.5153258
1	0xbedd25b0	-0.43192816
2	0xbf15a628	-0.5845666
3	0xbc8093a9	-0.01569541
4	0xbe7b5f72	-0.24548128
5	0xbf05719e	-0.5212649
6	0xbf3d9af3	-0.7406456
7	0xbdff0721	-0.124525316
8	0xbf244b09	-0.64176995
9	0xbf1facf8	-0.62373304
10	0xbf210eae	-0.62913024
11	0xbef54a2c	-0.4790815
12	0xbf27fb26	-0.656176
13	0xbe62b351	-0.22138716
14	0xbe9e1a5d	-0.3087949
15	0xbefe377d	-0.4965171
16	0x3e020129	0.12695755
17	0xbe0d1af5	-0.13779815
18	0xbdd390f5	-0.10330383
19	0xbf276be8	-0.65399027
20	0xbe6c1dd8	-0.2305826
21	0xbea8c0ca	-0.32959586
22	0xbeed0686	-0.4629404
23	0xbebd776c	-0.37005174
24	0xbecd7c85	-0.40134063
25	0xbe0b8d62	-0.13628152
26	0xbedaf454	-0.42764533
27	0xbe6ddf17	-0.23229633
28	0xbe9bd29b	-0.30434117
29	0xbe1c346b	-0.15254371
30	0xbf3834ac	-0.7195537
31	0xbe51874c	-0.20461768
32	0xbe97ab25	-0.2962276
33	0xbdd2f8b3	-0.10301342
34	0xbeedac47	-0.464205
35	0xbd3d1cc4	-0.04617001
36	0xbe88d2a8	-0.26723218
37	0xbe80f324	-0.25185502
38	0xbed758f4	-0.42060053
39	0xbef3b512	-0.47599083
40	0xbe9faf18	-0.31188273
41	0xbe3c477a	-0.18386641
42	0xbdb619da	-0.088916495
43	0xbede1b8d	-0.43380395
44	0x3e0d06f3	0.13772182
45	0xbe25e25f	-0.16199635
46	0xbf2d5b57	-0.677175
47	0xbdeaf689	-0.11472804
48	0xbebc3bce	-0.36764377
49	0xbeae0b26	-0.3399288
50	0xbe932a4e	-0.28743213
51	0xbed56f27	-0.41686365
52	0xbecffc77	-0.40622303
53	0xbe4ac7ee	-0.1980283
54	0xbf135ab6	-0.5756029
55	0xbec23519	-0.37931135
56	0xbd5d188f	-0.0539785
57	0xbed6072c	-0.41802347
58	0xbf4532f0	-0.7703085
59	0xbe2bd9d2	-0.1678231
60	0xbe8ace7d	-0.27110663
61	0xbe28b12e	-0.16473839
62	0xbe9259bc	-0.28584087
63	0xbe317729	-0.17330612
64	0xbeb62e93	-0.35582408
65	0xbeada3aa	-0.33913928
66	0xbe73ca12	-0.23807552
67	0xbe9ffb91	-0.31246617
68	0xbd0d42c6	-0.03448751
69	0xbee79aaa	-0.45235187
70	0xbe7aade3	-0.24480395
71	0xbedf581f	-0.4362192
72	0xbf02fa98	-0.51163626
73	0xbec966ab	-0.39336142
74	0xbf02327a	-0.5085827
75	0xbfa6228c	-1.2979293
76	0xbe9aa7b2	-0.30206066
77	0x3e84f9dd	0.2597188
78	0xbeabba22	-0.33540446
79	0xbe59b624	-0.21260887
80	0xbebb58b2	-0.36591107
81	0x3e3bbd06	0.18333825
82	0xbeb6029a	-0.3554886
83	0xbeedf4de	-0.4647588
84	0xbe95cf77	-0.29259846
85	0x3d7999b0	0.060937583
86	0xbe16008f	-0.1464865
87	0xbefd8f17	-0.4952323
88	0xbe9ebe09	-0.3100436
89	0xbead2d87	-0.33823797
90	0xbe0838fc	-0.13302988
91	0xbce7ef57	-0.028312368
92	0xbe812d64	-0.25229943
93	0xbf51d813	-0.8197033
94	0xbf24e1f6	-0.6440729
95	0xbf928bc3	-1.1448902
96	0xbf096e1e	-0.5368365
97	0xbe962df9	-0.2933195
98	0xbe467f91	-0.193846
99	0xbf16da63	-0.5892698
100	0xbe1f147f	-0.15535162
101	0xbe734c65	-0.23759611
102	0xbf8223ce	-1.0167177
103	0xbf1b8e9f	-0.607645
104	0xbe54e04c	-0.20788687
105	0xbde15abd	-0.11003635
106	0xbe3d4217	-0.18482243
107	0xbf419cf6	-0.7563013
108	0xbe1df100	-0.15423965
109	0xbf541b26	-0.82853925
110	0x3cf7e835	0.030262092
111	0xbe924a9c	-0.28572547
112	0xbf1ad5e8	-0.60482645
113	0xbcfbe4ae	-0.030748691
114	0xbeccc44b	-0.3999351
115	0xbf055c8c	-0.5209434
116	0xbef38ed3	-0.47569904
117	0xbd13ff6b	-0.036132257
118	0x3d98a4ec	0.07453331
119	0xbec798d4	-0.38983786
120	0xbe2103c9	-0.157241
121	0x3e652e27	0.22380887
122	0xbe322ade	-0.17399165
123	0xbeab23a4	-0.3342563
124	0x3e16de88	0.14733326
125	0x3de5ab03	0.112142585
126	0xbda7ce4d	-0.081936456
127	0xbd2ffe75	-0.04296728
128	0xbf2f87b4	-0.6856644
129	0x3e0878c9	0.13327326
130	0xbef2f75f	-0.47454354
131	0xbedc97d5	-0.4308459
132	0xbefdad1d	-0.49546137
133	0xbea547b3	-0.32281265
134	0xbf2595d1	-0.64681727
135	0xbefe8f7a	-0.4971884
136	0xbe1da109	-0.15393461
137	0xbe2210b8	-0.1582669
138	0x3e48dea2	0.19616178
139	0xbed76013	-0.42065486
140	0x3db360db	0.08758708
141	0xc008c7db	-2.1371982
142	0xbed0013f	-0.4062595
143	0xbd2e6d34	-0.042584613
144	0xbf7968f3	-0.97425765
145	0xbf927b8d	-1.1443955
146	0xbf087b7b	-0.53313416
147	0xbebca6e5	-0.3684608
148	0xbe336ac4	-0.17521197
149	0xbe1e8bd6	-0.1548303
150	0x3d6fc211	0.058534686
151	0xbe849c5c	-0.25900543
152	0xbf97476b	-1.181867
153	0xbef970b4	-0.48718798
154	0xbd3e4ee6	-0.046461962
155	0xbf4d5674	-0.8021004
156	0xbd72af94	-0.059249476
157	0x3ce0bcf5	0.027433852
158	0xbfb7f15a	-1.437053
159	0xbf56d575	-0.8391946
160	0xbeba432d	-0.36379376
161	0xbdebcaaf	-0.11513268
162	0xbe8814b2	-0.2657829
163	0x3e29b13b	0.16571514
164	0xbdd12730	-0.102125525
165	0xbf52fbf5	-0.82415706
166	0xbe912dde	-0.28355306
167	0xbed3e08f	-0.41382262
168	0xbe9572e1	-0.29189208
169	0xbdf9335c	-0.12167999
170	0xbc7baccb	-0.015361021
171	0xbf335ffb	-0.7006833
172	0xbbdd24f2	-0.006748789
173	0xbed6f2cf	-0.41982123
174	0xbe99ab74	-0.3001362
175	0xbf06793f	-0.52528757
176	0xbf0b5f5c	-0.5444238
177	0xbf380a46	-0.71890676
178	0xbf0ed6f9	-0.5579677
179	0xbf2c4ceb	-0.6730487
180	0xbf1160f4	-0.56788564
181	0xbf06ca1d	-0.5265215
182	0xbf2e2853	-0.6803028
183	0x3e05ba3a	0.13059321
184	0xbdca43a0	-0.0987618
185	0xbed18844	-0.40924275
186	0xbf763ef2	-0.96189797
187	0xbf0988da	-0.53724444
188	0x3d1f64da	0.03891454
189	0xbf2471e8	-0.6423631
190	0xbde6f69d	-0.112775065
191	0x3d24a8e3	0.040200125
192	0x3e5085ac	0.20363492
193	0xbeff0957	-0.49811813
194	0xbf3c345c	-0.73517394
195	0xbf0eeeb2	-0.5583297
196	0xbe1aff50	-0.15136456
197	0xbe258ef5	-0.16167815
198	0xbefff07f	-0.4998817
199	0xbf02edff	-0.51144403
200	0xbe4f5d21	-0.2025037
201	0xbe9f0654	-0.31059515
202	0xbe8cf944	-0.27533925
203	0xbf47d9f8	-0.7806697
204	0xbf4ede94	-0.8080838
205	0xbf4bd9d8	-0.7962928
206	0xbe8c96c1	-0.27458766
207	0xbf4023a6	-0.75054395
208	0xbf3a2422	-0.72711384
209	0xbe3826d1	-0.17983557
210	0xbf517990	-0.81826115
211	0xbcd4fa94	-0.025998391
212	0xbf4e39d5	-0.80556995
213	0x3e6c8809	0.23098768
214	0xbea01cae	-0.3127188
215	0xbe978ce4	-0.2959968
216	0xbf038d9d	-0.5138796
217	0xbe801e29	-0.2502301
218	0xbf136509	-0.5757604
219	0xbeded8c1	-0.43524745
220	0xbe4dc17b	-0.20093338
221	0xbe99de0c	-0.3005222
222	0x3cabea46	0.020985734
223	0xbe00d119	-0.12579764
224	0x3dc1dcf9	0.09465975
225	0xbebddd67	-0.3708298
226	0xbe86cc2b	-0.26327643
227	0xbf22d803	-0.6361086
228	0xbd708d07	-0.058728244
229	0xbec5365b	-0.38518032
230	0xbe4c5f68	-0.1995827
231	0xbeb227f9	-0.34796122
232	0xbfac5d90	-1.3466053
233	0x3dbc2672	0.0918702
234	0xbd9541ef	-0.072879665
235	0xbc30fbbf	-0.010802208
236	0xbe9865e8	-0.29765248
237	0xbe878082	-0.2646523
238	0xbea99178	-0.33118796
239	0xbe4ad73e	-0.19808671
240	0xbe894933	-0.2681366
241	0xbeb550c3	-0.3541318
242	0xbc35407d	-0.0110627385
243	0xbf05a08d	-0.52198106
244	0xbf81bdae	-1.0136011
245	0xbeabe4fb	-0.33573136
246	0xbf3fd210	-0.74929905
247	0xbecade84	-0.3962289
248	0xbf384b7d	-0.71990186
249	0xbea29a45	-0.31758323
250	0xbf02d780	-0.51110077
251	0x3dccd09f	0.10000729
252	0x3e5093e2	0.20368913
253	0xbcda3100	-0.026634693
254	0xbe964df0	-0.29356337
255	0xbf0ed7e6	-0.55798185

fc3.weight f4 [128, 256]
0	0xbc8cdc52	-0.0171949
1	0x3dc37820	0.095443964
2	0x3dacb9ff	0.084339134
3	0xbe72d8ba	-0.23715487
4	0xbd3e04ce	-0.0463913
5	0x3f72dd8d	0.9486931
6	0xbbe40152	-0.006958165
7	0xbc801ccd	-0.015638733
8	0x3ef346e9	0.47515038
9	0x3f2b3134	0.66871953
10	0xbe1a70ee	-0.15082142
11	0x3d2dacae	0.04240101
12	0x3ea10a5f	0.31453225
13	0xbe3c857e	-0.18410298
14	0xbd156913	-0.03647716
15	0x3efe9141	0.49720195
16	0xbe1dbc0d	-0.15403767
17	0x3e891615	0.2677466
18	0x3e50ffcf	0.20410083
19	0xbf2ce49f	-0.6753635
20	0xbe537e0c	-0.20653552
21	0xbecc94e5	-0.39957348
22	0x3e021db8	0.1270665
23	0x3da723ec	0.081611484
24	0xbda2833b	-0.079351865
25	0x3dd7f162	0.10544087
26	0x3ed079aa	0.40717822
27	0x3d701558	0.058614105
28	0xbe00b801	-0.12570192
29	0xbcc5e897	-0.024158759
30	0x3e07f0c0	0.13275433
31	0xbe17badc	-0.14817375
32	0x3ccb92fd	0.024850363
33	0x3f11e92e	0.5699643
34	0xbee8eb5c	-0.45492065
35	0x3d2015fc	0.039083466
36	0x3d052ad1	0.032511536
37	0x3cf1c0b9	0.029510843
38	0x3dc2dd9c	0.09514925
39	0xbd926276	-0.07147686
40	0xbe83c834	-0.2573868
41	0xbd5a32fe	-0.053271286
42	0x3c881381	0.016610863
43	0x3eebc793	0.460507
44	0xbe3608e2	-0.17776826
45	0x3e56aea8	0.20965064
46	0x3d7491a5	0.05970921
47	0xbe85d052	-0.26135498
48	0xbe096dc8	-0.13420784
49	0x3efddd07	0.49582693
50	0xbc784184	-0.015152339
51	0xbdefe94c	-0.1171442
52	0xbd85a9c7	-0.06526523
53	0xbe38e01b	-0.1805424
54	0xbfc259de	-1.5183675
55	0xbca08424	-0.01959426
56	0xbc77d5fb	-0.0151267005
57	0x3d43846b	0.047733705
58	0xbf6e7337	-0.93144554
59	0xbda2bce7	-0.079461865
60	0xbeb8bbbe	-0.36080736
61	0xbd31f1df	-0.043443557
62	0xbde71aaf	-0.11284386
63	0xbe3a320d	-0.18183155
64	0xbe3dac50	-0.18522763
65	0x3d834bf4	0.06410971
66	0xbe8c5e79	-0.27415827
67	0x3d96606d	0.073426105
68	0xbdc3f974	-0.09569064
69	0xbd417f42	-0.047240503
70	0x3f107f9b	0.5644471
71	0xbf497889	-0.7869955
72	0xbe2c8ca4	-0.16850525
73	0xbdaf3b0c	-0.08556184
74	0xbe3d2e83	-0.18474774
75	0xc000d3d4	-2.012929
76	0xbedcb725	-0.43108478
77	0xbe713976	-0.23557076
78	0xbe30db45	-0.17271145
79	0xbc2bc12a	-0.010483066
80	0xbe7d9b1e	-0.24766204
81	0xbe663590	-0.2248137
82	0xbe811087	-0.25207922
83	0x3ed538ea	0.41644984
84	0xbe5ecb57	-0.21757255
85	0xbeb50223	-0.35353193
86	0x3e006b83	0.12541012
87	0x3eb5cfba	0.35510045
88	0xbe5db499	-0.21650924
89	0x3df6567d	0.12028215
90	0xbdfe2880	-0.124100685
91	0xbe2ae4d4	-0.16688854
92	0xbd88220f	-0.06647121
93	0xbe496f20	-0.19671297
94	0xc010492b	-2.2544658
95	0xbec9b81e	-0.39398283
96	0xbdc1ffba	-0.09472604
97	0x3df344a3	0.11878326
98	0xbc821222	-0.015877787
99	0xbe4c8a10	-0.19974542
100	0xbe9675e0	-0.29386806
101	0x3d866753	0.06562676
102	0x3e43b462	0.1911178
103	0xbf005008	-0.5012212
104	0xbd0d06f3	-0.034430455
105	0xbe6f24e0	-0.2335391
106	0xbe2f7172	-0.1713312
107	0x3e071402	0.13191226
108	0xbf2c4f7b	-0.6730878
109	0xbe8fe04f	-0.2810082
110	0x3ef0e47e	0.47049326
111	0x3d41f298	0.047350496
112	0xbea3c18d	-0.31983605
113	0xbc890441	-0.016725661
114	0xbcc4dee7	-0.02403207
115	0xbe42b2cf	-0.19013523
116	0x3dc6b5da	0.09702654
117	0xbe9cd272	-0.30629307
118	0xbc39bc3a	-0.011336381
119	0x3eba9dd9	0.36448553
120	0xbeff9046	-0.4991476
121	0x3d531cf3	0.05154128
122	0xbbc7e749	-0.0061005694
123	0x3d938896	0.07203786
124	0xbd510451	-0.051029507
125	0x3e1f8cf8	0.15581119
126	0xbe286e75	-0.16448386
127	0x3e7f0292	0.24903324
128	0x3e8da308	0.27663445
129	0xbe0b1142	-0.13580802
130	0xbddf47eb	-0.10902389
131	0x3e073446	0.13203534
132	0x3e121f42	0.14269736
133	0x3deb0cef	0.11477076
134	0x3e7f5726	0.24935588
135	0xbd0b22fc	-0.03396891
136	0xbf16e02a	-0.589358
137	0x3d8c8d93	0.06862941
138	0xbeb3c6f1	-0.35112718
139	0x3e0fae2f	0.1403129
140	0xbdceed63	-0.10103872
141	0x3d69620c	0.05697827
142	0x3dfa0622	0.12208201
143	0x3bda6f2e	0.0066660857
144	0x3e125b9c	0.14292759
145	0x3f17bc9b	0.59272164
146	0xbd68de39	-0.056852553
147	0x3e817bf7	0.2528989
148	0x3e051f5b	0.13000242
149	0x3e397109	0.18109526
150	0xbdb72a06	-0.08943562
151	0xbdbe2a80	-0.0928545
152	0xc0213385	-2.5187695
153	0xbedf833f	-0.4365482
154	0x3e5774c1	0.21040632
155	0x3e8d15b5	0.27555624
156	0xbe1d014e	-0.15332529
157	0x3ec98ef7	0.39366886
158	0xbeafdd71	-0.34348634
159	0xbe569e42	-0.20958808
160	0xbde68a8c	-0.112568945
161	0x3e2e0dc1	0.16997434
162	0xbe095302	-0.13410571
163	0x3ec3b127	0.38221094
164	0x3eafa796	0.34307545
165	0xbdaca3be	-0.08429669
166	0x3ea863cb	0.32888636
167	0xbf1b136b	-0.60576504
168	0xbf0e8cf3	-0.5568382
169	0xbe83a540	-0.25712013
170	0xbd463a81	-0.048395637
171	0xbf646df9	-0.89230305
172	0xbe0a3974	-0.13498479
173	0xbe82163a	-0.25407583
174	0x3ee90e1d	0.4551858
175	0xbed5df6b	-0.41772017
176	0xbe27db9c	-0.16392368
177	0x3db5bbec	0.08873734
178	0xbeab2da7	-0.33433267
179	0xbdf60e8e	-0.12014495
180	0x3dc5a435	0.09650461
181	0x3c8d15b4	0.017222263
182	0xbef14256	-0.47120923
183	0x3c6a452f	0.014298721
184	0x3d195b63	0.03744067
185	0x3dcfea14	0.10152069
186	0x3db221a7	0.08697825
187	0x3dadfab1	0.08495081
188	0x3ec45e3b	0.38353142
189	0x3df5a831	0.119949706
190	0x3ea324f5	0.31864133
191	0xbddc236d	-0.107489444
192	0x3d81c82b	0.06337007
193	0xbddc88f6	-0.10768311
194	0xbef38fcc	-0.47570646
195	0xbd027015	-0.03184517
196	0x3d243997	0.040093984
197	0x3d6ee42f	0.05832308
198	0x3df81bf8	0.121147096
199	0x3da2339d	0.07920001
200	0xbd690ff7	-0.05689999
201	0x3ec23117	0.37928078
202	0xbe329ad5	-0.17441876
203	0xbfd5e050	-1.670908
204	0x3eca3db8	0.39500213
205	0xbd63fd92	-0.055661745
206	0xbc04d144	-0.008106533
207	0x3e87d089	0.26526287
208	0xbea8d7c8	-0.32977128
209	0xbe68aebe	-0.22722909
210	0xbf3326d1	-0.69981104
211	0x3e65ce1d	0.22441907
212	0xbfad7781	-1.3552095
213	0xbd9d995e	-0.07695268
214	0x3e1f7d31	0.155751
215	0xbe386546	-0.18007383
216	0xbd8bb9d9	-0.06822557
217	0x3cb107fa	0.021610249
218	0x3c837431	0.016046615
219	0xbd431a10	-0.047632277
220	0x3e0b2545	0.13588436
221	0xbe7daf75	-0.24773963
222	0xbda2da4f	-0.07951795
223	0xbe53f5ef	-0.20699285
224	0xbe80b20f	-0.25135848
225	0x3e64bdcf	0.22338031
226	0xbcc1f2c9	-0.02367534
227	0xbda2e165	-0.07953147
228	0xbe98f88c	-0.29877126
229	0xbda0f638	-0.078594625
230	0xbe07d240	-0.13263798
231	0x3d7e2f59	0.062056873
232	0xbef2c3c1	-0.47414973
233	0xbe85e359	-0.26150015
234	0x3e6fb2c2	0.23408034
235	0xbd80f9f8	-0.06297678
236	0x3e7d9091	0.24762179
237	0x3d218cde	0.039440982
238	0xbe3ac68b	-0.182398
239	0xbf520f13	-0.8205425
240	0x3c8c5ff1	0.017135592
241	0xbebb007c	-0.36523807
242	0xbd486023	-0.048919808
243	0x3d3c8cae	0.0460326
244	0xbeb51f7b	-0.3537558
245	0x3f3a9aef	0.7289266
246	0xbe2151ab	-0.1575381
247	0xbd4076c7	-0.046988275
248	0x3ea9af69	0.3314164
249	0xbde5adc7	-0.11214786
250	0xbe14ae30	-0.14519572
251	0xbe71ea62	-0.23624566
252	0xbde9e131	-0.11419905
253	0x3e3fa614	0.18715698
254	0x3efc815e	0.4931745
255	0x3d7ceae1	0.061747435

fc3.bias f4 [128]
0	0xbe29d75f	-0.16586064
1	0x3dd48e8e	0.10378753
2	0x3b83df18	0.0040243976
3	0xbf295791	-0.6614924
4	0xbf937ed4	-1.152308
5	0xbce12515	-0.027483502
6	0xbf912e8c	-1.134233
7	0xbf493a96	-0.7860502
8	0x3e68a46d	0.22718973
9	0xbf372f15	-0.71556216
10	0xbd60ff89	-0.054931197
11	0x3edb8cc5	0.42880836
12	0xbe3560cc	-0.17712706
13	0x3bf887a8	0.007584531
14	0xbdcebbe7	-0.10094433
15	0xbe9b8f6e	-0.30382866
16	0xbed85271	-0.42250398
17	0x3e55ea24	0.20890099
18	0xbe941907	-0.28925344
19	0xbcd68206	-0.026185047
20	0xbed35b86	-0.41280764
21	0xbf5597bf	-0.8343467
22	0xbf35628d	-0.708535
23	0xbc8d9851	-0.017284544
24	0xbf1e1862	-0.61755955
25	0xbefe4745	-0.4966375
26	0xbe12bf89	-0.14330877
27	0xbe981bd8	-0.29708743
28	0xbf8b2636	-1.0871036
29	0xbf920882	-1.1408846
30	0x3e81b43d	0.25332823
31	0x3e1d2a4f	0.1534817
32	0x3e65ae9e	0.22429892
33	0x3d950fe2	0.0727842
34	0xbed9c1cd	-0.4253067
35	0xbf217a49	-0.6307722
36	0xbf224611	-0.6338816
37	0xbf2bb5aa	-0.6707407
38	0xbf675873	-0.9036934
39	0xbfa6b657	-1.3024396
40	0xbe513c54	-0.2043317
41	0xbda84eb5	-0.08218137
42	0xbea92367	-0.33034822
43	0xbec55039	-0.38537768
44	0xbe7791f5	-0.24176772
45	0x3e0dc797	0.13845669
46	0xbe5fb123	-0.21844916
47	0x3f3a3d8f	0.7275018
48	0xbe816178	-0.25269675
49	0xbe59cdfd	-0.21269985
50	0xbeb3ca57	-0.3511531
51	0x3e7584f0	0.23976493
52	0xbf912152	-1.1338294
53	0xbec2581c	-0.37957847
54	0xbe41db0f	-0.1893122
55	0xbe80920b	-0.25111422
56	0x3eb06d17	0.3445823
57	0xbc692d60	-0.01423201
58	0xbc8e8ecf	-0.01740208
59	0xbe79009a	-0.24316636
60	0xbf53902b	-0.8264186
61	0xbe036be7	-0.1283413
62	0x3e7c03bf	0.24610804
63	0xbe581b0d	-0.21104069
64	0xbe668e0b	-0.22515123
65	0xbeed9962	-0.46406084
66	0xbdbaeeee	-0.091276035
67	0xbf1b5e0f	-0.606904
68	0x3d81998b	0.06328114
69	0xbeb7b523	-0.35880384
70	0xbe5b8a58	-0.21439493
71	0x3ccf1ca4	0.025282212
72	0xbf9b81e4	-1.2149014
73	0xbe8aa5e4	-0.2707969
74	0xbd8e36bd	-0.06944034
75	0xbe7f78f3	-0.24948482
76	0xbe9008fb	-0.28131852
77	0xbe1081f0	-0.14112067
78	0xbf621f3c	-0.8832891
79	0x3cb7fd56	0.022459667
80	0xbf1dd7d5	-0.6165746
81	0xbeb68219	-0.35646132
82	0xbf22fbc1	-0.63665396
83	0xbe1598d8	-0.14609087
84	0xbf960448	-1.1720057
85	0xbfa645f6	-1.29901
86	0xbf594409	-0.8486944
87	0xbf624f23	-0.88402003
88	0xbe6e60e1	-0.23279144
89	0xbeaecc62	-0.34140307
90	0xbf24b96c	-0.6434543
91	0xbefd1989	-0.49433544
92	0xbcc1b3c5	-0.023645291
93	0xbe9cc37e	-0.306179
94	0xbe06b4b6	-0.13154873
95	0x3ef86a4d	0.485186
96	0xbf0a1a23	-0.5394613
97	0xbe68fbfb	-0.22752373
98	0xbe99d12b	-0.30042395
99	0xbee47811	-0.44622853
100	0xbf95f386	-1.1714942
101	0xbb910d46	-0.004426631
102	0x3d47fb7d	0.048823822
103	0x3dc29401	0.09500886
104	0xbdec5961	-0.11540485
105	0xbe9557fe	-0.29168695
106	0xbe8b04ac	-0.27152002
107	0xbed92de6	-0.4241783
108	0xbf9c0cda	-1.2191422
109	0xbe961e70	-0.29320097
110	0xbe85227e	-0.26002878
111	0x3e99e84c	0.3006004
112	0xbe4b092e	-0.1982772
113	0xbef75486	-0.48306674
114	0x3def8d56	0.116968796
115	0xbe609e64	-0.21935421
116	0xbf2f1c3f	-0.68402475
117	0x3d446c67	0.047954943
118	0xbedd3580	-0.4320488
119	0xbe17c8b0	-0.1482265
120	0xbf07b395	-0.53008395
121	0xbebc89a8	-0.36823773
122	0xbe09f1b0	-0.13471103
123	0xbd19e9ce	-0.03757649
124	0x3ebd7f07	0.37010977
125	0xbed2a678	-0.4114263
126	0xbecc1cb0	-0.39865637
127	0xbc197210	-0.0093655735

fc4.weight f4 [1, 128]
0	0x3d0204b9	0.031742785
1	0xbc5b78e1	-0.013395519
2	0x3d14759d	0.036244977
3	0xbcfd204a	-0.030899186
4	0xbc8430a7	-0.01613648
5	0x3c7fcf70	0.015613422
6	0xbcbfb334	-0.02340088
7	0xbc81e032	-0.015853975
8	0x3c6b8c35	0.01437669
9	0x3cb9aa7d	0.022664303
10	0x3d355efc	0.044280037
11	0x3c303033	0.010753679
12	0x3cbb91f6	0.022896748
13	0xbcb49d3f	-0.022047637
14	0x3d254dca	0.04035739
15	0x3c823ec3	0.015899068
16	0xbcf8ca8c	-0.03037002
17	0x3c613595	0.013745685
18	0x3eb037ae	0.3441748
19	0xbcc71814	-0.024303474
20	0xbcd69266	-0.026192855
21	0xbc8857ea	-0.016643483
22	0xbc5645cd	-0.013078165
23	0x3c8479c8	0.016171351
24	0xbcbd815d	-0.023132974
25	0x3c55e7b2	0.013055729
26	0x3c97dcf1	0.01853797
27	0x3cfca28c	0.030839227
28	0xbcb8779b	-0.02251797
29	0xbd25a829	-0.040443573
30	0x3c5d235f	0.013497203
31	0xbc80b063	-0.015709108
32	0x3c8ef607	0.0174513
33	0x3c799936	0.015234282
34	0x3ca49ba5	0.020093748
35	0xbcf477d8	-0.029842302
36	0xbc944700	-0.018100262
37	0x3c9f4c3d	0.019445533
38	0x3c37c016	0.01121523
39	0xbc6e5c8c	-0.014548432
40	0xbd09cac6	-0.033640645
41	0x3c952b50	0.01820913
42	0xbcfd441a	-0.030916262
43	0x3ca62f8c	0.020286344
44	0xbcbcfc55	-0.02306954
45	0x3c5970bb	0.013271506
46	0x3c9ed8ea	0.019390542
47	0xbc62c899	-0.0138417715
48	0xbcac1357	-0.021005316
49	0xbcc2355f	-0.02370709
50	0x3c960570	0.01831314
51	0x3c7c0018	0.015380882
52	0xbce516aa	-0.027964909
53	0x3e172860	0.14761496
54	0x3c8cc95d	0.017185861
55	0x3d0f4b77	0.03498408
56	0x3c965895	0.018352786
57	0xbd2f9263	-0.042864215
58	0x3c686e75	0.014186491
59	0xbc8d5202	-0.017251018
60	0xbcfd9e38	-0.030959234
61	0x3c54fe25	0.013000046
62	0x3c38f40e	0.011288656
63	0x3db644b9	0.088998266
64	0xbcf12fc1	-0.029441716
65	0xbcbd1cda	-0.023085047
66	0x3cbc5a6d	0.022992337
67	0xbca2c04a	-0.019867081
68	0x3caee793	0.021350658
69	0x3c587231	0.013210819
70	0x3cb55890	0.022136956
71	0xbd0d1b3e	-0.03444981
72	0xbe33d4f4	-0.17561704
73	0xbcbb8539	-0.022890674
74	0xbd0077d9	-0.031364296
75	0x3c819ebf	0.015822766
76	0x3daf0ab7	0.085469656
77	0x3c9902ee	0.018678155
78	0xbd23bf3f	-0.03997731
79	0x3cf46e8a	0.029837865
80	0xbcfb7f87	-0.030700458
81	0xbc848422	-0.016176287
82	0xbcb4cf6d	-0.022071565
83	0x3ca07e6c	0.019591533
84	0xbd922ad5	-0.07137076
85	0xbd86ef2f	-0.065885894
86	0xbd10b548	-0.035329133
87	0xbd0778d4	-0.033074215
88	0x3caf5ccb	0.021406552
89	0xbd169121	-0.0367595
90	0xbd18f86b	-0.037346285
91	0xbcf822c6	-0.030290019
92	0x3deb2d18	0.1148321
93	0xbc92305d	-0.017845327
94	0x3c57bfa3	0.013168248
95	0x3b8da49f	0.004322603
96	0xbc94f8c1	-0.018185021
97	0xbcf1641a	-0.029466677
98	0x3d91e1c3	0.07123139
99	0xbd141720	-0.036154866
100	0xbd16b82b	-0.03679673
101	0x3c32361b	0.010877158
102	0x3c822f42	0.015891675
103	0x3c84fa8b	0.01623275
104	0x3c598d63	0.013278338
105	0xbd0407e4	-0.032234088
106	0x3c52475a	0.012834394
107	0xbd0e552c	-0.034749195
108	0xbd13b624	-0.036062375
109	0xbca8f8ef	-0.020626513
110	0xbcb76721	-0.022388043
111	0x3c9ca42f	0.019121258
112	0xbd041360	-0.03224504
113	0x3c2a7060	0.010402769
114	0x3c84f78c	0.01623132
115	0x3c8bb907	0.017056001
116	0xbd0403dd	-0.032230247
117	0x3c47d444	0.012196604
118	0xbcc414b0	-0.023935646
119	0x3cb4eb69	0.022084909
120	0xbd234bd2	-0.03986723
121	0xbcda1232	-0.026620004
122	0xbd0618c3	-0.03273846
123	0xbcc2a826	-0.02376182
124	0x3c53508b	0.012897621
125	0x3dd84b22	0.105612054
126	0xbcd3313a	-0.025780309
127	0x3d6857b7	0.056724276
