Tennis/checkpoint_critic2.pth (torch_old, 424152 bytes, 7 tensors)

fcs1.weight f4 [256, 24]
000000 75 05 59 3e b5 5d a3 3e 7f 80 92 bd 2a b6 f9 bd
       0.21193488 0.3190743 -0.07153415 -0.12192948
000010 16 f6 19 be db 17 a7 bf ca 89 0b 3d 94 34 05 bd
       -0.1503528 -1.3054155 0.034066953 -0.032520846
000020 af 3d 1a 3e 0d 10 fd 3e d5 51 6e 3c c9 ac 3c be
       0.15062593 0.49426308 0.014545877 -0.18425287
000030 3b 4e 41 be d5 3f 59 bf 92 6e 29 3c 6b 8a 18 be
       -0.18877499 -0.84863025 0.010341303 -0.14896552
000040 cf dc e3 3e c7 20 9f 3e 26 f4 13 bd 63 5a 12 3f
       0.445044 0.31079695 -0.03612151 0.5716917
000050 52 aa 83 bd 99 3e e3 3e ea ae 1a 3c 47 75 f2 3e
       -0.064289704 0.44383696 0.009441117 0.473551
000060 8e 8d 3a 3e b7 b9 c6 bc 91 b5 21 be 93 e5 ec bd
       0.18218061 -0.024258478 -0.15791918 -0.11567225
000070 93 5f 3f 3f 24 96 8c be 8b 72 d4 bd b7 1b 22 bd
       0.7475521 -0.27458298 -0.1037341 -0.039577212
000080 f0 f5 96 3e 45 bc 84 3e ce 7b cd bd 95 6e 3c 3e
       0.2948451 0.25924888 -0.100333795 0.18401559
000090 ac b9 a9 3d 26 f0 c9 3e 03 eb 40 3c b8 3b 38 3e
       0.08287367 0.3944103 0.011774781 0.17991531
0000a0 13 46 16 3f 29 a7 d2 3e 06 24 e8 3c 9b e7 62 3e
       0.58700675 0.41143158 0.02833749 0.22158663
0000b0 e4 bd 0f bf 1c b9 b5 3f c8 4c 88 bb af 36 8f 3e
       -0.56149125 1.4197116 -0.0041595437 0.27971408
0000c0 a2 42 07 3f 55 16 62 bf 1f 0a 9b bd d0 08 49 3e
       0.5283605 -0.88315326 -0.0757029 0.19632268
0000d0 27 db 93 3c d4 5e 86 3f f8 05 ed 3c 75 8e 55 3e
       0.018048836 1.0497689 0.02893351 0.20855124
0000e0 17 ac 08 3e 20 04 5e bf 72 13 66 bd b5 69 52 3e
       0.13346897 -0.86725044 -0.05617089 0.20548137
0000f0 4e 39 08 bd 60 49 8c 3e 08 96 07 bd f1 a3 5d 3e
       -0.033257775 0.2739973 -0.033102065 0.2164457
000100 50 78 0a 3e 83 dc 5d bf 73 0c 3a bd dd c2 b0 be
       0.13522458 -0.866646 -0.04542203 -0.3452367
000110 5f de 45 3d 7d c9 da bf 07 e6 80 bc 79 60 ad be
       0.048307773 -1.7092739 -0.015734686 -0.33862665
000120 d7 04 a7 3d d2 93 16 bf 53 d4 61 3c 06 f7 be bc
       0.0815522 -0.58819306 0.013783532 -0.02331115
000130 4a bd 21 3f 9c 99 87 bc e4 ce b3 bd 83 76 39 bd
       0.6317946 -0.016552739 -0.08779696 -0.045279037
000140 67 cc 7f 3d c9 bc f2 be a4 4c a2 3d 64 cc 35 bc
       0.062450793 -0.47409657 0.07924774 -0.011096094
000150 fe 22 ad bd 6c 65 9c 3e c8 86 fe 3d df 0d 75 bd
       -0.0845394 0.3054613 0.12428051 -0.05982768
000160 ad 02 8f 3d fe 98 eb be 61 68 8d 3d 7c 25 87 3d
       0.06982932 -0.4601516 0.06904674 0.065989465
000170 f9 1a 46 bf 0a 01 0f c0 ff 75 53 3c 29 13 62 3b
       -0.77384907 -2.2344384 0.01290655 0.0034496284
000180 36 c9 29 3e 77 57 f7 3e 4c ad 37 be c3 a9 21 be
       0.16580662 0.48308918 -0.17937201 -0.15787415
000190 fc 15 30 bd 36 e6 56 bf 95 0b 6b be 38 4b e7 bd
       -0.042989716 -0.83945024 -0.22953637 -0.11293644
0001a0 ca f0 64 3e 4d a7 81 3e 74 bb 3e 3b 8e aa 81 be
       0.22357479 0.25322953 0.002910343 -0.25325435
0001b0 14 7c 10 ba ac c6 75 bf d9 09 42 3d 16 57 8d be
       -0.0005511653 -0.96006274 0.047372673 -0.27605504
0001c0 43 08 32 3d 8c 19 e7 3e 7f e7 29 3d a6 ba fe 3e
       0.04346491 0.45136678 0.041480538 0.49751776
0001d0 d2 53 98 3e 49 e2 07 c0 01 88 8f 3c ca 58 06 3f
       0.2975145 -2.1231863 0.017520906 0.5247923
0001e0 a9 d7 ba 3e cf 43 3a bf 68 a2 1b 3d 83 ec 87 be
       0.3649266 -0.7275972 0.03799668 -0.26547632
0001f0 29 9e e4 3e 04 64 8a bf 93 e7 e5 3c f5 ef 23 be
       0.44651917 -1.0811772 0.028064525 -0.16009505
000200 c2 0a fb 3e 8a 4c 33 bf ff e8 0d ba ac 11 53 3e
       0.49031645 -0.70038664 -0.0005413442 0.2061221
000210 d8 55 99 3e 17 15 41 bf 6b 12 47 3d 0c 06 31 3e
       0.29948306 -0.75422806 0.04860155 0.17287463
000220 60 f7 0b 3f 8f 74 93 be 14 ff df bc 27 de 3b bd
       0.5467434 -0.28799865 -0.02734331 -0.045866158
000230 57 be 3e be 89 e1 c6 3f dc 41 61 bd 83 e2 4a 3c
       -0.18627296 1.5537578 -0.05499445 0.012383106
000240 bf e7 96 3e a9 e7 c3 3e 7b 03 cb bc ea 15 df 3d
       0.29473683 0.3826268 -0.024781933 0.10892852
000250 77 e9 08 3e 9b 54 d5 be 92 19 e8 bc a3 a3 d5 3d
       0.1337031 -0.4166611 -0.028332505 0.10431602
000260 20 35 2a 3e 47 7e a9 3e e2 cf 95 3d 5d 5b 1a 3d
       0.16621828 0.33104154 0.07315041 0.037684787
000270 a7 a6 d5 be 11 99 62 be 0a e2 dc 3a 2d 0a 4d 3c
       -0.41728708 -0.22128703 0.0016852033 0.012514633
000280 1a 57 82 3e 8b 4b ca 3e ee f7 6b bb 66 24 25 3d
       0.25457078 0.3951076 -0.0036005932 0.040317915
000290 61 14 93 bf 16 e1 18 bf 90 7b 68 bd 36 bd f4 3c
       -1.1490594 -0.59718454 -0.056758463 0.029875379
0002a0 c6 71 ef 3e 36 68 59 3f c3 16 21 be e2 fd 02 3e
       0.4676649 0.8492464 -0.15731339 0.12792161
0002b0 3e f6 a9 3e 4d 56 e7 3e ce d8 c8 bd c1 d2 0a 3e
       0.3319568 0.4518303 -0.09806977 0.13556959
0002c0 41 d7 38 3f d3 ed 6b 3f 3a a1 b6 3c 95 bf 80 3b
       0.7220345 0.92159766 0.022293676 0.0039290884
0002d0 d1 e7 09 3f 81 55 ad 3e 41 80 7d bc c8 c9 15 bd
       0.5386935 0.33854297 -0.015472473 -0.036569387
0002e0 6f 31 a3 3f 5f a7 61 3f 42 e5 82 3d df f7 c3 3d
       1.2749461 0.88146013 0.06391384 0.09568762
0002f0 45 5c 37 3f 2d 54 e1 3e 1f e1 5a 3d 0c df 1d 3c
       0.7162517 0.44009534 0.05343735 0.009635698
000300 46 44 f9 3e d5 ae f2 3d 8d 07 22 3c 4f 3f a9 3e
       0.486849 0.11849753 0.009889496 0.33056113
000310 7f ca 1d bf 66 4f 82 bf 29 ef 87 bb 6e 2d af 3e
       -0.6163711 -1.018048 -0.004148383 0.34214348
000320 e0 c0 08 3f b8 59 26 3e 64 43 79 bb 3d 7b 56 3e
       0.53419304 0.16245162 -0.0038034553 0.20945449
000330 ee 23 4d bf 1b d3 bd bf ee 32 58 bb 22 6d 8d 3e
       -0.8013295 -1.4830049 -0.003298934 0.27622324
000340 38 20 c3 3e f0 6e 8d bd f2 8d 53 3c f2 4c d4 be
       0.38110518 -0.06905925 0.01291226 -0.41464955
000350 39 f9 7e bf 17 74 b9 bf 18 65 8c 3d d3 3c e5 be
       -0.99599034 -1.4488553 0.068552196 -0.44772968
000360 da 2c 09 3e 58 2e d0 bc 7e 9b 10 3b 75 78 95 3d
       0.13396016 -0.025412723 0.0022065337 0.07298366
000370 c3 82 88 3c 7b a2 16 bf a0 a3 81 bb 41 7c 93 3d
       0.016663915 -0.58841676 -0.003956273 0.07201434
000380 20 7c 44 bc 18 a5 8a 3d 1b 2e f3 bc 87 9f 37 bc
       -0.011992484 0.067697704 -0.02968507 -0.011207468
000390 cc 27 34 3b 3f 7e fb bd 2b 91 f4 3c ee 35 a2 bc
       0.002748954 -0.12279939 0.029854378 -0.019801106
0003a0 60 c2 82 3e 93 d0 8b 3e f8 dd 62 bc 90 c1 18 bc
       0.2553892 0.27307567 -0.013846867 -0.009323493
0003b0 03 01 6b bc e2 c2 03 3f b1 d4 0d 3b da fa 0d bd
       -0.014343503 0.5146924 0.0021641667 -0.03466306
0003c0 51 6e b7 3d 03 5f 48 be 1e 9f 78 3d cb ed 58 bd
       0.08956588 -0.19567494 0.06069862 -0.052961152
0003d0 93 af 46 3e 13 be b2 3e 3c 09 4e 3d 1e ed 02 be
       0.19402914 0.3491064 0.050301775 -0.12785766
0003e0 2b 96 4c 3e 48 2e 90 3c 25 5e 08 be 1f e6 06 3d
       0.1997916 0.017600194 -0.13317163 0.032934304
0003f0 b8 0f 61 3e fb b1 69 3d 13 18 17 be 42 84 6d 3c
       0.21978652 0.0570545 -0.14755277 0.014496865

fcs1.bias f4 [256]
000000 24 aa c7 bf 38 8d e6 be c8 7e ab 3d 60 f9 38 3e
       -1.5598798 -0.45029616 0.08373791 0.18063879
000010 2a 80 38 bf 83 32 5b bf 6c d4 46 bf b4 2b e7 be
       -0.7207056 -0.8562395 -0.7766788 -0.4515053
000020 68 66 66 be 84 4c ac bf 9c 09 2d be 34 fc fb be
       -0.22500002 -1.3460851 -0.16898197 -0.49215853
000030 c7 89 99 3e ca ca 7e bf 03 84 b4 3d ae 75 09 3f
       0.29987928 -0.9952818 0.08814242 0.5369519
000040 ad b2 8a 3c 37 ab 5a bf e1 ac 97 bf 09 e0 9a be
       0.016930902 -0.85417503 -1.1849633 -0.3024905
000050 79 18 7c bd 52 7f 0c bf cb 5d b0 bf 44 f9 7e 3d
       -0.061546776 -0.54881775 -1.3778623 0.062249437
000060 02 51 3e bf c9 27 1a bf a1 da 1d 3e 03 79 2d be
       -0.7434236 -0.6021696 0.15415432 -0.16940694
000070 45 4b 80 be 64 8e a8 bf b3 e4 2e be 86 1d a6 bf
       -0.25057426 -1.3168454 -0.1707943 -1.297776
000080 75 51 94 3d c2 ee 9d be aa bc bc bd 7c ef 87 3f
       0.07242099 -0.3084622 -0.09215672 1.061996
000090 5e 3f 2d 3c e8 ae 62 3e e5 f9 75 be 30 9c b1 bf
       0.01057419 0.22137034 -0.24021108 -1.387579
0000a0 4b 08 29 3e 38 5a a7 bd f6 eb 90 3e 57 f6 0e 3e
       0.1650707 -0.08171505 0.28305024 0.13961159
0000b0 21 dd 1f be ec c3 5d be 6a 4f a7 bf 4e c8 86 bf
       -0.15611698 -0.2165677 -1.307111 -1.0529878
0000c0 2d ab c4 be e4 2d 28 bc e2 f9 bd be 6a 92 53 be
       -0.38411847 -0.010264847 -0.37104708 -0.20661321
0000d0 44 44 91 bf 01 20 5c bf 2f ae a2 bf ae 55 3b 3e
       -1.1348958 -0.85986334 -1.2709407 0.18294403
0000e0 f4 b2 2e bf 23 0c 7d 3f 2b c7 92 bf f3 dd 18 bf
       -0.6824181 0.98846644 -1.1467031 -0.5971367
0000f0 8b 52 96 bf 0c b0 21 3f 16 2a 1f bd e7 44 84 bf
       -1.174394 0.6315925 -0.038858496 -1.0333527
000100 a8 eb e1 bc be a3 5b bf a0 f5 b1 bf 37 4a e5 bc
       -0.02757819 -0.85796726 -1.3903084 -0.02798949
000110 37 85 cf bf 42 32 98 bf 73 59 64 bc a4 a5 7d 3d
       -1.6212529 -1.1890337 -0.013937342 0.061925545
000120 f3 e6 70 bf cf bf 2f bf 08 de fc 3e e4 19 a1 be
       -0.941024 -0.6865205 0.49388146 -0.31465065
000130 aa 33 66 be 56 c4 f1 3e a5 48 b3 bf d4 fc 97 bf
       -0.22480646 0.47220105 -1.4006544 -1.1874032
000140 76 1e e1 3e d5 f7 6f bf b0 83 e3 3d a6 b2 61 be
       0.43968552 -0.93737537 0.11109102 -0.22040805
000150 1a 1d a0 3d 8f fd 16 bf 47 a0 06 bf 7d 5b b0 3d
       0.07818051 -0.5898065 -0.52588314 0.086112
000160 df e2 5e bf 54 e4 a2 be 62 4b 6e be 34 0b c0 be
       -0.8706493 -0.31814826 -0.23270944 -0.37508547
000170 2d 97 b6 be 34 c1 c6 bf f3 7f e6 be f7 04 4f 3f
       -0.35662213 -1.5527711 -0.45019493 0.8086695
000180 37 57 af bf 19 e1 a6 3d d3 a9 bf be 29 28 30 3d
       -1.3698491 0.08148403 -0.37434253 0.04300705
000190 d4 5d dc be 73 33 a7 be ce 3e e4 be 4a bb 14 3f
       -0.43040335 -0.3265644 -0.44579166 0.5809828
0001a0 a0 0a 96 be c0 52 50 bf 59 d4 f4 be e6 6e a6 3e
       -0.2930498 -0.81376266 -0.47818258 0.32506484
0001b0 4d b0 ee 3e b6 19 a8 bf a0 bb bb be 36 3d ca be
       0.46618882 -1.3132846 -0.36666584 -0.39499825
0001c0 37 22 bf be b3 6d 29 3f 85 6e cc be 03 58 cc 3e
       -0.3733079 0.6618301 -0.3992807 0.39910898
0001d0 d3 8d cd be c0 e4 8b bf 60 5f a2 bf 17 0e 17 bf
       -0.40147266 -1.0929184 -1.2685356 -0.59005874
0001e0 cd 88 b6 be 27 30 a3 3d a8 40 1d bf ce 24 9c be
       -0.35651246 0.07968169 -0.6142678 -0.3049683
0001f0 f0 8f 98 bf 39 1a 17 bf d2 f9 cd be 1e 3d 45 be
       -1.1918926 -0.5902439 -0.4022966 -0.19261596
000200 5e 5f 8d be 91 17 10 bc 35 53 62 bf 74 79 f8 be
       -0.27611822 -0.008794681 -0.88408214 -0.4853016
000210 dc cd 27 3d 40 d9 87 bf 36 00 85 bf f8 43 9f 3e
       0.040967807 -1.0613174 -1.0390689 0.31106544
000220 5e 85 6a 3e 87 05 b7 bf bc d5 7a 3e a0 d5 85 bf
       0.22902438 -1.4298562 0.24495596 -1.0455818
000230 01 37 f5 be fc e0 e0 bd 6b d8 d6 be f9 d5 5b be
       -0.47893527 -0.10980412 -0.4196199 -0.21468343
000240 f4 56 63 bf ea 1f d7 bc 61 f9 bc be 73 ea 25 be
       -0.88804555 -0.026260335 -0.3690901 -0.16202717
000250 a1 23 e8 be 53 63 74 be d7 d8 a5 bf 56 c8 cf bf
       -0.45339683 -0.23866014 -1.2956799 -1.6233013
000260 c0 d7 43 bf 3f 83 5d be 32 f4 36 be 27 04 15 bf
       -0.76501083 -0.21632098 -0.1786659 -0.5820946
000270 c5 79 09 3f 2e 48 24 bf c7 42 c0 bd 13 4a 87 be
       0.5370143 -0.6417264 -0.09387737 -0.26423702
000280 74 e6 2f bf c1 f8 ce 3e e7 58 83 be 32 f6 4b 3c
       -0.6871102 0.4042416 -0.25653765 0.012448834
000290 3b 75 74 bf 58 d2 51 bf aa cd 99 be 21 4e e3 3c
       -0.9549138 -0.81961584 -0.30039722 0.027747216
0002a0 93 19 c1 bf c2 af a4 3d fb a0 e5 bd 3f 19 a2 bd
       -1.508593 0.08041336 -0.11212345 -0.079149716
0002b0 69 92 83 bf a9 10 10 bf 84 60 96 be 02 8f f9 be
       -1.0279056 -0.5627542 -0.2937051 -0.4874192
0002c0 22 bb 8a bf f4 93 f3 3b 4d 2b 38 be d7 af db bd
       -1.0838358 0.007433409 -0.17985268 -0.10726898
0002d0 d2 6e f3 bd 93 ff 3c bf e5 0a b9 3e ac 16 f1 bc
       -0.11886372 -0.73827475 0.36141124 -0.029429756
0002e0 9f f2 9d bf 5d 16 b6 bf 0e 6e 36 bf c0 60 37 bf
       -1.2339667 -1.4225575 -0.7126168 -0.71632004
0002f0 04 1b 18 bf 0e 0c 9b bf cd 81 b6 bf f0 2f 0d 3f
       -0.5941622 -1.2113054 -1.4258362 0.5515127
000300 ff fc 1c 3e ef 85 83 bd 41 2d 9e bf 71 29 95 bf
       0.15330885 -0.0642203 -1.235756 -1.1653272
000310 b5 e0 9d bf 36 47 70 bd 2f e0 03 3f 91 ff b8 be
       -1.23342 -0.058661662 0.5151395 -0.36132482
000320 9a 0a 2c bf e5 dd 93 be 71 20 f1 be ef 8a e9 bf
       -0.67203677 -0.2888023 -0.47095063 -1.8245524
000330 d7 78 ed 3e cb 36 c4 be 56 34 e0 be c8 82 b1 bf
       0.46381256 -0.38323054 -0.4378993 -1.3868036
000340 c2 6e d1 be c3 73 3f bf af 2d 19 bf 32 c3 92 bf
       -0.40904814 -0.74786013 -0.5983533 -1.1465819
000350 e6 66 df bd f2 12 21 bf 90 70 94 3e 24 79 68 3e
       -0.10908298 -0.62919533 0.28992128 0.22702461
000360 d1 83 a2 bf a7 ad b4 3d f0 d3 55 bf 86 3e 9b be
       -1.2696477 0.08822184 -0.83526516 -0.3032114
000370 06 34 ef be 43 4f 23 bd f6 9a 06 bf 41 85 a1 bf
       -0.46719378 -0.03987051 -0.525802 -1.2618791
000380 9b a2 94 bf ad 22 47 be b2 be 18 3d ae 42 a0 bd
       -1.1612123 -0.19446822 0.037291236 -0.07825218
000390 a6 8e 78 bf f7 7b e1 bd d5 91 e3 3d 53 d0 f7 be
       -0.97092664 -0.110099725 0.111118 -0.48401126
0003a0 a0 6b 11 be 5c 59 19 3f 8f 78 04 bf 4c 12 c0 bf
       -0.14201212 0.59901977 -0.5174646 -1.5005584
0003b0 7c c1 ba bf a6 0a 3a bd 48 1e 32 bf d2 4d 55 be
       -1.4590297 -0.04542031 -0.69577456 -0.20830467
0003c0 79 07 51 be 4e ea 9f bf e4 bd dc bf 49 ab 87 3e
       -0.20413007 -1.2493379 -1.724545 0.26497868
0003d0 8c 22 71 bf 2c 9f 02 bf 54 23 bb be 0c d2 11 3d
       -0.9419334 -0.51024127 -0.3655039 0.035600707
0003e0 cf 2c d7 bf bb 42 2d bf 5b 68 12 bf 16 10 e5 be
       -1.681055 -0.6767995 -0.57190484 -0.44738835
0003f0 f1 d0 36 bf ba d0 cb 3e eb 0e 12 bf 2b d9 4e bf
       -0.7141257 0.39807683 -0.57054013 -0.8080012

fc2.weight f4 [256, 258]
000000 62 1e d0 3e ed 79 45 bd 84 e3 88 be e3 3a 94 3e
       0.4064818 -0.04821198 -0.2673608 0.28951177
000010 5c ec 3a bd 3c e3 16 3e 96 cd 67 3d 41 74 64 3d
       -0.045635566 0.1473512 0.056592546 0.05577493
000020 3b 12 ef bd af bf c4 3d cf 14 5e be 05 f5 8e be
       -0.11673399 0.09606873 -0.21687625 -0.2792131
000030 4e a6 32 be 3a 85 23 be 69 82 c3 be 26 60 83 3d
       -0.17446253 -0.1596879 -0.38185433 0.06414823
000040 e5 82 19 3e 7d 85 05 be 00 d9 40 be 06 47 7e be
       0.14991339 -0.13039203 -0.18832779 -0.24831781
000050 d1 a0 24 bc 68 8a 03 be f6 fe 37 be f3 8b 7f be
       -0.010048107 -0.12845767 -0.17968354 -0.2495573
000060 e8 fc 04 3f 20 27 bd 3e 57 64 08 bf 8c 7c b8 3d
       0.51948404 0.36943913 -0.53278106 0.090081304
000070 da 0c 51 3f 1e bf 87 3e 35 1d 50 3e 2a b5 b2 3e
       0.81660235 0.26512998 0.20323642 0.34903842
000080 4c f9 0c 3e 4f 78 f6 be 7e 73 c1 bd 53 76 9c 3e
       0.13766974 -0.48138663 -0.094458565 0.30559024
000090 21 26 bd be 20 40 75 3c 22 3c 6d 3d a8 c5 72 3e
       -0.36943153 0.014968902 0.057918675 0.23708212
0000a0 9f 5e e3 3d 51 c8 88 bd 3f 68 7c 3e 56 3d 66 3c
       0.11102032 -0.06678832 0.24649142 0.01405271
0000b0 d6 93 7a be 99 ae 3d 3f f0 8d c4 3e 37 af cb bb
       -0.24470457 0.7409454 0.3838954 -0.0062159556
0000c0 46 9d 44 bf 33 18 04 bd 73 f3 0d bf 25 a5 3e 3e
       -0.7680248 -0.03224964 -0.554496 0.18617685
0000d0 40 2e 1c 3e 71 67 3a bd 35 8a 2e 3e a2 52 e8 3e
       0.15252018 -0.045508806 0.1704491 0.45375544
0000e0 3b a8 a9 3d 0d 53 56 3f 99 4d 31 3e b3 24 30 3e
       0.082840405 0.83720475 0.17314757 0.172015
0000f0 55 80 3d bf f1 04 da 3d 50 26 72 be 23 3f 23 bc
       -0.74023944 0.10645474 -0.23647428 -0.009963783
000100 cc e0 77 3e 83 05 9d be a6 4f ec be 95 40 d1 bd
       0.24206847 -0.30668268 -0.46154517 -0.10217396
000110 26 9f 75 3d 53 93 c7 3d 48 1f de be 16 6b 3f bf
       0.05996623 0.09744897 -0.4338324 -0.74772775
000120 15 f4 09 bc 5b 1e 0e bf f9 e5 5a 3e e9 d3 bc 3d
       -0.00842001 -0.5551507 0.2137679 0.09220106
000130 f1 d5 a9 be a3 66 ac 3e 88 80 ca 3d 57 28 b2 bd
       -0.33171037 0.33672056 0.09887797 -0.086991005
000140 f0 59 e8 3e b5 9b 9c be 1f d5 2c be 05 47 97 3e
       0.45381117 -0.30587545 -0.16878174 0.2954637
000150 c0 53 62 3d 67 3b cd 3e 8b 17 33 be c8 14 84 3e
       0.05525565 0.40084383 -0.1748945 0.25797105
000160 2b de b9 bc 3f a5 63 3e cc f1 0e bf af ab 07 3e
       -0.022688946 0.22231005 -0.558377 0.13249086
000170 c5 d8 e0 3e 6a 3f 28 be 64 5b 88 3b f3 ce 85 be
       0.43915382 -0.1643044 0.0041612852 -0.26134452
000180 1d 20 24 bf 5d 7e 81 3e ba e3 e4 3d 6e b3 91 3c
       -0.641115 0.2529172 0.11176248 0.017785754
000190 68 8f b4 3d fb aa 4b 3e fa c1 b8 be 2d 26 85 3e
       0.08816415 0.19889443 -0.36085492 0.26005688
0001a0 33 cf f8 3e d0 25 2d bf c5 62 f2 be 2e b5 ed be
       0.4859558 -0.6763582 -0.4734098 -0.46427292
0001b0 52 d5 7d 3e a5 45 87 3e a9 ad b7 3d 13 69 eb be
       0.24788406 0.26420322 0.0896867 -0.45978603
0001c0 f0 60 06 3d d7 08 b7 3e c3 a4 02 bf 26 66 03 3e
       0.03280729 0.35748932 -0.51032656 0.12831935
0001d0 01 af 04 3e 35 86 2a bd 4f 1e 05 3e b2 ce 23 3e
       0.12957384 -0.041631896 0.12999843 0.15996817
0001e0 06 97 71 bf 54 11 03 be 2d a9 2b bf 70 86 ee 3d
       -0.9437107 -0.12799579 -0.67055017 0.11646736
0001f0 ae c4 67 bf 72 1c 98 be a0 99 99 3e ea 8d 57 be
       -0.90534484 -0.29709202 0.3000002 -0.2105023
000200 82 2c 70 3e 5f 86 53 3f b8 11 24 be 25 0a 7f 3e
       0.23454478 0.8262691 -0.16022384 0.24906214
000210 a1 6e dc 3e 40 a1 bb 3d da 64 c0 3e dc b3 11 be
       0.43053153 0.09161615 0.37576944 -0.14228767
000220 f8 77 8a bd ae 44 e9 3d d8 c1 a1 3e 7d 87 2d 3d
       -0.067611635 0.11390053 0.31593204 0.04236554
000230 3a 1b 58 bf b5 d3 6c 3e bb af b5 3e 6b 24 22 3e
       -0.84416544 0.23127635 0.35485634 0.15834205
000240 2d 9a a9 bb 7b d5 ba 3e d2 de 32 be 90 86 8d be
       -0.00517585 0.36490998 -0.17467812 -0.27641726
000250 f0 67 8c 3e a9 f8 09 bd f5 00 96 3e 94 e9 95 3e
       0.27423048 -0.033684406 0.29297605 0.29279768
000260 db 4e bc be 11 ce 7d bc c3 33 87 3e 00 7f f7 3d
       -0.36778912 -0.015491025 0.2640668 0.1208477
000270 2f e0 a1 3e 51 8d f8 3e c7 ea a9 be 28 bc ee 3c
       0.3161635 0.48545316 -0.33186933 0.029142454
000280 4a 2d 00 bd 27 30 b0 3c 9b 11 c2 3e 8f 32 64 bd
       -0.03129319 0.021507336 0.37904057 -0.05571228
000290 d2 52 da 3e b3 55 ab 3c ca 89 0e 3f 81 84 40 3e
       0.42641312 0.020914888 0.55679 0.18800546
0002a0 cf 8f cc 3e 27 ce 8b 3e 25 57 a1 3e f9 b4 14 3d
       0.39953467 0.2730572 0.31511799 0.0363054
0002b0 8c e1 d8 3e 11 c9 d7 3e c2 b4 55 3d 76 3f ff 3d
       0.4235958 0.4214559 0.052174337 0.12463276
0002c0 df 64 c3 be af 5f f4 3d 3e 1a 41 be 30 2e 92 3e
       -0.38162896 0.11932313 -0.18857667 0.28550863
0002d0 13 2c dc 3e 74 da d5 3e 3f d0 34 3e 3b 50 c6 3d
       0.43002376 0.4176823 0.17657565 0.096832715
0002e0 2b 94 58 3e ad 38 bb 3e 16 d3 a1 be ee f4 b1 3e
       0.21150272 0.36566678 -0.31606358 0.3475718
0002f0 f1 68 e3 b8 be 6d 71 be f8 7c be be 1e 0a 9e 3e
       -0.0001084375 -0.2357702 -0.3720472 0.30867094
000300 1c d5 c3 3e 89 8c 20 3e 35 b4 06 3f b1 22 fd be
       0.38248527 0.1567861 0.52618724 -0.4944053
000310 b0 90 2b bf 11 f8 56 bd f6 a9 91 3d 76 24 9e 3d
       -0.6701765 -0.05248267 0.071124956 0.07721798
000320 d3 d9 b1 3d 6b 77 2f 3e 5a fb bd 3e f0 49 ca 3e
       0.08684125 0.17135398 0.3710583 0.39509535
000330 75 6c d6 bd 36 85 08 3e cb 1b 20 be 78 4f 83 3e
       -0.10469905 0.13332066 -0.15635602 0.25646567
000340 f4 27 8a bd 59 d1 81 3e 2c f8 81 3e d2 ad 60 3e
       -0.06745902 0.25355032 0.25384653 0.21941307
000350 e2 af fc 3d dd db be 3d d1 ee 18 3e ed 94 0d bf
       0.123382345 0.09319279 0.14934851 -0.5530537
000360 a0 c5 26 3e 3c b2 f2 3e e7 23 00 3f 9e 1c fa 3e
       0.16286325 0.47401607 0.5005478 0.48849958
000370 89 3a 0f be 56 0d 40 3e 94 12 59 3e 8e 31 b4 3e
       -0.13987173 0.18755087 0.21198493 0.35194057
000380 3b c8 cf 3e 6c 58 0d bf 26 0d b7 bd a6 c6 6e 3e
       0.4058245 -0.55213046 -0.08938055 0.23317966
000390 1a 91 0a bf f5 72 83 bf 95 69 8f 3e 7b e3 5e 3c
       -0.5412766 -1.0269457 0.2801024 0.01360404
0003a0 6b 7b 1c 3c 58 60 0b be 74 8f f6 3e 3d 94 4f 3e
       0.0095509095 -0.13610971 0.4815632 0.20271392
0003b0 d9 33 58 3e 4e 63 e8 3e 91 1b 69 be fe c4 2c 3d
       0.21113528 0.45388263 -0.22764422 0.042180054
0003c0 fd 76 91 3e 75 1e 7a 3e 81 7d a2 3e d2 ff 02 3e
       0.28411093 0.24425681 0.31736377 0.127929
0003d0 67 31 59 3e a7 d4 d0 3d 11 09 82 3e 8f 76 6b 3e
       0.21210252 0.1019681 0.25397542 0.22994445
0003e0 e3 2f f8 3d ab b0 55 be 77 bd 08 bf e8 b1 c8 bd
       0.12118509 -0.20868175 -0.534141 -0.09799558
0003f0 73 bc 2a 3e d9 55 e1 3e 29 79 f9 3d 13 74 cf 3e
       0.1667345 0.4401081 0.121813126 0.40518245

fc2.bias f4 [256]
000000 17 ab 7b bf de 30 b1 3e 8b f8 bd bf d1 71 bd be
       -0.9830794 0.34607595 -1.4841474 -0.37000898
000010 6d 3f 28 bd bd 92 bc be f6 6f 9c 3e 27 ce c3 3e
       -0.041076113 -0.36830702 0.3055417 0.3824322
000020 55 a8 ea 3c 09 7a da be 6a 3e ae be 7a 23 ab bf
       0.02864472 -0.4267123 -0.34031993 -1.3370202
000030 8e 6e 24 3d 83 e7 d4 be 31 36 17 bf 7c 6e 50 be
       0.040144496 -0.4158288 -0.59067065 -0.20354646
000040 11 28 8d be a0 fe 67 be 27 b5 87 bd fe 26 ef bd
       -0.2756963 -0.22655725 -0.06626349 -0.11677359
000050 33 c0 2a 3d f1 3d fd 3b 10 dd b2 bd 23 7e 43 bf
       0.0416872 0.0077283313 -0.087335706 -0.76364344
000060 28 33 83 bd d3 b7 38 be ac 5e 9e bf 1a 80 b2 3d
       -0.06406242 -0.18038873 -1.2372642 0.0871584
000070 ac a1 48 bd 0c 33 7a bd 10 bb 89 bc 72 b3 7a be
       -0.048982307 -0.06108384 -0.016812831 -0.24482515
000080 65 17 8b 3e 9e ae 66 bf fa 11 16 bf de b0 bd bd
       0.27166286 -0.90110195 -0.5862118 -0.0926225
000090 4f 48 d2 bb ac 63 96 be c7 99 81 bf c3 69 86 be
       -0.0064173113 -0.2937292 -1.0125054 -0.26252565
0000a0 e1 aa 93 3d 05 4b a9 3d 7f 8d 4d bf df fe 91 be
       0.07210327 0.08266262 -0.8029403 -0.28514764
0000b0 e9 e6 21 bf b0 e0 e5 be 2d c3 94 bd d8 e3 a8 be
       -0.63242966 -0.44897985 -0.07263789 -0.3298633
0000c0 14 ec 5a be 54 33 41 3e 8f b4 81 bf 6c 51 d9 be
       -0.21379119 0.18867236 -1.0133227 -0.42444932
0000d0 bd 34 82 bc 1b ff 32 be 61 dc 71 be 7a a4 10 bf
       -0.015894288 -0.17480128 -0.23619224 -0.5650097
0000e0 09 5e d2 be 89 d1 af be ea ff 9c 3d fd 24 f4 bf
       -0.41087368 -0.3433955 0.07665999 -1.9073788
0000f0 d0 a6 8d be ef 83 38 be d0 ee 23 3d e6 8c 54 be
       -0.2766633 -0.18019079 0.04002267 -0.20756873
000100 14 84 a0 be 01 f2 e7 be d6 da 1b be 0c e9 05 bf
       -0.31350768 -0.45301822 -0.15220198 -0.52308726
000110 fb 20 1b be 66 b2 bf 3d 70 0b c8 bd b0 32 16 be
       -0.151493 0.09360199 -0.097678065 -0.14667773
000120 43 50 61 3a 6e 02 a5 bf 55 c0 1c bf d0 9f 7f bf
       0.0008595029 -1.2891366 -0.61230975 -0.9985323
000130 af ea a0 bd d8 b6 9b 3c d1 2f ae 3d 11 e7 a4 be
       -0.07857262 0.019008085 0.08505214 -0.3220754
000140 ba 9c b3 3c 0c c9 0c bf e0 94 b9 be 16 8e 19 bf
       0.021925319 -0.54994273 -0.36246395 -0.5998243
000150 96 1b be bd fc 7e 22 bf c6 2a 05 3e c2 76 fd 3c
       -0.09282605 -0.6347501 0.13004598 0.030940417
000160 af 17 2e bf a3 67 56 be fd 19 df be 8d f4 86 be
       -0.6800489 -0.20937972 -0.43574515 -0.26358452
000170 2e 94 c2 bd 31 c4 eb 3d 49 ba bb be 59 19 15 bf
       -0.09500919 0.1151203 -0.36665562 -0.582418
000180 e0 1b 17 bf ca d9 56 3e 07 29 1c bf 64 00 07 bf
       -0.5902691 0.20981517 -0.610001 -0.5273497
000190 a6 69 95 be 81 fb ca be 4a 5d 92 3d d6 a1 84 be
       -0.29182166 -0.39645007 0.071467 -0.2590472
0001a0 cd 3b 17 bf 56 9a 1d bf 70 64 32 be 4e 2b 07 bf
       -0.59075624 -0.6156362 -0.17421126 -0.5280045
0001b0 57 ef db bc 43 4f d4 be 1a b7 1d bf 17 ad 6f 3e
       -0.026847525 -0.41466722 -0.61607516 0.23405872
0001c0 ce 20 91 be 2a 70 8f bf dc 26 08 be 7c 02 ec bd
       -0.2834534 -1.1206105 -0.13296074 -0.11523911
0001d0 13 2a bc 3e fe ed 68 3d 92 23 0e bd f2 15 01 bf
       0.3675085 0.056867592 -0.03470189 -0.5042411
0001e0 78 34 66 3e 0f b7 0a be f5 ee a4 be c5 f8 c1 3d
       0.22480953 -0.13546394 -0.3221356 0.09471277
0001f0 63 53 10 3e b0 ff 03 bf 7f c7 dd be 17 52 6d bf
       0.1409431 -0.51562023 -0.43316266 -0.92703384
000200 6b b3 1d 3e bf a6 aa be b3 31 dc be 4b 7b a0 bf
       0.15400474 -0.33330342 -0.43006667 -1.2537626
000210 6c 60 a8 bf ff bd ed 3c 0a 92 9b be 83 85 a0 be
       -1.3154426 0.029021261 -0.30384856 -0.3135186
000220 1f 95 7e 3d dd 08 13 bf d7 30 3d be 95 0d 6e be
       0.06215393 -0.574354 -0.18475662 -0.23247369
000230 5a 54 f5 bc fd de 57 bf 01 69 b4 bd ee 2b e4 be
       -0.029947449 -0.8432463 -0.088090904 -0.44564766
000240 74 96 a6 be c3 15 3a be 56 55 b3 be 69 58 07 be
       -0.32536662 -0.18172364 -0.35026044 -0.1321732
000250 6a 89 91 bf 0a de cc bd 49 41 ca be 5d 11 28 bf
       -1.137006 -0.10003288 -0.39502934 -0.65651494
000260 e4 9c 47 bd 07 a8 c6 bd 29 ae 22 be 61 17 f7 be
       -0.048733607 -0.097000174 -0.1588675 -0.48260024
000270 39 25 70 bf bc 76 6a 3d 9f ff 1c be fa 1a a6 be
       -0.938068 0.05724214 -0.15331887 -0.32442456
000280 4e b7 19 bf ba 1d 85 bf 59 18 53 3d ac c5 f0 be
       -0.60045326 -1.0399697 0.05153689 -0.47025812
000290 e8 76 c7 be 04 d3 61 bf 1c a5 04 bc b2 b9 a5 bd
       -0.38957906 -0.8821261 -0.008096006 -0.08092059
0002a0 37 63 22 be 98 7e ee bd b8 d4 b3 be 95 f4 f9 be
       -0.1585816 -0.116452396 -0.3512323 -0.48819414
0002b0 d0 a4 97 bc 02 88 a5 bd ae da 0c be 4a 0b 13 3d
       -0.018511206 -0.08082582 -0.13755295 0.035899438
0002c0 d6 cb 76 be 10 cb a6 be b6 e2 99 3e 18 15 55 bf
       -0.24101195 -0.325768 0.3005578 -0.8323531
0002d0 cb 98 83 3c 34 b0 a1 3d c6 61 3e be 9d 33 84 be
       0.016064068 0.07894936 -0.18591985 -0.25820628
0002e0 ea 52 5f bf 2e c8 14 3e 94 ef b9 bc 05 7c 4d be
       -0.8723589 0.14529487 -0.022697248 -0.20066841
0002f0 e2 e5 8f be 7b 43 37 bf 44 24 e6 3e 1e fe 94 3e
       -0.28105074 -0.7158734 0.44949543 0.29100126
000300 f4 dd 1a bf 36 2f 27 bf 4a 04 c5 3d 41 fd b5 3d
       -0.60494924 -0.65306413 0.09619959 0.08886195
000310 f2 88 2a bf 28 12 ac bd 8d ec dc bd f1 b1 fc be
       -0.6661521 -0.084019005 -0.10787306 -0.4935451
000320 de 89 98 bf 58 0b 6a be a4 ff f2 bd dc 43 95 bf
       -1.1917074 -0.2285589 -0.11865166 -1.1661334
000330 65 20 ed be 0f 7f 90 bd 41 f4 0c bf 39 c0 8d 3e
       -0.46313778 -0.070554845 -0.550602 0.27685717
000340 2c 2c 28 be da a0 98 bd e4 79 bf be d1 3b 22 bd
       -0.164231 -0.07452555 -0.37397683 -0.039607827
000350 46 4b b0 be 3f 6e 9e bf bb b6 3f bd 2f 34 d1 bd
       -0.3443243 -1.2377394 -0.046805125 -0.10215031
000360 14 a7 34 3e cc 18 49 bf 1c 50 a3 bf 72 50 d2 be
       0.1764186 -0.7855346 -1.2758822 -0.41077
000370 57 f3 ba be 9e b2 39 3d 5b 8a 54 be f8 1a 83 bd
       -0.3651378 0.04533636 -0.20755903 -0.06401628
000380 cc a1 dc 3c 98 09 64 bf be a6 4b bf 74 23 eb be
       0.02693262 -0.8907714 -0.79551303 -0.45925486
000390 82 64 06 bf ac 34 8b be 94 ed 48 3c 6c 32 8f 3e
       -0.5249711 -0.27188623 0.012263674 0.27968156
0003a0 db ef 71 bf 01 a5 d1 be 95 cf 0c bf ae 04 20 bf
       -0.94506615 -0.409462 -0.55004245 -0.6250714
0003b0 bf d5 f6 bd 26 6d 18 bf 37 c8 3d bf 29 57 fc be
       -0.120524876 -0.5954155 -0.7413363 -0.49285248
0003c0 be 29 b8 3c 2f 91 a3 be 2b 7d 5f bf b8 85 83 be
       0.022480842 -0.31946704 -0.87300366 -0.25687957
0003d0 54 2d 68 be 66 85 81 bc 5f 07 60 be 7d 86 4b bf
       -0.22673541 -0.01581068 -0.21877812 -0.7950209
0003e0 a5 85 2a be c3 19 1c bf 3b ad 7e bd 01 69 a4 be
       -0.16652544 -0.6097681 -0.062176924 -0.32111362
0003f0 e5 11 86 3b 2c 35 5c bc d0 ca 6c bf a9 78 0d 3e
       0.0040914887 -0.013440412 -0.9249697 0.1381556

fc3.weight f4 [128, 256]
000000 4f ad 87 3d fc f0 cd 3d 5c ef 1b 3f 0f 43 24 bf
       0.06624853 0.1005573 0.6091211 -0.64164823
000010 17 73 2b be 26 f9 71 3e 01 8e 2d bf 07 51 2e be
       -0.16743122 0.23630199 -0.67794806 -0.17023097
000020 18 bf 14 3d 7f 14 0d be 90 5d 9c 3e 7f 55 7b be
       0.036315054 -0.1377735 0.30540133 -0.24544333
000030 8e c7 a2 3d ed 32 93 be a8 23 0c bf 9b 1a 8b be
       0.07948218 -0.2874979 -0.5474191 -0.27168736
000040 a7 25 ce 3d 38 5b 09 bf 89 c8 78 3e e5 1a dd 3e
       0.10065775 -0.53654814 0.24295248 0.4318458
000050 45 a4 2b bf ac 6a 59 be 50 af 8a 3e 76 8e d7 bc
       -0.6704753 -0.21232098 0.27086878 -0.026313048
000060 db f6 40 3e a7 2b 2e 3c cf 1e b8 3d 70 9e 44 3e
       0.18844168 0.010630525 0.08990251 0.19201064
000070 49 2c a6 be 72 3b 25 3e 3e 3b 14 3d 02 4f 7e 3e
       -0.32455662 0.16135958 0.03618931 0.24834827
000080 61 e7 e9 bd 6c 24 cb 3e c7 68 8e bd 70 d7 2e 3f
       -0.11421085 0.39676225 -0.069535784 0.6829748
000090 a2 c5 cd 3e bf 67 62 bd 0f 5b 3c 3e a4 c7 3c be
       0.40189844 -0.05527472 0.18394111 -0.18435532
0000a0 ef 41 2f 3d 88 70 96 3e a6 63 fa bd 4d c1 28 3e
       0.04278749 0.2938273 -0.12226038 0.16479988
0000b0 78 37 59 3c 09 47 02 bf 37 e1 f2 be 0b 43 ca 3e
       0.013257854 -0.5088964 -0.4743745 0.39504275
0000c0 c6 d5 a3 3e e6 c4 13 bd 03 77 0f 3f 62 7a 9a bf
       0.31999034 -0.03607645 0.5604097 -1.2068598
0000d0 a3 48 e2 3e 62 1f cf be 7e 87 aa be 27 e4 62 bd
       0.44196042 -0.4045363 -0.33306497 -0.055393364
0000e0 d8 f7 87 3d ac 02 cf bd c7 25 55 3e d0 c5 99 be
       0.06639069 -0.101079315 0.20815192 -0.3003373
0000f0 fc 53 9c 3e 3d cb 96 bd be fb a5 bd e3 53 03 bf
       0.30532825 -0.073629834 -0.08104657 -0.51299876
000100 45 e7 01 3e 05 1a b5 be ef 74 10 3f 1c 84 4c bf
       0.12685879 -0.35371414 0.56428427 -0.7988908
000110 26 83 44 3e 51 3e 16 be 12 fb 82 bd 6c 72 a0 be
       0.19190654 -0.1467221 -0.06395544 -0.31337297
000120 86 68 41 be a7 f7 6d be c2 78 11 3e 1f a9 f0 bb
       -0.18887529 -0.23239003 0.14206222 -0.0073443796
000130 9b 9c 45 3e 8e 13 d3 bd 8c 2f 5e 3e bf 1d 5c bd
       0.19298021 -0.10306464 0.21697825 -0.053739306
000140 7d 2d 4b 3d 27 cc bd 3e f7 17 49 3c 09 99 94 bc
       0.049603928 0.37069818 0.01227378 -0.01813938
000150 e3 2e b8 3e 95 7b f2 3c 73 52 10 3f 6c 85 37 be
       0.35973272 0.029599944 0.5637581 -0.1792199
000160 a0 a5 c8 bd d1 ad f8 bd 10 16 cb be 9f 3e 09 bd
       -0.097972155 -0.12142528 -0.3966527 -0.033506986
000170 2c e5 27 be df d2 5b bf 72 37 25 3e 23 81 cb be
       -0.16396016 -0.8586864 0.16134432 -0.3974696
000180 3a 2c 98 3e 60 28 9a 3e c9 3d 87 be 0f 5d fb 3d
       0.29721242 0.3010893 -0.26414326 0.12273609
000190 54 f3 1c 3e 7d 73 45 3e 5e c3 3f be b4 1a 20 3d
       0.15327197 0.19282337 -0.1872687 0.039087966
0001a0 af cf 9b 3e 86 b3 5d 3e 87 d4 f8 be 27 4e fb be
       0.30431888 0.21650514 -0.48599645 -0.49083063
0001b0 6d 97 1f 3e 10 8e 53 bf 5e bf 9b 3e d8 42 60 bc
       0.15585108 -0.82638645 0.3041944 -0.013687812
0001c0 7b 97 c6 3d 3e 82 41 3e 03 f4 bd 3e cc 81 16 be
       0.09696861 0.1889734 0.3710023 -0.14697951
0001d0 97 65 50 bd 5d 10 e1 bd 7f 55 e6 be 27 a2 1b bf
       -0.050878134 -0.10989449 -0.44987103 -0.607943
0001e0 fd 52 29 be ed da e6 3e ac 17 62 be 4d e1 04 bf
       -0.16535564 0.45088902 -0.22079343 -0.5190628
0001f0 c8 5e 5e bf 79 88 e2 3e 81 42 56 be 44 75 85 bf
       -0.86863375 0.44244745 -0.20923807 -1.0426412
000200 3e 29 98 be e4 61 9f be 4b c3 43 bf 4f c6 96 be
       -0.29718965 -0.31129372 -0.7646987 -0.29448172
000210 73 5e f4 3d 0b 7c 08 be 82 17 cb 3d 38 ee 1e 3d
       0.11932077 -0.13328569 0.09916593 0.0388014
000220 76 90 8e 3e e9 10 da 3d ca 74 61 be 9a d9 29 3e
       0.2784459 0.106477566 -0.22017208 0.16586915
000230 99 6f 12 bd 60 7b de be 46 2e 59 bf 35 d7 4a be
       -0.03575096 -0.43453503 -0.8483623 -0.19808657
000240 79 45 02 3f 7c b9 de 3e 82 7f 3a be cd 2a c0 be
       0.50887257 0.43500888 -0.18212703 -0.37532654
000250 64 79 0b bf a7 aa 85 bd 9d 83 d9 bd 63 30 83 be
       -0.544821 -0.0652669 -0.10620806 -0.25622854
000260 6e 85 11 3e 5c 14 eb bd 0b c5 92 be e7 31 ca bf
       0.14211056 -0.114784926 -0.28665957 -1.5796479
000270 d3 77 58 3b bd 7c 11 bf 08 9d 95 3e 4f ba 17 bd
       0.0033030405 -0.5683096 0.29221368 -0.037042912
000280 6c 42 ad be f6 9e 4b 3e 91 0c 93 3e 24 26 e7 be
       -0.33839738 0.19884858 0.28720525 -0.45146286
000290 1d dd 34 bc 23 eb 22 3f 9f 3f ab 3e c6 e7 08 be
       -0.011039046 0.6364004 0.33446977 -0.13369665
0002a0 3c 0f 83 3e 4a 46 2c 3a d9 f0 e7 bd b1 dc 2b bf
       0.2559756 0.0006571753 -0.11325235 -0.67133623
0002b0 e3 06 f8 be 9d ff a5 be 73 4b de 3c 7e 21 a5 3e
       -0.48442754 -0.3242158 0.027135586 0.32252115
0002c0 a9 95 ae 3e 06 e9 8b 3d 55 56 db be 06 a3 6f be
       0.34098557 0.06831555 -0.42839304 -0.23402032
0002d0 f2 37 9a be 9f 58 50 3e e1 73 b3 be 39 b5 38 bf
       -0.30120808 0.20346306 -0.35049346 -0.72151524
0002e0 3f 60 2e be 7e a3 21 bf b4 e2 82 bd 9a f1 d9 3e
       -0.17028902 -0.63140094 -0.063908964 0.4256714
0002f0 ed 0e 9b 3e 60 a4 37 bf 32 66 ae 3e 6c 9b 57 be
       0.30284825 -0.7173519 0.34062344 -0.21055382
000300 e9 e9 88 bc 39 57 2d bf ed 5b 85 3d 44 77 dd be
       -0.0167131 -0.67711216 0.06511674 -0.43255055
000310 94 17 34 3b a8 c0 88 bd 7e f9 0c be 49 bb 2c 3f
       0.0027479874 -0.06677371 -0.13767049 0.67473274
000320 bc a3 93 3e ea 0c 1c be 8f 69 3a 3e 49 37 b5 3b
       0.28835857 -0.15239301 0.1820433 0.005530272
000330 ee fd 37 3e c4 dc 37 3e 8b d7 bb bd 4e ad 99 3e
       0.1796796 0.17955309 -0.09171971 0.30015033
000340 7b 5d 3c be 63 c0 38 bf cb 8d 98 be 85 59 08 bf
       -0.18395035 -0.7216856 -0.2979568 -0.53261596
000350 55 89 0c bf 44 7e a4 be d7 61 ea 3d a4 37 97 bd
       -0.5489705 -0.32127583 0.11444443 -0.073836595
000360 ca 30 4f 3e 07 96 14 3e 3b be b8 3e 41 90 4b be
       0.20233455 0.14510356 0.36082634 -0.19879247
000370 ef 49 7c 3d 25 20 2f be a7 c7 2d 3d 94 7f 81 3b
       0.061593946 -0.17102106 0.04242673 0.003951976
000380 a6 ae d0 be eb 47 3a bf 33 77 d2 3e 70 1b f6 3e
       -0.40758246 -0.7276599 0.41106567 0.48067808
000390 fa a3 dc 3e 63 28 75 bd e5 f6 db 3d 81 3a 68 3e
       0.43093854 -0.05985297 0.10740451 0.22678567
0003a0 85 41 76 3e 61 bf 9e be ab 15 03 3f 2f ce 7f bf
       0.24048431 -0.31005386 0.5120494 -0.99923986
0003b0 17 94 3e bf 82 5a fd ba 7a 85 64 3e 2a 6c 2f 3e
       -0.7444472 -0.0019329342 0.22316542 0.17131105
0003c0 02 2c 42 be c8 ba 04 be 21 d3 29 3e f2 9c 06 bf
       -0.189621 -0.12961876 0.16584446 -0.5258323
0003d0 e2 75 d3 bd e0 ce 03 bf 9e 79 f5 bd 6e b7 a8 be
       -0.10325219 -0.5148754 -0.11986087 -0.32952446
0003e0 e6 c9 00 bf 6d b5 2b bf 97 b5 16 3e 53 80 23 3f
       -0.5030807 -0.6707371 0.14717709 0.6386768
0003f0 d0 b2 a3 3e ab 66 8a 3e 82 da 00 3e ad dc 64 be
       0.3197236 0.27031454 0.12583354 -0.22349806

fc3.bias f4 [128]
000000 14 0d 70 3d 97 6c a2 be d0 a1 42 bf 03 df c3 bf
       0.058606222 -0.31723472 -0.76028156 -1.5302433
000010 46 e6 a9 be 29 4d 0c bf 71 46 26 3f d5 68 7f bf
       -0.33183497 -0.5480524 0.64951235 -0.99769336
000020 5b 37 9c bf 74 c1 0c bf 1a 24 a2 3f b2 1c 53 bf
       -1.2204393 -0.54982686 1.2667267 -0.8246566
000030 2e 0b fa be cf cd 22 bf 40 fa 9a 3d af 59 da 3d
       -0.48836654 -0.6359529 0.07567263 0.10661637
000040 46 df 65 bf e8 8f 8d bd 93 41 6d bf 0a 31 82 bd
       -0.89793813 -0.069122136 -0.92678183 -0.0635701
000050 3c a1 10 bf e7 9e ee be d8 78 7b bf e2 65 b4 3e
       -0.56496024 -0.46605608 -0.9823127 0.3523398
000060 a1 6e 03 bf e3 f5 a5 bf 8a 81 c3 be 81 47 76 3f
       -0.5134068 -1.2965664 -0.38184768 0.96202856
000070 b9 e9 48 3f dd 6a 01 3f 81 cd 57 bf 97 ea 37 bf
       0.7848163 0.50553685 -0.8429795 -0.7184233
000080 48 ca 6f bf 5e 9b 7b bd 18 4d 39 bf b2 21 9d be
       -0.9366803 -0.061427467 -0.7238326 -0.3068977
000090 95 f0 9c be e0 3e 21 bf 1e c0 c8 bd 4c ab 23 3e
       -0.306523 -0.62986565 -0.098022684 0.15983313
0000a0 7e 47 f3 be aa 10 a7 bb cb 0e 15 bf 81 ad 59 bf
       -0.47515482 -0.005098422 -0.582257 -0.8503037
0000b0 9f 3d c0 be 15 dc 1c bf b8 05 0a 3f c2 9a 4b 3e
       -0.37547013 -0.6127332 0.53914976 0.19883254
0000c0 d9 c8 1c bf df 02 46 bf e6 5e a7 3f d4 de ca be
       -0.6124397 -0.7734813 1.3075836 -0.3962313
0000d0 f9 91 cd bd f4 f9 5b be ca 66 89 bf d9 73 30 bf
       -0.10037608 -0.21482068 -1.0734494 -0.6892677
0000e0 fb 79 2c bf d9 35 d8 bc 8d d9 b6 3e 36 02 9e bf
       -0.6737363 -0.026392864 0.35712853 -1.2344425
0000f0 6d 66 87 3e 89 6c 81 3e 35 bd f8 be 4e 10 76 bf
       0.26445332 0.25278118 -0.48581854 -0.9611863
000100 33 7a 33 3f 86 26 05 bf 3a 58 39 bf e8 a8 4e bf
       0.70108336 -0.5201191 -0.7240025 -0.8072648
000110 75 55 69 bf 57 58 f1 be c3 96 0d be 7f 00 67 bf
       -0.9114602 -0.4713771 -0.13827042 -0.9023513
000120 93 fe b6 3f d0 39 0a 3c ba 4e 11 3e e0 56 9c bf
       1.429644 0.008436635 0.14190188 -1.2214012
000130 6e 9e 2b bf f0 4c a1 be e3 6d 13 bf 39 d3 06 bf
       -0.6703862 -0.3150401 -0.5758955 -0.5266605
000140 26 6e 35 bf 91 e6 09 3f 7f 62 13 bf 68 77 66 be
       -0.708712 0.5386744 -0.5757217 -0.22506487
000150 40 7c 9c 3e 4a 78 a0 bf 17 ad 9e bf 9b 12 0c bf
       0.30563545 -1.2536709 -1.2396573 -0.5471589
000160 32 8b 63 bf 19 95 00 be 6f 76 f6 3e 30 bb df 3d
       -0.8888427 -0.12556876 0.48137233 0.10924375
000170 d1 3a 88 3c 28 c8 36 be b2 43 6a bf 43 0f 9e bf
       0.016629608 -0.17849791 -0.91509545 -1.2348408
000180 de c5 dd be 5f ab 8a bf 83 0b 96 be 69 0a 4d 3e
       -0.43315023 -1.0833548 -0.29305658 0.20023502
000190 5a 67 0c bf 76 e1 3d bf c5 33 3a bf 9b 21 88 3f
       -0.548452 -0.7417215 -0.72735244 1.0635256
0001a0 0c 51 83 be 22 f1 b4 3e bf d2 06 bf 0d b4 3c bf
       -0.2564777 0.3534022 -0.52665323 -0.73712236
0001b0 c1 1b d8 be 14 b7 c6 be f4 b9 13 be 5b ae 14 bf
       -0.42208675 -0.38811553 -0.14426404 -0.58078545
0001c0 bd 46 a1 be 0c 54 f6 be 76 22 3d 3e 91 27 fc bf
       -0.31499282 -0.48110998 0.18470177 -1.9699575
0001d0 8d d0 19 bf ec a5 b5 bd 88 0c 01 3e a4 86 fa be
       -0.6008385 -0.08869538 0.12602437 -0.48930848
0001e0 31 9d 31 be 24 71 c2 bd 74 47 40 bf 86 b9 4f bf
       -0.1734512 -0.09494236 -0.7510903 -0.8114246
0001f0 7a 21 14 3f 51 0e 25 3d bf eb 6e bf 57 f7 df 3e
       0.5786358 0.040296856 -0.9332847 0.43743393

fc4.weight f4 [1, 128]
000000 3c f4 f1 bc f1 f8 b4 bc 8b 82 37 bd d1 df de bc
       -0.029535405 -0.02209136 -0.04480223 -0.027206333
000010 c1 d9 e7 bc d8 d8 ca bc 9a 17 ad bc 87 c9 a5 bc
       -0.028302075 -0.024761602 -0.021129418 -0.020237697
000020 94 96 0f bd 22 a0 3a 3c 77 2f 38 bd 24 52 a6 bc
       -0.035055712 0.011390718 -0.04496714 -0.02030284
000030 64 b9 a5 3c 5a ef c7 bc 93 0d bd 3d f1 4b 27 3d
       0.020230003 -0.024406124 0.09231105 0.040843908
000040 d8 64 c5 bc b1 73 13 3d 0b 9b bf bc eb c3 0a 3d
       -0.024095938 0.035999004 -0.02338936 0.03387825
000050 eb 9d 56 bd 83 cb 52 bd 59 7a a5 bc ab 04 e7 3c
       -0.052396696 -0.051463615 -0.020199941 0.028200468
000060 cc b1 ef bc e3 e2 9f bc 48 c7 e5 bc 42 64 80 3d
       -0.029259585 -0.019517368 -0.028049126 0.06269123
000070 89 66 74 3d d2 1c 93 3c cf a2 fa bc 04 5e 08 bd
       0.059668098 0.017958079 -0.030595211 -0.033292785
000080 b7 69 e8 bc 3c e8 14 bd 20 e1 cc bc 8c 5a 53 3c
       -0.028370721 -0.03635429 -0.025009692 0.012900006
000090 6c c2 05 3d ac e9 2f bd 79 26 90 3d 2c 53 f4 3c
       0.03265612 -0.042947456 0.07038588 0.029824816
0000a0 4b 9a 46 bd b9 1c bf 3c c9 7e b1 bc d5 db 3e 3c
       -0.04848699 0.023329126 -0.021666901 0.011649092
0000b0 0e ce 00 bd 4b ea a0 bc 5d 48 b7 3c 92 27 15 bd
       -0.03144651 -0.01964297 0.022373373 -0.03641469
0000c0 f9 20 0b bd 9a 69 bc bc f4 3c a9 bc 00 7f 47 bd
       -0.033966992 -0.022999573 -0.020658948 -0.0487051
0000d0 d5 52 2c bd ed 82 e1 bc b1 df 0a bd b0 45 18 bd
       -0.042071182 -0.02752825 -0.033904735 -0.037175834
0000e0 84 5d d5 bc 7f 6f 06 3d f1 59 c1 3c 86 41 c2 bc
       -0.026045568 0.032821175 0.023602458 -0.023712885
0000f0 50 fb f8 3c ed d2 ea 3c 0b ad 09 bd 37 8d a4 bc
       0.030393273 0.02866503 -0.033612292 -0.020086868
000100 ca 4d 82 3d 10 d7 26 bc 14 61 e5 bc 42 ee 05 bd
       0.06362493 -0.010183111 -0.028000392 -0.032697923
000110 7f c5 e5 bc 8a 98 d9 bc 6b b6 a5 3c aa 5c e1 bc
       -0.028048275 -0.026561994 0.020228585 -0.027510006
000120 0b e3 bb bc b6 6a d9 3c 96 d0 12 3d 82 9a b3 bc
       -0.022935411 0.026540142 0.035843454 -0.021924261
000130 24 ca d9 bc af 9f d1 3d 55 90 9c bc b8 ae 50 bd
       -0.026585646 0.10235535 -0.019111792 -0.050947875
000140 12 5f f1 bc cd 85 93 3c 3a db 0c 3d 17 69 d5 3c
       -0.029464278 0.018008137 0.03438876 0.026051087
000150 1f 3f ab 3c 9a 4f 57 bd b0 cb 1d 3c 3b ff ca bc
       0.020904122 -0.05256615 0.009631082 -0.024779906
000160 fb f2 ce bc 7b 80 64 3e fb 3e aa bc de af 11 3d
       -0.025262346 0.22314636 -0.020781985 0.03556811
000170 47 b5 a9 bc 58 d0 a3 bc 20 11 f9 bc 3e dd 16 bd
       -0.020716323 -0.019996807 -0.030403674 -0.036832087
000180 7e d1 c1 bc e7 a4 37 bd 59 60 4e bd 0a 55 57 3d
       -0.023659464 -0.044834998 -0.050384853 0.052571334
000190 85 59 f0 bc 93 d6 f6 bc 0d e5 0a bd b0 0a 3e 3d
       -0.029339561 -0.030131614 -0.033909846 0.04639691
0001a0 14 47 74 3e 66 03 bf bc 96 5f cf bc 15 e4 55 bd
       0.23855239 -0.02331705 -0.025314134 -0.05221947
0001b0 bf 6d 30 3c 43 c0 8f bd 91 b8 b5 bc 1d 67 f8 bd
       0.010768353 -0.07019093 -0.022182735 -0.12129042
0001c0 11 af 28 3d dc a2 79 bd 94 11 d3 bc be 9e fc 3c
       0.04118258 -0.06094633 -0.025765218 0.030837413
0001d0 5e 39 e7 bc 6e 82 12 bd 3d 8b 86 3c e2 57 9e 3c
       -0.028225597 -0.03576892 0.016423816 0.019329015
0001e0 50 ac b5 3c f6 d9 16 3e 10 73 e1 bc 4f ee 11 bd
       0.022176892 0.14731583 -0.027520686 -0.03562766
0001f0 37 8b ea 3c 53 b5 ab 3c 76 b4 d2 bc 08 9f c1 3c
       0.028630836 0.020960486 -0.025720816 0.023635402
