Tennis/checkpoint_actor2.pth (torch_old, 159208 bytes, 6 tensors)

fc1.weight f4 [256, 24]
000000 f9 b6 e0 3e 03 30 a6 3e 5f 78 ca bd 70 da 8a be
       0.43889597 0.32458505 -0.0988624 -0.2711978
000010 d9 06 25 bf 72 a0 00 bf 2f ae 13 be 50 81 8d be
       -0.64463574 -0.5024482 -0.14421915 -0.2763772
000020 7f 7a d6 3e c3 8b 64 3e 24 32 a3 3b b2 e1 c5 be
       0.41890332 0.2231894 0.0049803425 -0.38648754
000030 4a c6 75 bf 54 31 ec 3d a4 b1 2e 3d 96 ff a6 be
       -0.9600569 0.11532846 0.04264988 -0.32616872
000040 27 7d ea 3e d1 84 e4 3d fd 34 39 bd 78 f4 c2 3e
       0.4579861 0.11158145 -0.04521655 0.3807714
000050 41 cd b8 bf dc e6 d2 3e 46 c2 fe bd 60 b8 ba 3e
       -1.4437639 0.41191757 -0.124393985 0.36468792
000060 6f 2f 10 3f 5c e6 7f bf c0 af c2 3d 36 87 40 bf
       0.5632238 -0.99960876 0.09506178 -0.75206316
000070 ae 54 c2 bf b7 10 ae bf 4c 01 09 3e 53 bc 26 bf
       -1.5182092 -1.3598851 0.13379401 -0.6513111
000080 63 c5 fd 3e f1 e4 86 bf f3 d9 4e 3d 7d de 13 bf
       0.49564657 -1.0538617 0.05050082 -0.57761365
000090 c3 40 80 bf 80 ce a9 be 47 a5 be 3d df bc 06 bf
       -1.0019764 -0.3316536 0.09308868 -0.52631944
0000a0 e5 37 15 3f 38 ec 8d bf 92 a5 3f bd 44 17 bf 3e
       0.58288413 -1.1087713 -0.04678876 0.37322438
0000b0 ff 30 ba be 9c 39 54 3f f8 81 4e bd a7 88 b4 3e
       -0.36365506 0.82900405 -0.050416917 0.35260507
0000c0 71 81 07 3f 69 02 ea 3e 9b 17 71 3e 5e 6d 77 be
       0.52931887 0.45704964 0.23544161 -0.24162814
0000d0 cf 78 cb 3e 45 3c e4 bb 19 55 64 3e 21 95 65 be
       0.39740607 -0.0069651925 0.22298087 -0.2242017
0000e0 42 02 45 3f 45 21 10 3f 31 31 17 3b 94 a0 a1 3d
       0.7695657 0.56300765 0.0023070092 0.07891956
0000f0 d4 3c 11 3e cd 6f 91 3e e6 f4 82 3c 5e 4e e4 bc
       0.1418336 0.2840561 0.015985917 -0.0278694
000100 72 24 5b 3f 06 4c 0d 3f ce 92 1b 3c 30 6f 16 bf
       0.85602486 0.5519413 0.00949545 -0.5876341
000110 65 7e f0 3d 14 69 59 3f 8f 1f 05 3d d3 15 06 bf
       0.11742858 0.8492596 0.0325008 -0.5237705
000120 07 d5 ab 3e 89 87 8c be 6b 5e c7 bd 56 57 71 bd
       0.33560964 -0.27447155 -0.09734806 -0.05892118
000130 fa 43 33 be e4 f9 ba bf 52 25 10 bd 6a cf 17 bd
       -0.175064 -1.460751 -0.03519184 -0.03706304
000140 ea 88 be 3e 21 48 5a bd c8 ff 78 3d cc b4 f4 3e
       0.37213832 -0.053291444 0.060790807 0.47794187
000150 cc e0 f3 be a7 2d f4 bf fa 0d 1a 3d 39 4b e5 3e
       -0.47632444 -1.9076432 0.037610985 0.44783953
000160 9c e9 c4 3e e3 b9 6f bd 13 f2 00 be 95 ca 72 be
       0.3845948 -0.058526885 -0.12592344 -0.23710091
000170 cc fd 1e bf 80 6e fb bf ad 57 3b be ac 9a 86 be
       -0.62106013 -1.9643097 -0.18295164 -0.2628988
000180 49 58 bd 3e a7 98 45 be 69 4c 86 bd 3f a2 0d bf
       0.3698142 -0.19296513 -0.06557543 -0.5532569
000190 91 ad 3c 3f 63 f7 3c 3f 8a f7 d6 3b a8 5a 10 bf
       0.7370234 0.7381498 0.0065602707 -0.5638833
0001a0 a4 d7 0a 3f 79 29 46 be 27 f5 d1 be 0c 47 3c bf
       0.5423529 -0.19351758 -0.4100735 -0.7354591
0001b0 b6 c0 c0 3d c3 4a 16 3f 9b 9c d7 be 72 2f 3c bf
       0.09411757 0.5870783 -0.42111668 -0.73509896
0001c0 20 0f d7 3e ee 1a 98 be ac f5 d2 bd 59 67 05 3f
       0.42003727 -0.29708046 -0.103007644 0.5211082
0001d0 ce bf 9b be 37 af 30 3f 90 19 e2 bd d8 16 06 3f
       -0.30419773 0.69017357 -0.11040032 0.52378607
0001e0 0c e8 9e 3e 4b 7f 5c 3f ee bd 0d be 05 9e 43 3f
       0.31036413 0.86131734 -0.13841984 0.76412994
0001f0 68 4a 1e bf ae 95 9c bf 8c df 9b bd a2 ce 4d 3f
       -0.61832285 -1.2233179 -0.076109976 0.8039342
000200 e5 e3 86 3e 71 4e 84 3f c4 15 e4 3c 0f 7c 54 3e
       0.26345745 1.0336438 0.02784241 0.2075045
000210 f2 3b 1e bf fa da c0 bf 85 be a5 bb f2 24 7b 3e
       -0.6181022 -1.5066826 -0.005058112 0.24525812
000220 ce 69 aa 3e 1a 26 5a 3f 76 50 bd 3d 55 be c2 bf
       0.33283848 0.8521439 0.09243862 -1.5214335
000230 5f 53 12 bf d4 76 a6 bf b3 15 3c 3d de bc b6 bf
       -0.57158464 -1.3005013 0.04591913 -1.4276388
000240 95 78 85 be 53 c2 6d be 89 4b 08 be 1f 77 0c 3f
       -0.2606856 -0.2321866 -0.13310064 0.54869264
000250 83 9c 9e 3e 1d 04 41 bf 5a 3c 27 be 40 5b 07 3f
       0.30978784 -0.753969 -0.16331616 0.5287361
000260 74 e0 16 be 70 3d 4c be ce d5 11 be 5f c6 1b 3f
       -0.1473406 -0.19945312 -0.14241716 0.60849565
000270 b2 c6 9c be f0 af 0d bf 97 a9 0c be ee ed 29 3f
       -0.30620342 -0.55346584 -0.13736568 0.66378677
000280 ba 8f 55 be f7 f7 c5 bd 18 f9 32 be aa 1d 60 3f
       -0.20855609 -0.09666436 -0.17477834 0.87545264
000290 78 16 90 bf fb a3 18 3e 33 9a 4b be 65 82 6a 3f
       -1.1256857 0.14906304 -0.19883041 0.91605216
0002a0 1d e4 fe 3e cc a6 65 3e d9 81 94 be cb cd f6 3e
       0.49783412 0.22426909 -0.29005316 0.48203883
0002b0 9b 3b 11 be 6a e7 39 3f 4b fa 96 be 6d e0 e0 3e
       -0.14182894 0.72618735 -0.29487833 0.43921223
0002c0 31 54 0d 3f 87 6c 0b 3f ca d6 e2 bc 85 19 5f 3f
       0.5520659 0.54462475 -0.02769031 0.87148315
0002d0 43 a7 e1 3b 7f e3 eb bc 74 3e 82 bd fa 8f 57 3f
       0.006886394 -0.028795002 -0.06359568 0.84204066
0002e0 aa 32 07 3f 55 b8 20 3f 72 ca 52 be c5 3c c8 3e
       0.5281168 0.6278127 -0.2058504 0.39108863
0002f0 f3 71 6c 3e 07 91 9c bf 1a b7 7e be 22 96 db 3e
       0.23090343 -1.2231759 -0.24874535 0.4288798
000300 15 db 63 3f 87 7d ed 3f 7b fa 47 be ff 2c 4a 3f
       0.8900617 1.8553933 -0.19529144 0.7897491
000310 7c 9a 6b 3f 16 c3 ef be 8b d7 2e be fb ca 42 3f
       0.920326 -0.46828526 -0.1707441 0.76090974
000320 7f f8 1e 3f f9 1c ef 3f 2b e9 99 be a9 34 dc 3e
       0.62097925 1.8680717 -0.30060706 0.43008927
000330 32 90 66 3f e7 f6 25 be 0c 3e 96 be 1f c7 ce 3e
       0.90063775 -0.16207467 -0.29344213 0.40386292
000340 fa 7b 58 3f ee aa f7 3f 21 2c 9c 3d de 8c 43 bc
       0.84564173 1.9349039 0.076256044 -0.011935441
000350 ff ba 6b 3f 52 d2 ee bd 7b f5 1f 3d ba 44 32 3d
       0.9208221 -0.11661209 0.039052468 0.043522574
000360 3d 95 07 3f 23 1b 53 3e 53 58 b9 ba d5 f9 c4 3d
       0.52962095 0.2061582 -0.0014140703 0.09617964
000370 29 2b cf be 14 c9 ad be a9 2f 12 3c 2c e0 f0 3d
       -0.40462616 -0.33942473 0.008922496 0.117615074
000380 7d 65 b4 3e 62 3c 93 3e c7 d9 a6 be 94 7f 3e 3e
       0.3523368 0.28757006 -0.32588026 0.18603355
000390 e7 33 47 3e d0 ad c8 be 13 08 d0 be 8e a7 51 3e
       0.19453393 -0.39195108 -0.4063116 0.20474073
0003a0 1a 3e d8 3e 26 fd 20 3e 63 a3 66 3e 2c dd 8b bf
       0.4223488 0.15721568 0.22523265 -1.0926871
0003b0 d8 17 e4 3e 4a de f9 bd 5a 64 80 3e 69 b8 8a bf
       0.4454944 -0.122006014 0.25076562 -1.0837528
0003c0 19 1f 2c 3e d3 31 a1 be 3d 06 5b be 25 d3 a9 bd
       0.16808738 -0.31483325 -0.21389098 -0.08292226
0003d0 57 d8 a1 3e 03 22 71 bf bb dd 1a be 70 0a af bd
       0.31610367 -0.9419252 -0.15123646 -0.08546913
0003e0 8a f2 ad 3e 25 e6 97 3d 9b 67 8e 3c 78 42 a2 3f
       0.33974105 0.074169435 0.017383387 1.2676535
0003f0 d0 d5 20 3e 38 6a ab bf 1e 11 36 3d 38 d5 a6 3f
       0.15706563 -1.339179 0.044449918 1.3033819

fc1.bias f4 [256]
000000 54 f8 ee be c3 cf 88 3e 2a 07 21 bf b6 cf fc be
       -0.46673834 0.2672101 -0.62901556 -0.4937722
000010 dd 42 a6 be 1f f4 93 be 71 18 e5 3c c8 a4 23 bf
       -0.32472888 -0.28897187 0.027965756 -0.6392331
000020 30 ef e9 be 1c ab 00 bf a4 78 51 be ed fa f8 be
       -0.45690298 -0.5026109 -0.20456177 -0.4862894
000030 ee 87 72 bc 90 c4 14 bf 4d 98 ff be 98 bc 32 be
       -0.014802916 -0.5811243 -0.49920884 -0.17454755
000040 b2 d2 16 bf 09 f6 b9 3d 81 9b 92 be 00 b1 1b bf
       -0.58915246 0.090801306 -0.28634265 -0.60816956
000050 b9 a2 60 bf 68 39 44 3d a5 ff 22 be f8 e0 00 bf
       -0.87748295 0.04790631 -0.15917833 -0.50343275
000060 c4 92 b0 bb 53 82 56 be 4b 01 17 bf 51 6e 3c bf
       -0.0053885896 -0.20948152 -0.5898635 -0.7360583
000070 f0 93 37 be a9 26 fe 3c aa 56 e2 be d4 b5 19 bf
       -0.17927527 0.031024294 -0.44206744 -0.6004307
000080 af 24 c2 bd 4b 29 a0 be a9 6a 25 be 64 16 01 bf
       -0.09479653 -0.31281504 -0.16153969 -0.5042479
000090 98 3c 54 3e 87 b7 36 bf af be bc be dd 00 00 bf
       0.2072624 -0.7137379 -0.3686423 -0.5000132
0000a0 6f 5e 24 be a6 ab 11 bf 1c 39 24 bf 9f 10 15 bf
       -0.16051649 -0.5690254 -0.6414964 -0.58228487
0000b0 65 12 bd be 58 c9 fa be 8a ab 2a bf 46 94 0f bf
       -0.36928096 -0.48981738 -0.66668 -0.5608562
0000c0 60 f1 30 be e0 d6 97 3e e7 50 6e bd 0f 45 ad be
       -0.17279577 0.29656124 -0.058182623 -0.3384175
0000d0 c3 da a3 be 16 2d e9 be c6 d6 66 be 2e 90 33 3e
       -0.3200284 -0.4554221 -0.22542867 0.17535469
0000e0 0d ac f8 bd 40 42 80 be 6d 38 b4 be 66 77 50 3e
       -0.12142191 -0.25050545 -0.351993 0.20358047
0000f0 ef 72 c4 3e b1 fc 76 3e 76 53 0a bf 99 31 30 bf
       0.38368937 0.24119832 -0.540336 -0.6882568
000100 9e f3 68 be 3f 66 14 bf a4 4b 05 bf 5a 03 10 3d
       -0.22749183 -0.57968515 -0.52068543 0.035159446
000110 85 e6 19 bf ce 1a f4 be 04 64 0a be 75 73 b6 bd
       -0.6011737 -0.476767 -0.13514715 -0.089087404
000120 1c 3e 37 bf 12 9b a7 be d7 54 b9 3e a2 5c 70 bf
       -0.71579146 -0.32735497 0.3619754 -0.93891346
000130 07 35 b4 be 87 d7 a6 3e c7 57 66 bf 2c 8f eb be
       -0.35196707 0.3258631 -0.8997769 -0.4600767
000140 b3 74 5e 3e 77 95 8a 3e 4a 84 1b bf 6b d1 79 bf
       0.21724205 0.27067158 -0.6074873 -0.9758517
000150 82 b1 5e bf 84 da 13 bf 52 a8 86 be ac 7c ae be
       -0.86989605 -0.57755303 -0.26300293 -0.34079492
000160 20 00 a8 bd 36 1d 11 bf 28 a5 df be 0f 19 88 3b
       -0.08203149 -0.566852 -0.43680692 0.004153378
000170 57 cb c1 3c 8b f1 cf be 3e 23 96 3e ee 5c 07 3e
       0.02365653 -0.4061397 0.29323763 0.13219044
000180 fe 9e a8 bd 33 6d 14 bf 8e 7e a9 be e7 05 66 be
       -0.0823345 -0.57979125 -0.33104366 -0.22463189
000190 9f 70 0c bf 4e c8 66 be 99 f6 c8 be 1f 6e 1c bc
       -0.54859346 -0.22537348 -0.3925064 -0.009547739
0001a0 fe 16 ec be e3 45 ad 3e ef 45 92 be f0 92 38 bc
       -0.46111292 0.33842382 -0.2856898 -0.011265501
0001b0 3e 06 24 bf c0 20 25 bf 51 81 31 bd b1 6c 5a bf
       -0.64072025 -0.645031 -0.043336216 -0.853221
0001c0 31 72 4d be d0 7a 3b be 0b 8c 37 bf 82 74 55 bf
       -0.20063092 -0.18308568 -0.71698064 -0.833809
0001d0 a2 03 3f bf 4a db 0c bf 10 f7 3e be a9 7c 42 bd
       -0.7461492 -0.5502211 -0.18648934 -0.047482166
0001e0 de 8a 19 be e9 46 14 3e 88 f9 bf 3e 47 34 57 bf
       -0.1499438 0.14480175 0.37495065 -0.84064144
0001f0 04 c1 83 be ed 89 78 3e af 21 8d be 10 4e e9 3e
       -0.25733197 0.24271365 -0.2756476 0.4556737
000200 41 11 2f be 44 42 1b bf 3f 5a 18 bf 89 a1 3a bf
       -0.17096426 -0.6064799 -0.59512705 -0.72902733
000210 9b 99 14 bf af fd e6 be 51 c5 22 be 1c 86 44 3d
       -0.58046883 -0.4511542 -0.15895583 0.04797946
000220 81 48 c2 3d ea 0f 21 be 93 66 3b 3e d1 81 b3 be
       0.09486485 -0.15728727 0.18300848 -0.3505998
000230 59 3d 1c bf ff 42 c7 be 06 27 ac be 27 c0 49 bf
       -0.6103111 -0.389183 -0.33623523 -0.78808826
000240 42 6c 5c bd aa ff ed be dd db 92 be b2 b3 83 be
       -0.05381418 -0.4648412 -0.28683367 -0.25723034
000250 af 9b ea be 3a 32 0f bf 78 ed 7e be fa 91 45 bf
       -0.45821902 -0.55936015 -0.24895275 -0.7717587
000260 8a 67 00 bf 08 0e 6f be 17 52 17 bf ac 6a 5b bf
       -0.5015799 -0.23345196 -0.59109634 -0.85709643
000270 96 4a f5 3d 16 56 2e bf 1e 2c 4d bf dc 31 1e bf
       0.11977117 -0.68100107 -0.8014544 -0.6179483
000280 c3 35 22 bf f5 90 00 bf 7a ff 79 3d 07 59 53 3e
       -0.63363284 -0.50221187 0.061034657 0.2063943
000290 2a 19 fe be 0d c5 37 bf 99 06 59 bf bd a7 8a 3e
       -0.49628574 -0.7178505 -0.8477569 0.270811
0002a0 5c 5d 4c bc b5 a6 70 be 03 55 0a bf b4 69 4c bf
       -0.0124734305 -0.23501094 -0.5403597 -0.7984879
0002b0 26 e8 f1 3e 4f e3 10 bf b2 59 04 bf 5a 74 7e bf
       0.47247428 -0.56596845 -0.51699364 -0.9939629
0002c0 14 42 02 be 96 dc 13 bf c4 b9 53 bf 98 b8 32 bf
       -0.1272052 -0.5775846 -0.8270533 -0.6981292
0002d0 34 54 68 bf 73 85 88 bd 12 4d 97 be 69 68 a0 be
       -0.90753484 -0.066660784 -0.29550987 -0.3132966
0002e0 b0 69 c7 bd 37 c1 56 3e 92 18 68 bf 00 53 d2 be
       -0.09736955 0.20972143 -0.9066249 -0.4107895
0002f0 b3 58 b4 be 4b 40 df be b1 38 41 bf 81 7b 1c 3d
       -0.35223922 -0.4360374 -0.7547713 0.03820372
000300 62 25 af be d9 8c 45 bf f3 09 20 bf 5e 6a 15 bf
       -0.34208208 -0.7716804 -0.6251518 -0.5836543
000310 16 d6 5a bc ce 29 47 bf 05 19 6b 3e dd c3 5e bf
       -0.013356706 -0.77798164 0.22958763 -0.87017614
000320 4e d3 02 bf 79 c0 39 bf de e2 9d 3e 01 03 45 bf
       -0.51103675 -0.72559315 0.30837148 -0.7695771
000330 10 eb 17 3d a0 93 7a be 19 23 4b bf 2d 99 16 bf
       0.037089407 -0.24470377 -0.7935043 -0.5882748
000340 a6 bf 02 be 8c 6d d0 be 9e 18 be be ca 77 21 bf
       -0.1276842 -0.40708578 -0.37128156 -0.6307341
000350 fd 73 6d be 9c e8 aa bd 1a 51 24 bf fd 9b e0 3c
       -0.23188777 -0.08345148 -0.6418625 0.027418131
000360 77 bd 40 be 5d bd 0f bd d2 73 96 be 3e 09 25 bf
       -0.18822275 -0.0350927 -0.2938524 -0.6446723
000370 dd be 9c be 97 c3 92 be 46 2b 1b bf 09 b0 65 be
       -0.30614367 -0.28664848 -0.60612905 -0.22430433
000380 66 8b df be 87 c4 af be bc 3f 47 bf 8d a1 c0 be
       -0.4366104 -0.34329626 -0.77831626 -0.37623253
000390 c9 d2 21 be fa 1a b8 be 09 db 8d 3e cf 85 b6 bd
       -0.15803064 -0.3595808 0.27706173 -0.08912241
0003a0 6c 98 b7 be 12 e8 26 be af 60 0e be 4a 19 70 be
       -0.35858476 -0.16299465 -0.1390407 -0.23447147
0003b0 a0 10 18 bf b6 23 4b bf b3 12 0b bf a0 5f 35 bf
       -0.5940037 -0.79351366 -0.5432541 -0.7084904
0003c0 6f f1 4a bd 62 7f 1e bf 3c f9 e7 be 22 5d 9a be
       -0.049546655 -0.6191312 -0.45307338 -0.3014918
0003d0 f4 0e 2e bf 41 a0 24 bf 38 4a 6a bf 0a c4 20 bf
       -0.67991567 -0.6430703 -0.915195 -0.6279913
0003e0 17 8e d0 be ee 5c 87 bf 3a da c1 3b 3b c7 57 be
       -0.40733406 -1.0575235 0.005915907 -0.21072094
0003f0 eb cb 8d be ce 41 89 3c 3e 96 21 bf d0 42 93 be
       -0.2769464 0.016755011 -0.63119876 -0.2876191

fc2.weight f4 [128, 256]
000000 63 1c ce bd 0d 91 64 bd 42 02 44 3d c9 63 8d bd
       -0.10064008 -0.055802394 0.047853716 -0.06903798
000010 65 3e e8 bd e5 80 c7 bd c1 5f 54 be 3f db 00 3d
       -0.11340026 -0.097413816 -0.20739652 0.03145909
000020 d9 2b 18 bd f6 43 a7 bc 03 77 56 3b 00 2e 02 be
       -0.03715119 -0.020418148 0.0032724745 -0.1271286
000030 c1 d8 86 bb f3 a3 af be 5b f7 bf 3d 96 73 d7 bd
       -0.0041151945 -0.3430477 0.09373351 -0.10520093
000040 9b 48 58 3d 92 61 0f 3d 1f 68 25 be bc 0a e6 bd
       0.052803617 0.03500516 -0.16153 -0.11232516
000050 11 09 55 bd 0c c5 11 bd b2 09 66 bd ca 8f 1e bd
       -0.0520106 -0.03558831 -0.05616159 -0.038711347
000060 e7 7b 89 bd f3 a7 a8 bd dc d3 3d bb 10 49 de 3c
       -0.067130856 -0.08235159 -0.002896539 0.027134448
000070 91 84 a6 bd c9 f0 14 be b7 53 d7 bd a5 c7 f4 bd
       -0.08130754 -0.14544977 -0.10514014 -0.11952142
000080 a8 28 6c bd 06 0a 06 bd 81 1e e2 bd 40 05 6a bd
       -0.05765596 -0.032724403 -0.110409744 -0.057133913
000090 a3 50 a0 3d 03 42 38 3d 75 31 8f 3d fd c9 87 bc
       0.0782788 0.04498483 0.06991855 -0.016575808
0000a0 2d 08 63 3c af cb 4f bc 21 34 e6 bd ab fe 26 3d
       0.01385693 -0.012682839 -0.112404115 0.040770214
0000b0 2f bd 03 3d ae 36 d1 3c 37 12 0b 3d 6a 61 b4 3c
       0.03216284 0.025538769 0.033952918 0.022019107
0000c0 8a 2e b1 bd a3 4b f7 3c aa 0e 0e 3c 7f e8 5c bd
       -0.08651455 0.030187434 0.008670488 -0.053932663
0000d0 6a 80 e4 bc da 4d b9 3d 0b 9f 89 be 49 84 f9 bd
       -0.027893264 0.09048052 -0.26879153 -0.121834345
0000e0 3d 28 13 bd 9a fc b0 bc a0 28 14 be 7d 7f 7a bd
       -0.035927046 -0.021604825 -0.14468622 -0.06115674
0000f0 34 21 68 bc 7b 34 b5 bd 60 42 d4 bd bc e8 8b bd
       -0.0141680725 -0.088479005 -0.103642225 -0.068315
000100 46 95 a4 bd fd 0d 03 be ea 25 f3 bd 80 87 84 bd
       -0.08036284 -0.12798305 -0.11872466 -0.06471157
000110 d9 6f 70 3d 8e 07 0b bd d2 66 4d 3d 54 ee c1 3c
       0.058700416 -0.03394275 0.050146885 0.023673214
000120 eb 2d ad bd 28 8f 95 bc 20 f4 8e bd bc 01 ab bd
       -0.08456024 -0.018256739 -0.06980157 -0.0834994
000130 41 1b b7 3c 46 fc 01 be 29 1e 93 3c bd 16 9a bd
       0.022351863 -0.12693891 0.017958717 -0.07523868
000140 70 8d dd bd a3 d3 77 bc 35 8f 93 bd 1b ee a0 bd
       -0.10817993 -0.015126142 -0.07205049 -0.07857915
000150 df 8f 86 bd 22 65 fa bd bc 3b 4a be 85 8a ca bd
       -0.0657041 -0.12226321 -0.1974935 -0.09889702
000160 88 8d a1 bd d7 c3 b2 bd c6 bc 4d 3c 51 a9 07 be
       -0.07888323 -0.0872876 0.012557214 -0.13248183
000170 c5 a9 d1 bd d4 d2 e3 bd 4a 8d fb bd 0c a1 c5 bc
       -0.10237459 -0.11124197 -0.12282808 -0.024124645
000180 11 02 c6 bd d9 c4 90 bd 15 32 7a bd 40 0f 98 bd
       -0.09668363 -0.07068796 -0.06108292 -0.07424784
000190 20 65 e6 bd 08 ca 19 bd 31 b2 45 bd 9e 55 45 3c
       -0.11249757 -0.037546188 -0.04826564 0.0120443385
0001a0 55 76 6a bd 2f af 5e bd 67 a8 3a bd dc d3 51 3d
       -0.057241756 -0.054366287 -0.045570757 0.051227435
0001b0 e7 bb c6 bd 35 25 e8 bd 25 82 8b bb 15 a6 b1 3d
       -0.09703808 -0.11335222 -0.004257458 0.08674256
0001c0 80 2c b7 bc 29 8b 92 bc ab a7 e9 3b 27 5c 62 bd
       -0.022360086 -0.017888622 0.0071305833 -0.055263665
0001d0 7d d9 b8 bd 5f 8f b1 3c 0e a4 35 bd a0 a9 9f bc
       -0.090258576 0.02167481 -0.044345908 -0.019490063
0001e0 4e ef c9 bd 5a fc 9a 3d cd 35 94 3d be 41 3e bd
       -0.09860097 0.075676635 0.07236824 -0.046449415
0001f0 15 e4 2c be ef 11 32 bd 33 43 ee 3c 69 7e 50 bd
       -0.16883881 -0.043474134 0.029084777 -0.050901804
000200 f8 df 7e 3d d7 9c bb bd b3 d2 a8 3d e3 2d 9a bc
       0.062225312 -0.09160774 0.08243313 -0.018820709
000210 26 57 82 3d ba d3 30 bd a6 95 92 bd ea a8 1f 3c
       0.063642785 -0.04317067 -0.071574494 0.009744862
000220 b8 48 e0 3b 4a 94 62 3d 6c 3e 1c 3d 74 af 60 be
       0.0068446063 0.0553172 0.038145468 -0.2194193
000230 7f a1 0d bd 34 94 14 3c a3 55 b6 bd ae aa 33 bc
       -0.034577843 0.0090685375 -0.08903053 -0.010965986
000240 0f 3c b5 bd 0e 0b 75 bd 71 d1 ea bd eb 61 85 bd
       -0.08849346 -0.059824996 -0.11465729 -0.06512817
000250 9a 27 6f 3c 97 e8 11 bd c5 18 0a bb e7 8d bf bc
       0.014596844 -0.035622206 -0.0021071893 -0.023383094
000260 95 e0 f5 b9 c6 b8 0e be 5c 12 79 bd 71 b2 01 3d
       -0.00046897368 -0.13937673 -0.060808524 0.031664316
000270 df d9 69 bd 60 84 6a bd a5 f0 d0 bd 8a 74 2f bd
       -0.057092544 -0.05725515 -0.10202149 -0.04283575
000280 95 7e 86 bd f9 67 98 bd c7 c2 30 bd de e1 9b bc
       -0.06567112 -0.07441706 -0.043154504 -0.0190286
000290 76 a5 7c bc 79 ed 85 bd 8d 16 f4 bd 67 fa 60 3c
       -0.015420308 -0.06539435 -0.11918364 0.013731576
0002a0 6c ca ff bd a4 b3 7a be 0f 54 ef bd 9d 0f 93 bd
       -0.12489781 -0.2448259 -0.11685955 -0.07180712
0002b0 ca 52 1e bc 35 7a 49 bd 77 91 c1 bc 8e 5f e2 bc
       -0.009663293 -0.04918881 -0.023628933 -0.027633455
0002c0 20 41 72 3d 04 4d 88 be e8 b2 5f bd 30 fd 07 3d
       0.05914414 -0.26621258 -0.054613978 0.033200443
0002d0 a1 95 a9 bd 23 56 18 bc e7 f1 57 bd ef 99 dd bb
       -0.082804926 -0.00929788 -0.05272093 -0.006762735
0002e0 a4 fe 0c 3d fb 58 4f bd 1c 0c 65 3b 0b b6 d6 bc
       0.03442253 -0.050621968 0.0034949845 -0.026209852
0002f0 16 47 ab bd 7f 5e 75 3d c0 34 3c bb 42 d2 17 bd
       -0.08363168 0.05990457 -0.0028717965 -0.03706575
000300 08 aa 28 bc 34 df 71 3d 9f 28 a7 bd 44 95 6e bd
       -0.010294445 0.059050754 -0.08162045 -0.05824782
000310 d5 4b 43 3d bc 36 55 bd 91 08 20 bd aa d8 1f bb
       0.04767974 -0.052054152 -0.03907067 -0.0024390616
000320 4d 20 a6 bd e1 fb 8d 3b 47 13 6c bd 68 f5 bf bd
       -0.0811163 0.004333005 -0.05763557 -0.093729794
000330 78 bd e8 bc 68 63 15 be 87 00 87 bd 8c 42 15 bd
       -0.028410658 -0.14588702 -0.065918975 -0.036440417
000340 55 3e 3a bd 77 16 da 3b bc 27 c9 bc f3 78 00 be
       -0.0454696 0.00665551 -0.02455508 -0.12546138
000350 35 2b 77 bd 0e 5f 19 be ac 79 cd bd ce 98 a6 bd
       -0.06034394 -0.14977667 -0.10032973 -0.08134614
000360 bd 51 32 be 65 1d 49 bd 09 a3 ae 3d fd 26 c1 bd
       -0.17413993 -0.0491003 0.0852719 -0.094312645
000370 ff f1 1d 3d ce 83 45 bd c8 da 07 be f3 30 02 be
       0.038560864 -0.048221402 -0.13267052 -0.12713985
000380 28 41 64 bd 8a 43 a7 3d 68 a5 36 bb 66 53 c2 3c
       -0.0557262 0.08167179 -0.0027869586 0.023721408
000390 bd cf fd bc f1 f1 0e bd ac 4d d7 bd 92 10 a0 3b
       -0.030982846 -0.034898702 -0.105128616 0.004884788
0003a0 70 5f d7 bd a5 5b c8 bd d5 c2 f8 bd e9 c9 0e be
       -0.1051625 -0.09783105 -0.12146536 -0.1394421
0003b0 53 de 04 bd 17 a7 38 bd 68 c0 b3 bd a0 1a c6 bd
       -0.032438587 -0.045081224 -0.08776933 -0.09673047
0003c0 53 49 29 bd d8 47 8a 3d 66 7d 38 ba 19 50 85 bb
       -0.041329693 0.06751984 -0.0007037729 -0.0040683863
0003d0 56 e5 d2 bd 64 14 87 bc f9 bf 96 bd 79 c2 84 3b
       -0.102976486 -0.016489215 -0.07360835 0.0040515033
0003e0 38 92 64 bd ad 0d 26 3d f5 0b 1f ba 77 fb 45 3c
       -0.055803508 0.040540386 -0.00060671504 0.01208388
0003f0 ba 81 36 3c ed 43 b3 bd ef 94 8b 3d 47 22 0a be
       0.011139328 -0.0875319 0.06815516 -0.13489638

fc2.bias f4 [128]
000000 3f ca 9d bd 7c d0 cf bb 14 69 5d be a3 0d 7c be
       -0.07704591 -0.006341992 -0.21622115 -0.24614577
000010 f3 a0 40 bf ed 31 1d bf 35 7e 8f 3d de 17 56 bd
       -0.7524559 -0.61404306 0.07006494 -0.052268855
000020 3a b4 0b bf 64 6c a6 be a2 46 a0 bd a3 49 1d bf
       -0.5457188 -0.3250457 -0.07825972 -0.61440486
000030 6b 27 ac 3e 27 88 c4 bd 3f 7c e8 be 9b b2 b2 be
       0.33623824 -0.095962815 -0.45407292 -0.3490189
000040 8a 9a 85 bd 92 00 11 bf a7 bc 2d bf 70 36 50 bf
       -0.065236166 -0.56641495 -0.67865986 -0.81333065
000050 50 c0 0d bf ca c3 60 3d 10 aa be bb 60 2f 3d bf
       -0.5537157 0.05487422 -0.005818613 -0.73900414
000060 92 ba a4 be f5 74 34 bf 8a 64 e5 be 6d 15 6f bc
       -0.32173592 -0.7049096 -0.44803268 -0.014592511
000070 ae 87 84 be b5 e1 68 be 87 1b 11 be 4e 53 d4 be
       -0.25884765 -0.2274235 -0.14170657 -0.41469806
000080 9f 6f 83 be da 82 4e be fe 73 72 bf 21 72 9a be
       -0.25671098 -0.20167103 -0.9470824 -0.30165198
000090 4f 28 f5 be cd 17 f7 be 90 72 ba be 2e a4 85 be
       -0.47882316 -0.48260346 -0.3641553 -0.26101822
0000a0 76 41 cd be a4 f4 9f bd 5f ff ab bd 91 84 de 3d
       -0.40089005 -0.07810333 -0.083983175 0.10865129
0000b0 b6 53 e7 be 7b c2 da be 00 04 b4 be b4 9b 8e bf
       -0.45181054 -0.42726502 -0.35159302 -1.1141267
0000c0 05 aa 08 be e0 c0 19 bf fd 8d 64 bf 1e 94 44 bf
       -0.13346107 -0.6005993 -0.89279157 -0.7678851
0000d0 15 9b 18 bf b1 6c 9d be 2e 02 2c bf 37 80 a9 be
       -0.59611636 -0.30746987 -0.67190826 -0.33105633
0000e0 26 c3 0c 3e f7 f1 10 be 5e cc 9e 3c c2 55 19 be
       0.13746318 -0.14154802 0.01938456 -0.1497412
0000f0 6f 59 b7 be 0e 75 19 3e 70 7c c9 be e2 7c 7e be
       -0.3581042 0.14986059 -0.3935275 -0.24852327
000100 01 2d d9 be b3 5f ca be 5e 6a eb be 84 1e 46 bf
       -0.42417148 -0.39526138 -0.4597959 -0.77390313
000110 b0 2e 41 bf b7 20 03 bd 81 c7 83 be 53 ec 5b bf
       -0.75461864 -0.03201362 -0.25738147 -0.8590748
000120 46 95 41 3e 84 7f c8 be 26 9d 81 bf e9 3d 2f bf
       0.189046 -0.39159787 -1.0126083 -0.6845384
000130 9f dc 8a bf 03 0e 38 bf dc 22 1a bf b8 a3 06 bf
       -1.0848578 -0.7189638 -0.6020944 -0.52593565
000140 47 41 12 bf 4e ae 44 be c5 7b 1b be ef d5 6c bf
       -0.57130855 -0.19207117 -0.15183933 -0.92513937
000150 fa 39 72 bd 18 4c bd bd 9f e5 33 bf 78 a8 66 be
       -0.059137322 -0.09243029 -0.7027225 -0.22525203
000160 f2 91 6d be 0b bf dc bb 7a d2 3b be 23 20 66 bf
       -0.23200205 -0.0067366413 -0.18342009 -0.89892787
000170 4d 1a 45 3e 07 6a 98 be 64 77 76 bf 01 f2 62 3e
       0.19248314 -0.29768392 -0.96275926 0.2216263
000180 46 a4 80 3e 3d 6b ed bd cb b6 1e be 83 df f2 be
       0.2512533 -0.1159272 -0.15499417 -0.4743615
000190 9b 81 2f bf a9 02 a1 be 63 66 0e bf eb b1 84 be
       -0.6855714 -0.31447342 -0.5562498 -0.2591699
0001a0 d6 eb 11 bf f2 46 99 be e5 0e 02 bd 5d a9 37 bf
       -0.5700048 -0.2993694 -0.031752486 -0.717428
0001b0 00 68 ba be 45 d4 20 bf fe 13 57 be 04 8a b3 be
       -0.3640747 -0.628239 -0.2100372 -0.35066235
0001c0 93 f1 08 be c0 c1 72 3c 09 e4 d8 be de 70 0e bf
       -0.13373403 0.014816701 -0.42361477 -0.5564097
0001d0 49 2f ba bd 7f 64 24 bf 3c b3 a0 3d 87 2a 0e bf
       -0.0909105 -0.64215845 0.07846686 -0.5553364
0001e0 1d d7 cc be 80 1a 92 bd b0 48 44 bf fa b1 46 bf
       -0.40007868 -0.07133961 -0.7667341 -0.7761532
0001f0 92 47 12 be bb a6 38 bf 56 77 d3 3c ed d2 cf be
       -0.14285114 -0.7212941 0.02581374 -0.4059061

fc3.weight f4 [2, 128]
000000 c9 d4 2c 3d 88 0c c0 3b 55 43 a3 40 66 ed 2a bf
       0.042195115 0.005860869 5.1019692 -0.6676849
000010 71 66 8c 3f 68 4a 2e 3f 30 93 0d be 51 c5 91 bf
       1.0968763 0.68082285 -0.13825679 -1.1388341
000020 63 b7 33 bf 5e b6 85 bf 27 39 3a 3f bc 07 b5 3e
       -0.702017 -1.0446279 0.7274346 0.35357463
000030 df a7 14 bf 76 62 8e bf 49 7a c2 3f ae 49 67 3f
       -0.5806865 -1.1123798 1.5193568 0.903468
000040 03 ce e5 bb 2f b3 38 3f 55 f9 d1 bf 7f 63 af bd
       -0.007013084 0.7214841 -1.6404215 -0.08563899
000050 85 1f 31 3d a7 ac 24 3e 4a d5 1d 3d 05 3b cb be
       0.04324295 0.16081487 0.038533486 -0.39693466
000060 d7 cd 82 3d b2 d5 6c be 8e 67 94 bf 72 49 13 bf
       0.06386917 -0.23128393 -1.1594102 -0.57533944
000070 e9 69 0c 3f 3e 05 12 bd 0f 2a 8b 3d bb e1 20 bf
       0.54849106 -0.03564953 0.067951314 -0.6284444
000080 b2 84 17 3e ba e0 16 bf 8a f5 53 bf 59 8b 13 bf
       0.14796713 -0.58936656 -0.8279654 -0.576345
000090 12 d2 72 3f b2 77 be 3d 54 99 27 bf d1 0b 2f be
       0.9485179 0.09300174 -0.65468335 -0.17094351
0000a0 b0 54 99 3d 51 49 15 3e e9 13 2d bf 6c 42 44 bf
       0.07486856 0.14578749 -0.67608505 -0.7666385
0000b0 ce 93 39 be d2 82 93 bd b9 8e 97 3e cf 52 b5 be
       -0.1812279 -0.07202686 0.29601076 -0.3541474
0000c0 52 73 01 bd 99 f7 63 3f c9 93 95 3e 7e 36 de bf
       -0.03160412 0.8904968 0.29214314 -1.736038
0000d0 42 02 6a 3f 3e 16 46 be f0 5e bc 3e 75 12 2b 3f
       0.91409695 -0.19344422 0.36791182 0.6682504
0000e0 ef b0 17 3e 8a 21 17 3f 78 c6 f5 3f 8b 7d 2e 3f
       0.14813589 0.5903555 1.9201193 0.68160313
0000f0 12 6d ee 3e b6 e1 1d 3f 0c 23 84 3f 10 a5 55 be
       0.4656759 0.6167253 1.0323195 -0.20863748
000100 fb 85 f2 be 73 68 38 bf 78 8b 54 3e b9 c3 df be
       -0.47367844 -0.72034377 0.20756328 -0.43704012
000110 db 76 b7 be c2 3d 13 3f e2 ce 76 bf 49 b0 ed be
       -0.35832867 0.5751611 -0.9640943 -0.46423557
000120 3e db b9 3e 45 7c 0c 3f dd ee 22 3f ac 94 2c 3e
       0.3630008 0.5487712 0.63645726 0.16853589
000130 a1 26 38 be 17 99 6a be 7d 3f 13 3f f7 f9 a8 3c
       -0.17983486 -0.22909962 0.5751875 0.020627005
000140 20 f5 1a 3d a7 6c bd 3f b2 79 46 3e d7 d0 2c 3f
       0.037831426 1.4798783 0.1938236 0.67506164
000150 b9 82 79 3b 1e 26 bc 3f 25 54 25 3f 51 ed 85 bf
       0.0038072302 1.4699132 0.6458152 -1.0463048
000160 58 29 28 3f 14 5d a3 bc 7c 54 3e bf 86 16 60 3f
       0.65688086 -0.019941844 -0.7434766 0.8753437
000170 c8 c8 8c bf 76 38 3d 40 ef bd d7 3e c5 98 59 3e
       -1.0998774 2.956571 0.42137095 0.21249683
000180 ef 53 56 bf 9f 19 ac 3d 9f c7 75 3f e0 68 9b bf
       -0.8372182 0.08403324 0.9600772 -1.214138
000190 e2 9e 61 3f a6 94 65 bf 79 f0 1e bf 49 2e 3c 3e
       0.8813306 -0.89679945 -0.6208568 0.18377031
0001a0 8a ba e9 bd 2c 5d 6f bf c8 eb ce bf 58 10 83 3f
       -0.11412533 -0.93501544 -1.6165705 1.0239363
0001b0 d8 c0 f5 3e 08 4b d2 be 5e 60 53 3d b8 ae 8d bf
       0.4799869 -0.4107287 0.051605575 -1.1068945
0001c0 da 0c a1 3d 3a 40 10 bb e7 39 99 3d ca 00 68 3d
       0.07863779 -0.0022010938 0.07481747 0.056641378
0001d0 4a 17 e2 bb b7 2d 41 3f 28 4c b8 3e b9 25 7a bd
       -0.006899749 0.7546038 0.35995603 -0.06107113
0001e0 ec 69 1c bf 33 92 b7 3c a0 44 9f 3d 28 a4 31 be
       -0.61099124 0.02240858 0.07776761 -0.17347777
0001f0 6e 7c c2 3f cc 1b 43 bf c7 92 91 be 16 a3 0b bf
       1.5194223 -0.7621429 -0.28432295 -0.54545724
000200 4e 58 2c 3e e8 83 ae bc 21 86 f3 bf cf b5 4e bd
       0.1683056 -0.021303132 -1.9025308 -0.050466355
000210 25 04 51 3f 4f d1 d8 be 29 83 e5 3e 14 81 18 be
       0.8164695 -0.4234719 0.4482663 -0.1489299
000220 47 79 92 bf a8 8a 7f 3e 0d 17 9a 3f 71 02 73 bf
       -1.1443261 0.24955237 1.2038285 -0.949256
000230 03 3a b1 bc 5b e2 55 bf 79 2b bc be 10 19 fd 3e
       -0.021634107 -0.83548516 -0.36751917 0.49433184
000240 c3 fe 5c 3d 1f 8d 14 3e 4f cc 4b 3f 0d 8d 5a bf
       0.053953897 0.14506958 0.79608625 -0.85371476
000250 a3 ed 89 bf 97 89 66 bd 13 3e 40 3d 28 e8 45 bd
       -1.0775646 -0.05628356 0.0469342 -0.048317105
000260 dd 2e 6b 3e ee c5 c4 3f 12 74 e1 3f 97 af aa bd
       0.22967096 1.5372903 1.7613547 -0.08334272
000270 58 9e e0 3d fa d2 5f 3e ba 29 a5 3d d1 43 51 3e
       0.10967702 0.21857825 0.08064599 0.20436026
000280 e6 fc b4 bf 08 7b 21 3e 5d a1 49 bd 8e 25 a2 bd
       -1.4139678 0.15769589 -0.049226154 -0.07917319
000290 59 44 0a 3d 20 82 15 3f 97 dc 30 bf da 94 c0 bd
       0.033756588 0.5840168 -0.69086593 -0.09403391
0002a0 bd e4 50 3f ec 05 84 bf 8d 60 92 bd 2e df 9e bf
       0.81599027 -1.0314307 -0.07147322 -1.2411859
0002b0 ae 9b ef be 2b 37 01 bf 26 6f d9 3e de e2 80 3f
       -0.46798462 -0.50474805 0.42467612 1.0069234
0002c0 d8 6a 02 bf e8 51 0e be 4b 7a 4c 3f c9 73 db bc
       -0.5094428 -0.13898432 0.79874104 -0.02678861
0002d0 e6 d0 3a 3f 8d 5d fe bd 44 94 f5 3d 1a d6 f8 3d
       0.72975004 -0.12420187 0.1199117 0.12150212
0002e0 e9 bd f5 bd 58 77 eb bf cf 53 9d 3f e6 6c 29 3f
       -0.11999113 -1.8395796 1.2291201 0.6618179
0002f0 40 bf 02 bf 52 5b 9e bb b4 94 75 bf b5 2a 5a bf
       -0.51073074 -0.0048326636 -0.9593003 -0.85221416
000300 5e a2 b4 3f 37 fe f9 3e e7 31 91 bf c8 df 54 3f
       1.411205 0.48826763 -1.1343354 0.83153963
000310 3d 49 33 3f 57 56 b8 be d5 80 55 bf 08 ca 45 3f
       0.7003363 -0.36003372 -0.8339971 0.772614
000320 60 79 7f be 51 68 34 3f 68 aa 93 3e 12 0c 4b 3f
       -0.24948645 0.70471674 0.28840947 0.7931529
000330 91 16 ed be 96 50 f8 3e ae c7 41 3d bf ce 73 bf
       -0.4630628 0.48498982 0.04730957 -0.95237345
000340 d2 a3 9b bf 9b ff ad bf 19 93 d8 bf a9 fa 11 bf
       -1.2159369 -1.359363 -1.6919891 -0.570231
000350 a1 79 ec 3d c0 cb 24 bf 15 e1 19 3e b4 e5 9f be
       0.115466364 -0.643734 0.15027268 -0.31229937
000360 34 2b 7f bf cc 24 8a bd 51 4d 5e bb 82 09 66 bd
       -0.996753 -0.067453 -0.0033920596 -0.05616141
000370 b9 78 45 be 24 47 b3 3d 91 8d 4a 3f 3f 99 d5 bb
       -0.19284333 0.08753803 0.79122263 -0.0065185125
000380 b0 7e b5 be 98 d7 49 3d 39 a0 b6 3f da b3 15 be
       -0.35448217 0.04927787 1.4267646 -0.14619389
000390 b9 c8 3c be ae a9 17 3f e6 3c 08 bf 98 9b 83 3f
       -0.18435945 0.59243286 -0.53217924 1.0281858
0003a0 25 44 b0 bf b1 37 f0 be 3c 1a c2 bf e7 ff ab 3e
       -1.3770796 -0.4691749 -1.5164256 0.33593675
0003b0 f3 ae df 3d 1d 2c 88 bd 86 04 85 bf 22 45 ae be
       0.10922041 -0.06649039 -1.0392005 -0.3403712
0003c0 48 12 10 bd 90 7a 9c be 86 9f 12 bf 97 10 ed 3e
       -0.035173684 -0.30562258 -0.57274663 0.4630172
0003d0 a7 e1 ea 3d da c9 11 3f b7 9e 89 3e 7d 07 3f bf
       0.11468821 0.56948626 0.26878902 -0.746208
0003e0 ec cd f4 3b 23 13 43 bf df c0 79 3f 80 b3 37 bf
       0.007470837 -0.76201075 0.9755992 -0.7175827
0003f0 73 a8 62 3e b7 97 2d bf f1 9b b6 3d 88 88 05 3f
       0.22134571 -0.67809623 0.08916462 0.52161455

fc3.bias f4 [2]
000000 bf 3f 9f be 88 50 5e 3d
       -0.31103322 0.05427602
