checkpoint_actor.pth (torch_old, 169476 bytes, 6 tensors)

fc1.weight f4 [256, 33]
00000000: f19f 47be 9d57 8dbc 1387 92be c954 e3be
00000010: a351 8a3f 9c39 153f 331d c9bd 296a d9bc
00000020: d6a8 d53e 1243 903e 22ca 5cbf 5acb e1bd
00000030: df8b ea3c 4cf6 79be 63b0 5f3f d099 323c
00000040: 0d33 023d 298d 36bf f57c 68be f251 c1bf
00000050: 4394 0bbe fc54 3a3e 2cf6 403e a05c 973e
00000060: 2d65 ee3d d802 fa3d 71a7 f63c 3dcb 8d3e
00000070: 85cd b73d a0e8 6d3c a1a4 91be cec7 4c3d
00000080: accc 363d 29bf d1be 3171 9dbe 6456 a53c
00000090: 44b8 eebe c6fd 523d bc89 87bf 4e3c 143f
000000a0: a5d6 bcbc 3153 ca3e d43d b63d 3892 093e
000000b0: 8d66 c3bd 3d1b 8abd 4395 403e 1814 603e
000000c0: ba8a a03e 4345 543e a0fc b23f 5823 42bf
000000d0: db68 393f d431 b43b 05df a3be 6816 c9be
000000e0: 0eee 2a3e 84b7 b53d 5a92 dd3c 0033 953e
000000f0: 5d46 213f f9df f0be a0a5 b1bc f793 1fbf
00000100: 640d d93c c80b 18bf 18e3 87bf 5729 123e
00000110: ec14 63be c7ca 393f e7d5 8d3e 9777 643f
00000120: c73e d13d 778f 813d 7c03 9abd 814b eebe
00000130: aee8 913c a0de d5bc b01f 1c3d 8258 e93e
00000140: 45fb aabb 94e3 293e b416 3f3e ae6c a83e
00000150: 161c 103d 921b 82be b9f0 373c d752 25be
00000160: ed31 b43b 9dac 8c3d 22d5 0dbe 456e 413e
00000170: 2e98 923e 9d22 8f3e f434 debe c412 ecbc
00000180: 4b49 a1be c041 2f3d 630e 2c40 04ce c2bd
00000190: 62d2 d4bd 6a32 d53e f399 ec3e 4696 2bc0
000001a0: 6bee 16bf ac15 8c3f 3499 ddbb cbea 80bf
000001b0: a0b6 3ebe 0985 a1bc 2059 a13d 593e 393e
000001c0: 6cc8 cb3e 0306 e53d 5285 8bbf 8518 82bd
000001d0: eb4f 883d 350a bebf e3ee 8e3e 3779 acbd
000001e0: f116 473e fea3 babd 79d9 06be b502 1cbd
000001f0: eaba 03bd bcd1 b2bd 625f 463e 71fb ca3e
00000200: c814 49bd 7951 93be 42b1 2a3d 0705 61be
00000210: 0e2c 2abe efa1 613f 6bb4 a2be e6fa b13e
00000220: a3bf 0fbf fd23 d0be 1fc8 d13e 0fb2 6cbe
00000230: 48b3 b33d 281f 433d f988 673d c4d2 683e
00000240: cc30 92bc 47b8 ccbd 013c 303d 7775 81be
00000250: 356e 16be d2b8 10bd b86f babd ad45 a63e
00000260: 869f 99bd b208 89bc 1e93 b83d a2a2 5cbe
00000270: 8313 093c 3d3c 14bd 8029 e2be 3303 0e3f
00000280: a873 92be 4817 823c 5f99 15bf cc36 ba3c
00000290: 7283 1740 b5e9 0fbe 4f15 9fbc 3462 a63e
000002a0: c292 a8bf 4e1e 8e3f 6eca 7b3e cb59 9fbd
000002b0: e1ac 123e 529d 283f bbb1 b33e 63a4 223d
000002c0: 4373 60be 7940 953d 7510 a2bd 896f 7c3e
000002d0: d875 10bf 96b8 103f 2a06 86be f57b bfbf
000002e0: 2b17 cfbf 44a1 44be 1912 42bf 4924 09bd
000002f0: b6ff 9abe c020 3e3e d168 c9bd ae17 ebbd
00000300: 9fac ad3e c793 1ebe 6c99 39bd 6058 9abe
00000310: e232 0abd 84e3 f53f e2c0 f5bd e21d 85bc
00000320: 2599 60be 88a0 a5bc a98f 093f 8634 313f
00000330: 5479 19be 1a4e 25bc f137 0fbe c011 26be
00000340: ae1d 2e3e 41ee 4f3e ed09 d2bc 8d4a a93d
00000350: e898 8d3e 01d1 6cbd 7ba5 c63e d4a5 4cbf
00000360: 4412 56be 8224 1dbe 7631 9dbe 3a88 383e
00000370: 432e 2ebe 7b69 983e 3bd2 56be 2683 cebd
00000380: 0987 cdbd 7140 0b3f d4cf 873e fcfa 163d
00000390: acff 0abf 28f3 2f3c f69c 3f40 d494 333e
000003a0: eb41 3b3f 08df 713d 6ad0 593e d7e6 813e
000003b0: bb10 a1bf ad4c 55bd 8cf2 113f e065 be3e
000003c0: 5d3b 823d 0f95 363e aad3 9e3e 1586 15be
000003d0: ec36 cc3e 02a5 32be c8e6 99bc bde6 8abf
000003e0: 6df8 64bf 73fe 163f 4559 e3be 10d9 90be
000003f0: 3694 3c3e 407a 5b3e 037c 593e 082b 31bd
-0.19494607 -0.017253691 -0.28618678 -0.44400623 1.0806164 0.5829103 -0.098200224 -0.026539879
0.41730374 0.2817617 -0.8624593 -0.11025114 0.028631149 -0.24410361 0.8737852 0.01090093
0.031786967 -0.71309143 -0.22703917 -1.5103133 -0.13630776 0.18196481 0.18843907 0.29562855
0.116403915 0.12207574 0.03010914 0.2769412 0.089747466 0.014520794 -0.28445914 0.049995236
0.044628784 -0.40966156 -0.3075042 0.020182796 -0.4662496 0.05151155 -1.0588908 0.5790452
-0.02305157 0.39516595 0.088985115 0.13434684 -0.095410444 -0.067434765 0.18806939 0.21882665
0.3135584 0.20729546 1.3983345 -0.7583518 0.7242562 0.005499104 -0.32006088 -0.39274907
0.16692373 0.088728935 0.027047325 0.29140472 0.6299799 -0.47045878 -0.021685421 -0.6233515
0.026495643 -0.59392977 -1.0616179 0.14273582 -0.2217595 0.7257504 0.27702257 0.8924498
0.10217052 0.06326192 -0.07520196 -0.4654198 0.017811146 -0.026107132 0.038116157 0.4557534
-0.005217942 0.1659072 0.18661004 0.32895416 0.035183035 -0.2541166 0.011226826 -0.16144882
0.0054991157 0.06868861 -0.13850835 0.1888972 0.2863173 0.27956095 -0.43399775 -0.028817542
-0.3150123 0.042787313 2.688378 -0.095119506 -0.1039169 0.41640025 0.46211204 -2.681047
-0.58957547 1.0944114 -0.006762648 -1.0071653 -0.18624353 -0.019716756 0.07878327 0.1809019
0.39801347 0.11182787 -1.0900061 -0.06352333 0.06655868 -1.4846865 0.2791663 -0.084215574
0.19442345 -0.0911331 -0.13168897 -0.03808852 -0.032160677 -0.0873141 0.19372323 0.3964496
-0.049092084 -0.28773096 0.041672952 -0.21974574 -0.16618368 0.88137716 -0.31778273 0.34761733
-0.5615179 -0.40652457 0.40972993 -0.23114799 0.087744296 0.047637135 0.05652711 0.2273665
-0.017845534 -0.099960856 0.043025974 -0.2528493 -0.14690478 -0.03533251 -0.0910334 0.32475033
-0.0750113 -0.016727779 0.090124354 -0.21546414 0.008366468 -0.03619026 -0.44172287 0.5547363
-0.28603864 0.015880242 -0.5843715 0.022731207 2.3673978 -0.14053996 -0.01941934 0.32496798
-1.3169787 1.1102998 0.2458894 -0.077807985 0.1432376 0.6586505 0.35096535 0.039707553
-0.21918969 0.07287688 -0.07913295 0.24651922 -0.56429815 0.56531656 -0.26176578 -1.4959704
-1.6178945 -0.19202143 -0.75808865 -0.03348187 -0.30273217 0.1856718 -0.09834445 -0.11479126
0.33920762 -0.1548606 -0.04531233 -0.3014555 -0.033739932 1.9210057 -0.1199968 -0.0162496
-0.2193342 -0.020218149 0.53734833 0.6922077 -0.1498769 -0.010089422 -0.13986184 -0.16217709
0.1700351 0.2030573 -0.025639499 0.082661726 0.2765572 -0.05781651 0.38798127 -0.79940534
-0.20905405 -0.15345958 -0.30701798 0.18020716 -0.17009835 0.29767975 -0.20978634 -0.10083608
-0.100355215 0.54395205 0.26525748 0.03686045 -0.54296374 0.010739125 2.9939551 0.17537242
0.7314746 0.05905059 0.2127091 0.2537143 -1.2583231 -0.052075077 0.5701072 0.371871
0.06358979 0.17830299 0.31020862 -0.1460193 0.39885652 -0.17445758 -0.018786803 -1.0851666
-0.8944157 0.5898201 -0.44404045 -0.28290606 0.18415913 0.21433353 0.21238713 -0.04325393

fc1.bias f4 [256]
00000000: 657a d2bd 5bc4 48bf e2fb c3be 2154 2abe
00000010: 0614 00bf 1ca0 6cbe ddbc 18bf f001 91be
00000020: ebb3 f9bd e991 09bf e1bc adbe f9e7 15bf
00000030: f0fa 10bf 7d60 0a3e 343d c2be 37a4 bcbe
00000040: 92fa 73bf 5c9f 38be ab31 8bbe c938 6ebe
00000050: f672 e4be f810 bebe b5c9 3fbf ca9f 47be
00000060: f3c1 8cbe 898a 34bd ac66 f9be cb77 3abf
00000070: 97ee 69be 3280 6b3e f3f5 b5bf 3d9c 0cbf
00000080: de79 42be 131e b2be 13e4 48be fe58 03bf
00000090: 0c39 3d3e 23bd 18bf 0865 2cbf 6b3f e5bb
000000a0: 6ca5 a6be 018d 2abf df97 40be 2dba d7be
000000b0: c0a3 74bd da0d 5bbf fd71 87be f895 33be
000000c0: 241a 05bf 94ea 2dbf 0151 8bbf 723c 0fbe
000000d0: 8372 a5bd f09f fdbe 09be a1be 1a77 cbbe
000000e0: 03f3 b63d f6ce 45bf a11e 06bf 6689 0bbe
000000f0: 88c5 bcbe 3bc8 ebbe 684b 6ebf 1da3 17bf
00000100: e72a d1bd 05e7 abbe 42ad 4cbf 46e4 35be
00000110: 38f2 b2be d2e0 b9be beac 8bbe ff79 fdbe
00000120: 7629 6fbf 2b12 81bf 5a54 d6bd 0edc 65be
00000130: 1b9d cebe e1e0 5ebe 07a2 be3d 0953 36bf
00000140: 7f74 08bf 643a 90be 2b5f 11bf 3594 1fbf
00000150: d1d6 39be 46bb d9be 009b 9ebe 82d7 2dbe
00000160: 5a7a 1f3d f356 ffbe 5de2 45bf d9da 23bf
00000170: 5aaf 5cbe 6157 1ebf 80b8 04be 0741 45bf
00000180: adec 8dbe e253 53be fbe7 fdbd 725c 11bf
00000190: 717d b6bd 9e66 a8be 2611 ecbe 894a dcbe
000001a0: 88fb a2be 9e59 48be 442c a9be 3f92 adbe
000001b0: 83b1 cdbe ab7c 6ebe a33e c0bd 2547 e7bd
000001c0: 7bb3 02bf 95c8 10bf 507f a6be dbd3 c8be
000001d0: 6cfa b7be c0f6 a6be 575d 2abf 262e 1fbf
000001e0: 5e96 38bf 6403 debe a047 f1be 7314 42bf
000001f0: d703 04bf b786 003e 9b2e 29bf 004f 11bf
00000200: 7ade c8be c1a0 d8be f534 17bf 1d77 7ebf
00000210: 7be2 b8be 5521 35be 0ab3 1dbf a768 fbbd
00000220: 89cc 03bf 846d 943d 31fd 2cbf 8a23 21bf
00000230: 1758 0cbf d99b 0bbf 4173 4dbd 922d fcbe
00000240: 35f7 e1be 3a2d e4be 2d10 32bf 0c09 fcbd
00000250: 059b 2dbf fc1d 0ebf 3b8c 98be 4bcb 09bf
00000260: 281f 1abe 6e78 09bc bcfe 17bd 20db 05be
00000270: 0808 25bf ff31 d0be a3de 93be c375 73bd
00000280: 6d00 72bf d1ff 43bf 6230 d2bd 1e28 f8be
00000290: 6ff7 70bf 2aa5 f0be 5be4 c4be 367c e4bd
000002a0: 25a8 febe b787 65bf 14dd 88bf 3a15 70be
000002b0: 4c58 1ebf 2fc4 cdbe e2ef adbe 768b 05be
000002c0: c0a0 c8be 819b babe 6e3e bdbe ed57 52bf
000002d0: 5397 7cbe f764 08bf c9eb dcbe 4c25 44be
000002e0: c251 1b3d b9da 0fbf 0471 d8be d7d6 8fbe
000002f0: 898b 2cbe cb02 183e 0153 05bf 97b7 4ebf
00000300: af1c 3dbf 518c b4be fee5 5ebf 33f8 3dbf
00000310: c516 8bbe c261 1abf 5030 31bf c4ac 46bf
00000320: e114 06bf 8c2b 0abf 0379 0fbf efa1 e6bd
00000330: 580d a9be 1823 82be 577a 24bf 614f 22bf
00000340: 958a d9be 9847 53bf 4c8f e1be 3e00 e5be
00000350: f1de 71be 5078 04bf 9c0e 2dbe 2275 b1bd
00000360: 7a93 21bf 69c7 2abf 44f2 6d3d 074c f2bd
00000370: b66c 3fbf 35af b1be 530c 34bf b48d 08bf
00000380: 23cc 3ebe e2c6 f13b 33d2 debe 3293 a0be
00000390: 5a95 c4be 9208 65be 226e d3be 5124 ed3c
000003a0: e145 3dbf c279 01bf 1c31 a2be 4c40 b9be
000003b0: 4a04 e7be a876 31bf 53b4 48be 7b42 87be
000003c0: bbd9 58bf 9adf 4cbf e46a b1be c4b6 37bf
000003d0: 66c7 96be 97ad 23be 9c78 38bf 8176 aabe
000003e0: ec7d 0ebf 0741 26bf e9a2 1ebe b7b4 65be
000003f0: e1b8 9bbe 24ab b2be de00 52be 042e a0be
-0.10277251 -0.78424615 -0.3827811 -0.16633655 -0.50030553 -0.23107952 -0.5966318 -0.2832179
-0.1219252 -0.53738266 -0.33933166 -0.5855709 -0.566329 0.1351337 -0.3793732 -0.36844036
-0.95304215 -0.18029541 -0.2718633 -0.2326385 -0.44618958 -0.3712232 -0.74917156 -0.19494548
-0.27491722 -0.04407743 -0.48711145 -0.7283904 -0.22844921 0.22998121 -1.4215683 -0.549259
-0.18991801 -0.3478857 -0.19618253 -0.51307666 0.18478793 -0.596636 -0.6734166 -0.0069960854
-0.32548082 -0.66621405 -0.18807934 -0.42134228 -0.059726477 -0.8556801 -0.26454154 -0.17537677
-0.5199301 -0.6793606 -1.0884095 -0.13987902 -0.08078482 -0.49536085 -0.31590298 -0.39739305
0.089330696 -0.7726892 -0.52390486 -0.13626632 -0.36869454 -0.460512 -0.9308381 -0.59233266
-0.10213261 -0.3357469 -0.7995187 -0.1776286 -0.34950423 -0.36304337 -0.2728023 -0.49507138
-0.9342264 -1.008367 -0.104653075 -0.22447225 -0.40354237 -0.21765472 0.09308248 -0.7122045
-0.5330276 -0.2816955 -0.5678584 -0.6233552 -0.18148352 -0.4252569 -0.3097763 -0.16976741
0.038935043 -0.49871024 -0.7729853 -0.6400581 -0.21551266 -0.6185208 -0.12961006 -0.7705235
-0.27719632 -0.20637468 -0.123977624 -0.56781685 -0.08910645 -0.3289079 -0.46106833 -0.43025616
-0.31832528 -0.19565436 -0.33041584 -0.3390064 -0.40174493 -0.23289745 -0.09386947 -0.112928666
-0.51055115 -0.56556064 -0.32519007 -0.39224133 -0.35933244 -0.3261013 -0.66548675 -0.6217979
-0.7210444 -0.43361962 -0.47124958 -0.75812453 -0.5156836 0.1255139 -0.6608674 -0.5676117
-0.39232236 -0.42310145 -0.5906518 -0.994005 -0.3611029 -0.17688496 -0.61601317 -0.1227582
-0.5148397 0.07247451 -0.6757384 -0.62944853 -0.54821914 -0.5453468 -0.050158743 -0.49253517
-0.44133916 -0.44565755 -0.6955593 -0.12306413 -0.67814666 -0.555145 -0.29794487 -0.53825825
-0.15050948 -0.008390529 -0.037108168 -0.13071871 -0.6446538 -0.40663144 -0.28880796 -0.05943848
-0.945319 -0.7656222 -0.102631345 -0.48468107 -0.94127554 -0.4700101 -0.3845547 -0.11156504
-0.4973766 -0.8966021 -1.0692468 -0.23445597 -0.6185348 -0.4018874 -0.3397208 -0.13041481
-0.39185143 -0.36446765 -0.36961693 -0.82165414 -0.246671 -0.5327906 -0.4314864 -0.19154853
0.037919767 -0.5619312 -0.42273724 -0.28093597 -0.16850103 0.14844815 -0.5207978 -0.80748886
-0.7387189 -0.35263303 -0.8706969 -0.74206847 -0.2716581 -0.60305417 -0.69214344 -0.7760737
-0.5237561 -0.539727 -0.56044024 -0.11261355 -0.33017993 -0.254174 -0.64249176 -0.6340237
-0.42488542 -0.8253112 -0.4405464 -0.44726747 -0.23620202 -0.5174608 -0.16900104 -0.086649194
-0.63115656 -0.66710526 0.05809237 -0.11830907 -0.74775255 -0.34703985 -0.70331305 -0.5334122
-0.1863256 0.007378445 -0.43519744 -0.313623 -0.38395196 -0.2236655 -0.41294962 0.028947981
-0.7393475 -0.5057641 -0.31678092 -0.36181867 -0.4512046 -0.6932168 -0.19600038 -0.26417908
-0.8470723 -0.8002869 -0.34651864 -0.71763253 -0.29449004 -0.15984188 -0.72059035 -0.33293536
-0.5566089 -0.64942974 -0.15491833 -0.22432218 -0.3041449 -0.34896195 -0.20508143 -0.31285107

fc2.weight f4 [128, 256]
00000000: 57db 033e 0df1 623e 9559 87be a192 fabe
00000010: ed35 a93e 061d 40be 8bd6 b6be 91a0 ce3e
00000020: 7cb7 97bd 2754 953d 15c0 263f 348a 2abd
00000030: b431 08be b848 023f b8ad 14be f5f1 13bf
00000040: ddd2 9bbf 1140 ccbc f345 af3e 5803 9ebe
00000050: 676c 583e 39fd 4c3e 1a35 a23d c09a cbbe
00000060: eaa4 863e ab5b ebbd 2fc7 273f 1a7c aebe
00000070: e135 e2bd 026b 9b3e b0d1 e7be 41e5 863c
00000080: 70e3 81be 8882 7ebd fd3c a8be 7e68 6fbf
00000090: 4794 e63d 2e0d 70be ce4a 38be 6cd5 b73e
000000a0: 9a0d bcbc 2fc7 85be f6e7 943e 8ffc 173d
000000b0: 9fe0 043e e634 423e a4ee 60be 2fd8 a93d
000000c0: 0333 4c3e 77cb 0f3d 2f21 a33e 5c35 28be
000000d0: 46cb 9d3c 7c5f 21be e651 e3be 62bf c6be
000000e0: 844a 14be b31b be3e d2ac 72bf 018d e2be
000000f0: edec 883e 167d 473e b56a 8c3d 8dd7 eebb
00000100: db20 ad3e 5ff1 803e cd66 f8be d6b9 c4bd
00000110: 8753 a13e f183 febd e2b8 3f3f 1768 333e
00000120: f488 83be fb72 013f 5855 a1bb d4e1 5cbe
00000130: 034a cbbd 64ab 6dbd 5b11 d3be 4cbb dd3c
00000140: c32f 17bf 96ca 1a3e cd03 b63d e3c5 103e
00000150: efc2 f43c a2e7 1ebe 8a5f 89be e7da 58be
00000160: ff30 bbbd e297 07bf 1bf9 f13e 7dbf d03d
00000170: 53c4 953e a3d7 6f3e 2d92 303e a445 d5be
00000180: 9ebb 5cbf 0bd9 3e3f ef6d 3bbe 55eb 633e
00000190: 27c8 53be 929b ecbf 5c11 903d bf15 0abf
000001a0: ed8b e6bd 48c1 5f3f a1f3 64bf 9a48 1d3e
000001b0: d756 023e 1804 423e 785e 04bf 1a44 bbbe
000001c0: c9c4 44bf 152d b4be e94b cf3e 18ac c3be
000001d0: ee39 dbbd cf83 583d fec0 973d 58d0 43bf
000001e0: 7bc3 2f3e 3184 1c3d f3a5 493f 55f3 a6bf
000001f0: 4b8b bcbe b58a cdbd 1171 963e 8431 d7bd
00000200: cb8f 953d f6e9 203e 33bd a03d 0c81 ed3e
00000210: f1ee c73e b254 0ebf f03c bdbc 34d5 e33c
00000220: 8d5d e4bd 674c 133f c168 7d3e 18b5 b5bd
00000230: aedc 9abe d0b6 42bf 0f4d 063e 2869 77be
00000240: 9d1e 29bf 27f2 de3d 13be 40bf 6034 58be
00000250: 6378 3a3f adf9 ea3e e42c 593f b62d debe
00000260: b2ad 6abd b21b 99bf 051b 553e a148 01bf
00000270: 17cd 1e3e a62c 063f b554 283d 382b 5ebf
00000280: 6b0a 1cbf 5af9 b0be 4bf2 13bf 2623 f8be
00000290: 3a6b cd3e f1ca 053f 120c eb3d efb1 833e
000002a0: 690d b73e faf7 05bf feba 53bd 3f08 093e
000002b0: 4d5d 473d 7fb1 963d aadb 7c3e 4b17 9a3e
000002c0: 6cc5 3bbf b8a7 1f3e b598 063f 0d12 3b3f
000002d0: aca4 cfbd 9fb2 1a3e 0257 853e cca2 f0bc
000002e0: 06d1 c0be 151c 193f d1eb ed3d b3f5 e73e
000002f0: 06b2 f53e 61eb d73e 380d bebe beb7 523e
00000300: dd3a f63c 5898 a4be 3924 033d b905 14be
00000310: 48e1 aabd 0705 09bf 0188 0f3d 68e4 5c3d
00000320: 3a5b 693c 8b9f 503d 119e f23d abe5 053e
00000330: 8d4d 3a3f 7496 8dbe fcf2 efbc 0aa5 3bbf
00000340: b1b0 edbd 39a4 573f b3b1 59bf 5da4 e23c
00000350: 45a9 533e ec19 54bf 1cde bd3e 4f90 c1be
00000360: d44e fcbc 9cf2 85be 8775 263f 2313 eabd
00000370: 1ce0 853e 4276 e13d d0ee 7e3e eb64 6c3e
00000380: a9e9 02be 7fea 233f 9bcc ddbc f825 c3be
00000390: 81e8 babe 3924 f53e d0c5 ee3e 749f a1be
000003a0: cfc4 1bbd 01da 50bd 2b39 4fbe e187 3cbe
000003b0: ac08 af3d 7635 d83d b2fc 69be 9c3e 1c3f
000003c0: 635e c7bc c99a f13e d9e7 b3bc f6c1 0fbe
000003d0: 632b 07bf 1d50 02bf 8ca1 b03d cf65 82bf
000003e0: 8b50 04bf f124 20bf 73d8 3b3d 8a4c fabe
000003f0: 6cb3 f1be 26d0 1bbe 3770 483d a5c4 a9bd
0.1287664 0.22162266 -0.26435533 -0.48939994 0.33048955 -0.18761072 -0.35710558 0.40356877
-0.07408044 0.072914414 0.65136844 -0.041635707 -0.1330021 0.5089221 -0.14519393 -0.5779107
-1.2173725 -0.024932893 0.34233055 -0.30861926 0.21135102 0.20018472 0.079202846 -0.39766502
0.26297694 -0.11492094 0.65538305 -0.34079057 -0.11045433 0.30355078 -0.45277166 0.016466739
-0.25368834 -0.062136203 -0.3285903 -0.9351882 0.112587504 -0.23442528 -0.17997286 0.35905015
-0.022955704 -0.26128528 0.29083222 0.037106093 0.12976311 0.18965492 -0.21966034 0.08293187
0.19941334 0.03510615 0.31861255 -0.16426605 0.019261967 -0.1575908 -0.4439842 -0.38817888
-0.1448155 0.37130508 -0.9479495 -0.44248202 0.2674326 0.1948131 0.0685629 -0.0072888792
0.3381413 0.25184152 -0.4851593 -0.09605758 0.3150904 -0.124275096 0.74891484 0.17520176
-0.25690424 0.5056607 -0.004923504 -0.21570522 -0.09926226 -0.05802478 -0.4122418 0.02706685
-0.59057254 0.15116343 0.08887444 0.14137988 0.029878108 -0.15518048 -0.26830703 -0.21177255
-0.09140205 -0.5296613 0.47260365 0.101927735 0.29251346 0.23422103 0.17243262 -0.41654694
-0.8622378 0.7454993 -0.18303655 0.22257741 -0.20681821 -1.8484976 0.07034561 -0.5393943
-0.112571575 0.874043 -0.8943425 0.15359727 0.1272844 0.18946874 -0.5170665 -0.36575395
-0.7686277 -0.35190645 0.40487602 -0.38217235 -0.107044086 0.052860077 0.07409857 -0.7648978
0.17164414 0.038212005 0.78768843 -1.3043009 -0.36825022 -0.10036222 0.29383138 -0.10507491
0.07302817 0.15714249 0.07848587 0.46387517 0.39049485 -0.55597985 -0.023100346 0.027811624
-0.11150656 0.57538456 0.24746992 -0.088724315 -0.3024649 -0.760602 0.13115333 -0.24161208
-0.6606234 0.10886031 -0.7529003 -0.2111373 0.72839946 0.45893613 0.8483412 -0.4339425
-0.057294555 -1.1961577 0.20811088 -0.5050145 0.15507923 0.5241188 0.041096408 -0.86784697
-0.60953397 -0.3456524 -0.57791585 -0.48464316 0.4012087 0.5226279 0.114769116 0.2572169
0.3575242 -0.5233151 -0.051692 0.13382052 0.048672963 0.073580734 0.2469317 0.30095896
-0.73348117 0.15591323 0.5257676 0.7307442 -0.101388305 0.15107201 0.26042944 -0.029374503
-0.37659472 0.59808475 0.11617244 0.4530464 0.47987384 0.42171767 -0.3711946 0.20577905
0.030057365 -0.3214748 0.032016966 -0.14455308 -0.0834375 -0.53523296 0.035041813 0.053928763
0.0142429415 0.050933402 0.11846555 0.13075893 0.72774583 -0.2765385 -0.029290669 -0.73298705
-0.11605967 0.8423496 -0.8503677 0.027666265 0.2067004 -0.82852054 0.37083519 -0.3780541
-0.030799307 -0.2616166 0.6502308 -0.11429431 0.26147544 0.11008884 0.24895787 0.23085372
-0.12784447 0.6402969 -0.027075103 -0.38114905 -0.3650551 0.47879198 0.46635294 -0.31566966
-0.03802949 -0.050989155 -0.20236652 -0.18411209 0.08546576 0.10557072 -0.22850302 0.61033034
-0.024337 0.47188404 -0.02196114 -0.14038834 -0.5280058 -0.50903493 0.086245626 -1.018732
-0.516854 -0.6255637 0.04586072 -0.4888652 -0.472072 -0.15216121 0.04893514 -0.0828946

fc2.bias f4 [128]
00000000: fbe2 323d d151 0ebe 4833 003c 339e 1abf
00000010: 19da 2fbf 0471 d3be 2506 ac3d 8fe9 f03d
00000020: a384 8e3e d989 94ba c340 b7bc 3bab 40bf
00000030: fc49 bd3d e679 00bf 3005 c6be 6b17 6b3d
00000040: 2f74 a6be 58f1 193e f3f4 cfbe 0614 10bf
00000050: 84cf adbe b60f bc3d ba8f d7bc 0d93 f0be
00000060: ffa7 1c3e 0b6a 07be 384b e7be 984f 97bd
00000070: 57a4 00bf 2fad f7be 979d 84be 9558 a3be
00000080: 694b bd3e 0945 69bc 3ceb cdbe 1ae0 68bd
00000090: 89d6 4ebd 4b27 af3d e810 eabe 9f46 58be
000000a0: ca5b a5be fd9f 38be 92ea 7dbe 3751 a8bc
000000b0: 1311 1ebe d71b 713e 5743 473e 8b84 d1bd
000000c0: f406 3bbe c771 c4bd be17 45be 5925 99be
000000d0: b99d c23c 4674 50be f2dd 11be ba06 27be
000000e0: 71a0 72bf 9792 a9bc 9c53 e1bd 3e00 abbe
000000f0: 355d 06bf 7179 bcbd 701f 04bf 91c9 7ebd
00000100: 9c3e b3be b9b0 24bf b30c 13bf 6551 4fbf
00000110: feac 12be 7f44 bcbd 022e 91be 71c5 3abe
00000120: 4b02 43be b3d5 5cbf 93ce 53bd e76d 223e
00000130: 03a8 2e3d 4c91 87bf bfbe 23bf 71bb 07be
00000140: d2b1 003d 394b 3cbe 7479 353d b989 86be
00000150: 9e2c 2dbf 8940 97be 65b9 26bd e841 8abe
00000160: 3eb3 623e ba5f ccbd dc8c 25bf 0331 a5be
00000170: 9e5e 19bf 7e66 a9bf 3ae4 3fbf 674a 3abf
00000180: 173c bebc b95f 9ebe fec2 8cbf dafd cdbc
00000190: a44d 83be 176f eebd 38ec cb3d dba4 27bf
000001a0: c18a 1dbd 1d01 a4be 62ff 3e3d 46d4 38bd
000001b0: 7635 483d 6679 93bd a76f 603d 3bb3 26be
000001c0: 4127 6a3d c14a 133e c4e0 12bf cf54 65bd
000001d0: 1270 00bf 7dd7 85bb fe77 763e 8e11 51bd
000001e0: c69a 863e c7d4 b7be 4052 98be c894 813c
000001f0: aa73 a2be ebed 6bbe bbef a9be 5b7f 0b3e
0.043673497 -0.13898398 0.007824726 -0.6039764 -0.68692166 -0.41297162 0.083996095 0.11763298
0.2783557 -0.0011332586 -0.022369748 -0.75261277 0.09242627 -0.50186 -0.38675833 0.05739538
-0.32510516 0.15033472 -0.4061657 -0.56280553 -0.33947384 0.09182684 -0.026313651 -0.4698719
0.1529846 -0.13224046 -0.45174575 -0.07388228 -0.5025076 -0.48374316 -0.25901482 -0.3190352
0.36971596 -0.014237651 -0.40218532 -0.056854345 -0.050497565 0.085524164 -0.45716023 -0.2112069
-0.32296592 -0.1802978 -0.24796513 -0.020546539 -0.15436201 0.23545776 0.19459282 -0.10230359
-0.18264371 -0.09592014 -0.19247338 -0.29911307 0.023756849 -0.20356855 -0.14244822 -0.1631116
-0.94776064 -0.020699782 -0.11002275 -0.33398622 -0.5248597 -0.092028506 -0.5161047 -0.062203947
-0.35008705 -0.6433216 -0.5744125 -0.80983573 -0.14323804 -0.09192752 -0.28355414 -0.1823938
-0.19043843 -0.8626358 -0.051710676 0.15862237 0.042640697 -1.0591216 -0.6396293 -0.13255097
0.031419583 -0.1838807 0.04430528 -0.2627695 -0.67646205 -0.29541424 -0.04070415 -0.27003407
0.22138688 -0.09979196 -0.6466806 -0.32263955 -0.5991 -1.3234403 -0.7495762 -0.7276978
-0.023222012 -0.30932406 -1.0997007 -0.02514546 -0.25645173 -0.116422825 0.099571645 -0.65485924
-0.038462404 -0.320321 0.04663027 -0.045124315 0.04887911 -0.07200889 0.05479398 -0.16279308
0.05716634 0.14383985 -0.57374215 -0.055989083 -0.50171006 -0.004084526 0.24069211 -0.051042132
0.26289958 -0.35904524 -0.29750252 0.015818015 -0.3172887 -0.23039977 -0.33190712 0.13622801

fc3.weight f4 [4, 128]
00000000: 77c5 713d ebdc b13e ce4a d93d 8193 2e3e
00000010: 4d98 2a3f 399b 453e fa89 7cbf 7617 f93c
00000020: 98dc 32bf 7314 cebe c3a6 6fbf 6a24 ca3d
00000030: 737d 92be a858 b03e b983 32bf fa7d d2be
00000040: 1bc2 e43e 889c d73d 9be4 26bd b3a6 42be
00000050: 46dd 1a3f cbe4 b3be 8683 96be da18 703e
00000060: f860 a73d 9b59 6abe e067 ae3e 5f22 9b3d
00000070: 4310 c0bd e0d4 0fbf ce8b cf3e e5d2 e93e
00000080: d177 f1bd 045c edbe 3441 3f3e 729a 743e
00000090: d0ba 2e3f c4d4 a93e 8201 bd3c c1e6 80be
000000a0: e62a b83d c133 d23e 040d dd3d 8dcf f4bd
000000b0: 2a6a 563e df1d 4ebf d658 20bf cf07 1cbf
000000c0: a6f6 fbbd b84b 08bc ba49 4c3f 6820 c53d
000000d0: de9f 063e ce09 7d3e db4c a33e 2d4d 753f
000000e0: de22 8fbf dd07 ab3e 0341 f7be 2849 d83e
000000f0: d501 b03e 4ff5 a0be dba2 b33e c767 4abe
00000100: fc0c 6bbe 55af 853d 2401 e4be b0bc 383f
00000110: 9115 99bf 4ac4 173f 3184 11bf 969c 943d
00000120: 8459 01bd bd38 b03f aa11 303f 9715 3fbf
00000130: 4444 8abf d226 643f 6b0e 383d 6cc4 9abe
00000140: dec9 3fbf 5c15 353f a850 c4bd 298e 803e
00000150: 9c31 e63e f2d4 0abe f1cc 473f ecba c5be
00000160: a9e5 71bf 82a7 52be 13cf d03e 7d30 a9bf
00000170: 26de 20bf a8c9 4e3f bfef 383e 00e7 4c3f
00000180: fc94 59bf 919c 07bf 4440 833f 1035 52be
00000190: f893 903f e6e5 c33e 03db adbe 8e24 923f
000001a0: e95a b73e 565d af3e 9e69 8fbe 89bf 5bbf
000001b0: 3c05 a33e 3caa 2a3f c32d 09be 5ab7 68bf
000001c0: 6eb7 403e fe67 81bf 4c64 d6bd f28c 72bf
000001d0: bde7 113f fe31 2f3e 06e3 5ebf 2dfe 0a3f
000001e0: 6c60 89bd f90d 62bf f4c6 9e3f fbae 533f
000001f0: 04a8 39bf 0a9d 8d3e 7155 d23e 0b5b f5be
00000200: e2e0 13bf b601 b43e 77ca 713f 263e 803f
00000210: 88aa a8be d294 31bf 6968 a33e 7240 a9bd
00000220: f0e6 19bd 5707 84be 819b 133c 624e 543f
00000230: 4bd6 f3bd 11bd 183f 268c 863e dee0 59bf
00000240: 9846 05bd fe5c 2abf 84de 83bf 381f 83bf
00000250: 0f43 2e3e 1fe7 933f 269b ccbe 0edd 8bbf
00000260: e9b6 323e 0dcd 083f 5569 173e a74b 1c3e
00000270: 74fd babe 9f13 673e a0c3 ffbe c46c 0fbf
00000280: 0449 933f d88b 66bf 4e81 123f 2779 643e
00000290: 3934 fdbd 10a7 e33e cd11 193f eb52 433e
000002a0: 2562 2cbf d075 1cbf 02bd 80bf 2792 60bf
000002b0: 88e2 8d3e bd7c 0bbf 3142 adbd 1f63 9b3c
000002c0: ff91 92be 5e5c 953e afae 873e 84f0 bfbe
000002d0: eeef 0b3f 5e2a 3dbe 3c14 b9be 9a11 133e
000002e0: 0b5e be3e eb90 36be 4635 993e c778 d1be
000002f0: fed4 8abe 0ce7 43bf 0823 a73d 41a1 07bf
00000300: 57c7 473e 424b c53e c9b3 3ebe 6649 f63e
00000310: ed80 2d3e 33c1 813e d065 2e3f ec62 b3be
00000320: f111 b33e 1446 f9bc 2aeb b73c 356e d9bd
00000330: 3544 203f d589 4a3d 297c a73e b0aa 7cbf
00000340: c450 df3e f49b 293f b681 a4bd 2b60 bdbc
00000350: f312 2ebf 7c63 063d 5baa b23e 4ac1 d5be
00000360: b6bc a0be 4ad9 eabe b86d 1a3f b6d4 d5bd
00000370: 537c 62bf 1249 0cbf 7b8b c23e 3d5d 893e
00000380: 6709 d63e 3956 1bbf cdb6 ed3e 78a6 33be
00000390: 6ad4 b0bf 96fa 1dbf 28ea 52be 4e5f 9cbe
000003a0: dcbe a73e 357c cbbd 3d2c bd3d 4050 563e
000003b0: 218f 183f 487c 32be 50e3 34be 858f a53e
000003c0: 9988 e93d 0aa4 633e 7542 15bf 4f22 3abf
000003d0: 2a64 2ebd 31e4 63be 07ca 373f 2e5c 1b3f
000003e0: 7e84 c93e b4b5 333d 8aa7 073d 92c2 51bf
000003f0: 33b4 873e c001 e63d 815a 523f 7212 d3bd
0.059026208 0.3473886 0.10609971 0.17048456 0.6663864 0.19297494 -0.98648036 0.030406695
-0.6986785 -0.40249977 -0.93613833 0.09870227 -0.28611335 0.3444264 -0.6973224 -0.41111737
0.4467934 0.10527903 -0.04074536 -0.19008903 0.60493886 -0.35135493 -0.2939722 0.2344698
0.08172792 -0.22885744 0.34063625 0.07574915 -0.09378102 -0.56184196 0.4053635 0.45668712
-0.11790431 -0.46359265 0.18677217 0.23887041 0.68253803 0.3317014 0.023072008 -0.2517605
0.08992557 0.4105511 0.10793498 -0.1195365 0.20938936 -0.8051433 -0.6263555 -0.60949415
-0.12302904 -0.008318834 0.798 0.096253216 0.13146922 0.24710771 0.31894574 0.95820886
-1.1182516 0.33404437 -0.48291788 0.42243314 0.34376398 -0.31437156 0.35085186 -0.1976615
-0.22954172 0.065275826 -0.4453212 0.72162914 -1.1959707 0.5928389 -0.56842333 0.07256429
-0.03157951 1.3767315 0.68776953 -0.7464232 -1.0802083 0.89121735 0.044935625 -0.30227983
-0.749174 0.70735717 -0.095856965 0.2510846 0.44959724 -0.13557795 0.7804709 -0.38619173
-0.9449106 -0.20571712 0.40782985 -1.3217922 -0.6283897 0.80776453 0.18060206 0.8003998
-0.8499296 -0.52973276 1.0253987 -0.20528054 1.1295156 0.38261336 -0.33956155 1.1417406
0.35811546 0.34250897 -0.28010267 -0.85839134 0.3183993 0.6666601 -0.13396363 -0.9090477
0.18819973 -1.0109861 -0.10468349 -0.94746315 0.5699423 0.17108914 -0.8706516 0.5429409
-0.06707844 -0.8830257 1.2404466 0.82688874 -0.72521996 0.27658874 0.41080812 -0.47921023
-0.5776502 0.35157555 0.9444956 1.0018966 -0.32942605 -0.69367707 0.31915596 -0.08264245
-0.037573755 -0.2578685 0.009009243 0.829321 -0.119061075 0.5966349 0.262788 -0.85108745
-0.032538027 -0.66548145 -1.0302281 -1.0243902 0.17017768 1.1554908 -0.3996212 -1.0926836
0.17452587 0.5343788 0.14786275 0.15263234 -0.36521494 0.22566079 -0.49953938 -0.5602534
1.1506658 -0.90057135 0.57228553 0.22311841 -0.12363476 0.44463396 0.59792787 0.190746
-0.67337257 -0.6111727 -1.0057681 -0.8772301 0.27711892 -0.5448721 -0.08459891 0.018968163
-0.2862701 0.29172033 0.2650046 -0.37488186 0.5466298 -0.18473193 -0.3614825 0.14362183
0.37181124 -0.1782872 0.29923457 -0.40912458 -0.27115625 -0.76524425 0.081609786 -0.5298043
0.19509636 0.3853398 -0.1862327 0.48102874 0.16943713 0.25342712 0.68124104 -0.3503641
0.34974626 -0.030428924 0.022451002 -0.106167234 0.62604076 0.049447853 0.32711914 -0.9869795
0.43616307 0.6625359 -0.08032553 -0.023117146 -0.67997664 0.03280972 0.34895596 -0.4174903
-0.31393975 -0.45868903 0.6032367 -0.10440962 -0.88470954 -0.54798996 0.3799704 0.26828948
0.41804048 -0.6067844 0.46428528 -0.17543972 -1.3814824 -0.6171049 -0.20597136 -0.30541462
0.32762802 -0.099358 0.092369534 0.2092905 0.595934 -0.17430222 -0.17664838 0.3233606
0.11403007 0.22230545 -0.5830453 -0.727086 -0.042575993 -0.22255017 0.71792644 0.6068753
0.39358896 0.043874457 0.033118762 -0.81937516 0.2650467 0.112308025 0.8216935 -0.103062525

fc3.bias f4 [4]
00000000: 2eef 9fbe d003 dd3d ef1f 7c3e d6aa e6bd
-0.31237167 0.10791743 0.24621557 -0.11263053
