Banana/checkpoint.pth (torch_old, 28391 bytes, 6 tensors)

fc1.weight f4 [64, 37]
0.16620281 0.050760668 -0.28041103 -0.48002473 -0.006918331 0.12688896 -0.08834261 0.08685705
-0.27997553 -0.10107731 0.020857902 -0.3477191 0.099856436 -0.32358965 -0.7298612 0.03533068
-0.13958396 0.037101466 0.23838133 0.110314295 0.043398052 -0.1001996 0.074974015 -0.08239761
-0.4253802 -0.032290004 0.0725406 -0.09170709 -0.06298267 -0.1349793 -0.23548749 0.15283082
0.15075424 -0.21668969 -0.17110677 -0.14479423 -0.04427154 0.11686727 0.00825601 0.11509065
0.09220426 -0.3549455 0.07419278 -0.15608543 -0.04601652 -0.3042777 -0.4782236 0.037327863
0.091529675 -0.005260998 -0.0056474116 -0.13227718 0.17207718 -0.07932923 0.03874617 -0.09541166
-0.19936955 -0.058313727 -0.18259753 -0.095011905 0.052131087 0.1590438 -0.034794934 -0.05274848
0.02593401 0.095380485 -0.06526087 0.09778396 0.05321592 0.0401934 -0.02892723 0.11067578
-0.03543198 0.022106288 0.12959042 0.09965609 0.1410302 0.06998998 -0.16377659 -0.6580342
0.19211932 0.30609718 -0.06532248 -0.44060317 -0.054483958 0.003378554 0.008452756 0.2303221
0.2458365 -0.03387528 0.016869577 0.15636371 0.14896709 0.027802086 -0.39636457 0.17850782
0.10607838 -0.032360412 -0.38608715 0.15698503 0.11705384 0.20711106 -0.09193348 0.04457728
-0.09158617 0.055656012 -0.02663129 -0.1308279 -0.15561363 -0.007294023 -0.0014695649 0.12535855
0.16803472 0.113836505 0.08272613 -0.13564608 0.023165142 0.021989424 0.09848919 0.07759464
0.12973906 0.010782513 0.051155865 0.022746325 -0.08956506 -0.085044056 -0.07916649 0.00454097
-0.0047701625 0.011866693 0.11638406 -0.016998464 0.057552945 0.052283827 0.072178416 0.021586748
-0.07256142 -0.109186955 0.11905393 0.19201341 0.2795715 0.3410997 -0.55113184 -0.35369954
-0.67584735 -2.2608135 -0.0035755157 -0.004058193 -0.023768637 -0.16445582 -0.113671556 -0.23139974
0.0066335076 -0.16197616 0.1966352 0.05000679 0.14307466 -0.51721376 0.030840531 0.0976189
-0.36489192 -0.02939524 -0.32595372 -0.044107664 -0.038460806 -0.10881157 -0.035339307 0.066269316
-0.5011794 0.17763403 0.059395917 0.1557521 0.2871714 -0.024118796 -0.15679912 0.1383738
0.11408811 0.052169207 0.3193182 -0.1714695 -0.2630469 -0.2218745 -0.37141904 0.18475227
-0.04805044 0.005694694 0.00112186 -0.11670293 0.086671256 -0.12082837 0.22989301 0.3098934
-0.36747667 -0.12341455 -1.0570331 0.05316361 -0.162844 -0.08580139 -0.13263606 -0.040802933
0.022095587 -0.020857455 0.022661561 -0.15697674 -0.08990263 0.23659617 -0.04640354 -0.09924489
0.013181916 0.16671415 -0.116907634 0.061324656 0.05644442 0.0799477 0.18774754 0.090504065
-0.09535574 -0.16248019 0.02981504 -0.14117669 0.15105277 0.039643817 0.21649607 0.2932873
-0.25844032 -0.46546495 -1.7803559 -0.19718137 -0.0816063 -0.006797466 0.12018692 0.35906243
-0.009828576 0.0675937 0.13201414 0.05887735 0.116624676 -0.15571292 -0.032046836 0.08407114
0.13417153 0.28764272 0.006953625 -0.02826256 -0.0072281724 -0.108406685 0.027711827 -0.15378207
-0.10804773 0.054236006 -0.040263213 0.01153376 -0.09052218 0.045198184 0.064466536 0.050827723
00000000: 1231 2a3e 6bea 4f3d 0992 8fbe cdc5 f5be
00000010: 2bb3 e2bb 2eef 013e f8ec b4bd 1ce2 b13d
00000020: f458 8fbe 9f01 cfbd 31de aa3c 3d08 b2be
00000030: 8881 cc3d 8bad a5be 2fd8 3abf e7b6 103d
00000040: 19ef 0ebe b5f7 173d 3c1a 743e 76ec e13d
00000050: 28c2 313d 7335 cdbd fa8b 993d 14c0 a8bd
00000060: 6fcb d9be 8642 04bd 2b90 943d edd0 bbbd
00000070: 0ffd 80bd 0338 0abe a223 71be af7f 1c3e
00000080: 525f 1a3e e7e3 5dbe 9d36 2fbe f044 14be
00000090: 1356 35bd 1b58 ef3d 3744 073c a6b4 eb3d
000000a0: 96d5 bc3d 6bbb b5be 62f2 973d dcd4 1fbe
000000b0: d27b 3cbd 49ca 9bbe b9d9 f4be 1ae5 183d
000000c0: e973 bb3d 7364 acbb ec0d b9bb ab73 07be
000000d0: 0035 303e 5d77 a2bd 4eb4 1e3d 3067 c3bd
000000e0: 8827 4cbe 60da 6ebd d9fa 3abe 9a95 c2bd
000000f0: 6887 553d 61dc 223e 2285 0ebd ca0e 58bd
00000100: 9073 d43c d856 c33d 7ea7 85bd f542 c83d
00000110: f0f8 593d d6a1 243d ccf8 ecbc fca9 e23d
00000120: 2021 11bd 3f18 b53c 5ab3 043e 7e18 cc3d
00000130: 396a 103e e856 8f3d 0db5 27be ee74 28bf
00000140: edba 443e c5b8 9c3e cbc7 85bd bd96 e1be
00000150: 922a 5fbd bb6a 5d3b 6e7d 0a3c 8ed9 6b3e
00000160: 90bc 7b3e cec0 0abd 1132 8a3c cf1d 203e
00000170: d48a 183e 33c1 e33c 4cf0 cabe c1ca 363e
00000180: 9f3f d93d 5a8c 04bd 37ad c5be afc0 203e
00000190: ecb9 ef3d ec14 543e 9f47 bcbd aa96 363d
000001a0: 8891 bbbd 8ff7 633d dd29 dabc c0f7 05be
000001b0: 2e59 1fbe b302 efbb 6a9e c0ba fe5d 003e
000001c0: 4b11 2c3e 1d23 e93d 516c a93d cee6 0abe
000001d0: d3c4 bd3c 2a23 b43c b3b4 c93d f0e9 9e3d
000001e0: 51da 043e 23a9 303c d088 513d 8056 ba3c
000001f0: e36d b7bd 942b aebd 0a22 a2bd 6bcc 943b
00000200: 064f 9cbb 856c 423c c45a ee3d 5d40 8bbc
00000210: a3bc 6b3d 9127 563d 47d2 933d b1d6 b03c
00000220: 159b 94bd 699d dfbd 8cd2 f33d 2a9f 443e
00000230: ff23 8f3e 9fa4 ae3e fa16 0dbf 1b18 b5be
00000240: 5504 2dbf 2bb1 10c0 3353 6abb 97fa 84bb
00000250: 72b6 c2bc 1b67 28be a2cc e8bd 0ef4 6cbe
00000260: e55d d93b 14dd 25be bd5a 493e ebd3 4c3d
00000270: 2a82 123e 1f68 04bf 48a5 fc3c 6bec c73d
00000280: 1dd3 babe 49ce f0bc 68e3 a6be 3daa 34bd
00000290: 1489 1dbd 9ad8 debd f3bf 10bd 35b8 873d
000002a0: 4b4d 00bf b2e5 353e 2249 733d 7a7d 1f3e
000002b0: 2108 933e c894 c5bc f38f 20be ddb1 0d3e
000002c0: 07a7 e93d 61af 553d ad7d a33e b395 2fbe
000002d0: 15ae 86be 1233 63be a32a bebe b32f 3d3e
000002e0: 8ad0 44bd 8e9a ba3b 600b 933a f201 efbd
000002f0: b380 b13d dd74 f7bd 1369 6b3e 59aa 9e3e
00000300: e725 bcbe c5c0 fcbd dc4c 87bf 16c2 593d
00000310: 94c0 26be a4b8 afbd bfd1 07be fa20 27bd
00000320: ce01 b53c 41dd aabc bda4 b93c 83be 20be
00000330: df1e b8bd 4446 723e a311 3ebd e840 cbbd
00000340: f7f8 573c 1db7 2a3e 456d efbd 902f 7b3d
00000350: 4432 673d 9fbb a33d e440 403e 325a b93d
00000360: df49 c3bd 3561 26be ac3e f43c 9f90 10be
00000370: 94ad 1a3e 8e61 223d 25b1 5d3e c129 963e
00000380: 4a52 84be 6c51 eebe b4e2 e3bf eae9 49be
00000390: 3421 a7bd 47bd debb 8f24 f63d 08d7 b73e
000003a0: 0908 21bc 916e 8a3d b72e 073e 6029 713d
000003b0: ebd8 ee3d 3573 1fbe 8b43 03bd 7d2d ac3d
000003c0: 4364 093e e845 933e 3cdb e33b e286 e7bc
000003d0: 4eda ecbb 5304 debd ea03 e33c 0c79 1dbe
000003e0: 2148 ddbd 9326 5e3d 0aeb 24bd 18f8 3c3c
000003f0: b163 b9bd bb21 393d 0807 843d bb30 503d

fc1.bias f4 [64]
0.066288576 -0.029054312 -0.08965692 0.032769054 0.16458724 -0.062495273 -0.069524966 0.033102516
0.072484404 -0.24298118 0.20353895 0.27958453 0.092122614 -0.00186456 -0.105569646 -0.11602601
0.024205497 0.06944777 -0.002482333 -0.22988258 0.019237738 0.10552023 -0.010851295 -0.08916092
-0.14885327 0.18662454 -0.12454754 -0.18753815 0.12789077 0.123720706 0.047767013 -0.15580729
0.17431036 -0.023837324 -0.15366979 0.037111208 -0.04990207 0.0551292 -0.018564738 -0.10476036
-0.13804424 0.0803625 -0.030495932 0.24737768 -0.0703655 -0.062293112 0.008246684 -0.20264542
-0.18894695 -0.007908375 -0.19986095 0.088552 -0.021963404 -0.22221807 -0.12963551 -0.087287776
0.18115696 0.060878452 -0.05698344 -0.113743566 0.069278486 0.03548243 -0.044792198 0.02003681
00000000: 4ec2 873d 4f03 eebc 0c9e b7bd d838 063d
00000010: 8f89 283e 0bfb 7fbd 1b63 8ebd 8196 073d
00000020: b472 943d 0fd0 78be 846c 503e b425 8f3e
00000030: c8aa bc3d 4064 f4ba e634 d8bd 0b9f edbd
00000040: 9b4a c63c a23a 8e3d a3ae 22bb 5766 6bbe
00000050: 7698 9d3c fe1a d83d a1c9 31bc 009a b6bd
00000060: fe6c 18be 811a 3f3e c812 ffbd 000a 40be
00000070: ccf5 023e 4861 fd3d 58a7 433d f28b 1fbe
00000080: 6a7e 323e 7e46 c3bc 9d5b 1dbe ec01 183d
00000090: 1d66 4cbd 28cf 613d 1415 98bc 9a8c d6bd
000000a0: 785b 0dbe 1895 a43d 9bd2 f9bc 9350 7d3e
000000b0: ca1b 90bd 1027 7fbd 1a1d 073c 4882 4fbe
000000c0: 4f7b 41be 2192 01bc 59a8 4cbe c05a b53d
000000d0: 99ec b3bc 228d 63be 2cbf 04be efc3 b2bd
000000e0: 3681 393e af5b 793d 7867 69bd 63f2 e8bd
000000f0: e1e1 8d3d 0656 113d 0678 37bd 3c24 a43c

fc2.weight f4 [64, 64]
0.06534167 -0.0032725278 -0.077592544 -0.016807424 -0.094139114 0.08422297 -0.09869586 -0.13727213
-0.20694962 0.3167474 -0.027575448 -0.10018889 -0.032759365 -0.03365211 -0.18214545 -0.20759135
-0.1384528 -0.54339695 -0.08774867 0.12644264 -0.092941955 -0.65074927 -0.0007947728 0.03189005
0.019669462 0.09014476 0.09929327 -0.03804584 -0.049463406 0.016229777 0.06343968 0.086865604
-0.023212744 0.0693816 0.13910943 -0.19343117 -0.21198262 0.13809425 -0.058888275 -0.18746519
-0.18862529 0.036472213 -0.22787389 -0.062473908 0.06285566 -0.22664689 -0.08035505 0.07903801
-0.026896494 -0.21086092 -0.15798657 -0.06298906 -0.023450416 0.21018595 -0.0030699347 -0.04095613
-0.037746333 -0.15769222 -0.32910448 -0.39575347 0.15299575 0.79229856 -0.092378795 -0.029446507
0.2081358 0.0528304 -0.413568 -0.17827494 0.0701467 0.013415499 -0.069563635 -0.12773995
-0.04821667 -0.1750684 -0.17470312 0.28285745 -0.14512676 -0.027963268 -0.15735106 0.017814323
0.22169736 0.27071947 -0.057541847 -0.29577652 -0.11493655 -0.06896095 -0.026074205 0.19240622
-0.18570894 -0.155109 -0.05282136 -0.25667882 -0.00090355094 0.026129749 0.08150105 0.12436034
-0.14183609 0.07279581 0.1470378 -0.14479777 0.10066451 -0.18945785 -0.07091056 -0.20824157
0.14053077 -0.015871668 0.022349507 -0.092896275 -0.12526262 -0.17608175 -0.10354302 -0.164816
0.08583178 -0.34327468 0.064136244 0.11776299 0.0035002353 -0.24845472 -0.032431632 -0.08556829
-0.029691491 -0.05249093 0.16902642 0.2410395 -0.20710738 -0.29825667 0.0053321635 -0.2065594
-0.009724743 -0.009059148 -0.051922705 0.1348049 -0.014409053 0.05750237 0.12720384 0.04814208
0.29959542 -0.18148082 -0.10571598 0.108932465 0.08615979 -0.14476499 0.039555103 -0.34676608
-0.18718724 0.15381934 -0.04736675 0.078979746 -0.15140678 0.44456446 0.00035590836 -0.06486718
-0.02122736 -0.03577206 -0.34162936 0.065322384 0.03010237 0.24132898 -0.41362658 -0.24960577
-0.25106037 -0.033432737 -0.25658366 0.29210627 0.28799716 0.059890177 -0.110790275 -0.04437457
0.094204046 0.043779124 -0.5098128 -0.037252355 -0.13992126 0.10748557 -0.023526875 -0.09509766
-0.48419058 0.112391904 -0.19222097 -0.054226317 0.07673105 0.34282628 -0.25227857 -0.08392226
0.07006875 -0.14240092 0.19027074 0.07625787 -0.18489061 -0.006685991 -0.2497572 0.028244497
-0.02864998 0.079655215 -0.23530827 0.03449805 -0.40340307 -0.05940303 0.16684717 0.060956094
0.18396382 -0.10578825 0.071712725 -0.012745638 -0.1644261 0.22138393 -0.018412592 0.06445297
0.05424466 0.29604104 0.3959152 -0.29560095 -0.518156 0.4560687 0.13976052 0.19715273
-0.43591237 -0.12153114 0.19135179 0.08975396 0.2482883 -0.1686526 -0.1833566 -0.29195002
-0.069588676 -0.16091408 -0.2919186 0.17410146 0.31359398 0.24578837 -0.2919161 -0.030673014
-0.50530386 0.16647904 0.222745 0.025740491 -0.21566662 -0.1838755 0.07352377 0.058737237
0.2993596 0.07983417 -0.5727319 -0.08612411 -0.1395706 0.11118059 -0.20676719 0.009751132
-0.070878714 -0.11241116 -0.19700849 0.1700892 -0.123171434 0.37880224 -0.005285263 0.12539761
00000000: dad1 853d e877 56bb d7e8 9ebd b9af 89bc
00000010: 02cc c0bd 187d ac3d 0e21 cabd 1191 0cbe
00000020: 9aea 53be b72c a23e e8e5 e1bc d52f cdbd
00000030: af2e 06bd cbd6 09bd 5684 3abe d492 54be
00000040: 92c6 0dbe 101c 0bbf 93b5 b3bd 2e7a 013e
00000050: 5a58 bebd 8197 26bf 4d58 50ba 249f 023d
00000060: da21 a13c d19d b83d 455a cb3d f4d5 1bbd
00000070: 249a 4abd 4ff4 843c aaec 813d 98e6 b13d
00000080: a728 bebc f117 8e3d b472 0e3e d212 46be
00000090: f911 59be 9468 0d3e d534 71bd e0f6 3fbe
000000a0: fd26 41be e363 153d c657 69be a4e4 7fbd
000000b0: 78ba 803d 1f16 68be 3091 a4bd aede a13d
000000c0: 0956 dcbc edeb 57be 3bc7 21be 6900 81bd
000000d0: 161b c0bc fc3a 573e f530 49bb 9dc1 27bd
000000e0: e69b 1abd 127a 21be 6280 a8be 33a0 cabe
000000f0: ebaa 1c3e 14d4 4a3f 1831 bdbd cd39 f1bc
00000100: 8d21 553e b164 583d 2fbf d3be b58d 36be
00000110: 13a9 8f3d aecc 5b3c 6177 8ebd 43ce 02be
00000120: d87e 45bd 2145 33be 60e5 32be b1d2 903e
00000130: 1c9c 14be 3913 e5bc a320 21be 58ef 913c
00000140: a204 633e be9b 8a3e 00b1 6bbd 0570 97be
00000150: db63 ebbd 663b 8dbd 9299 d5bc 2306 453e
00000160: 7c2a 3ebe e5d4 1ebe 365b 58bd 686b 83be
00000170: 47dc 6cba 0e0e d63c 06ea a63d a2b0 fe3d
00000180: 7b3d 11be f815 953d 1491 163e de45 14be
00000190: 3229 ce3d 3d01 42be 8e39 91bd 473d 55be
000001a0: 4ce7 0f3e 4d05 82bc 5016 b73c 6740 bebd
000001b0: d844 00be c64e 34be 5d0e d4bd 87c5 28be
000001c0: 93c8 af3d b3c1 afbe dd59 833d b92d f13d
000001d0: 3464 653b ea6a 7ebe 08d7 04bd 6d3e afbd
000001e0: 923b f3bc bb00 57bd 4315 2d3e 0fd3 763e
000001f0: f513 54be 19b5 98be 6eb9 ae3b 4f84 53be
00000200: 8754 1fbc d26c 14bc e7ac 54bd 4c0a 0a3e
00000210: f313 6cbc 9b87 6b3d b941 023e a130 453d
00000220: 9264 993e 1cd6 39be 9f81 d8bd fc17 df3d
00000230: 8b74 b03d 463d 14be 8804 223d 538b b1be
00000240: 03ae 3fbe d182 1d3e a303 42bd 22c0 a13d
00000250: 610a 1bbe f49d e33e 3699 ba39 16d9 84bd
00000260: 00e5 adbc b985 12bd 0bea aebe bec7 853d
00000270: 3f99 f63c f21e 773e ddc6 d3be a898 7fbe
00000280: fc8a 80be c4f0 08bd ef5e 83be f48e 953e
00000290: 5d74 933e 674f 753d 03e6 e2bd 1cc2 35bd
000002a0: 0dee c03d bd51 333d 1783 02bf ed95 18bd
000002b0: 8547 0fbe 6521 dc3d 6fbb c0bc 90c2 c2bd
000002c0: d4e7 f7be ba2d e63d 93d5 44be 6a1c 5ebd
000002d0: 2b25 9d3d ed86 af3e a82a 81be 6fdf abbd
000002e0: 3480 8f3d 8cd1 11be 55d6 423e 162d 9c3d
000002f0: f753 3dbe 2816 dbbb 5ac0 7fbe 0161 e73c
00000300: 5db3 eabc 4622 a33d a7f4 70be d44d 0d3d
00000310: d98a cebe 9750 73bd fcd9 2a3e 19ad 793d
00000320: 0361 3c3e 83a7 d8bd 1fde 923d 15d3 50bc
00000330: 515f 28be 78b2 623e 01d6 96bc ebff 833d
00000340: a62f 5e3d b192 973e 66b5 ca3e 0259 97be
00000350: dfa5 04bf d681 e93e 621d 0f3e 68e2 493e
00000360: e82f dfbe 51e5 f8bd b9f1 433e edd0 b73d
00000370: 4a3f 7e3e 44b3 2cbe d5c1 3bbe 797a 95be
00000380: 8284 8ebd a9c6 24be 5b76 95be a747 323e
00000390: 648f a03e f2af 7b3e 0776 95be f945 fbbc
000003a0: 985b 01bf 7b79 2a3e 4417 643e b9dd d23c
000003b0: b6d7 5cbe dc49 3cbe a193 963d 7596 703d
000003c0: a945 993e 1980 a33d 8f9e 12bf d661 b0bd
000003d0: 98eb 0ebe a6b2 e33d c7ba 53be 36c3 1f3c
000003e0: dc28 91bd d237 e6bd 98bc 49be dd2b 2e3e
000003f0: 4e41 fcbd 5ef2 c13e 0030 adbb 3b68 003e

fc2.bias f4 [64]
-0.03026396 0.024316302 -0.038557824 -0.07892907 0.22013558 0.0024291128 -0.09229184 -0.10334492
0.19785298 0.599043 -0.12736535 0.29222178 0.20801793 0.073193766 -0.06285702 0.20361759
0.047502 0.15533254 0.042844117 0.44259876 0.1875834 0.68913406 -0.26503766 -0.15954195
-0.05661188 -0.29191127 0.13239057 -0.04712994 -0.05130814 0.38000524 -0.07410556 0.18662995
0.12527019 0.39911097 0.0028487348 0.0680209 -0.06968666 0.063740596 0.21782485 0.1077549
-0.15402704 0.61148334 0.4002019 -0.11823982 -0.006396302 -0.18471357 0.38559785 0.01999724
0.052808676 0.04031854 -0.15643738 0.55471116 -0.06809996 -0.06728431 0.27100432 -0.28044263
-0.27838206 -0.13209796 0.0015137873 -0.1257291 0.051604748 0.458955 0.17803529 -0.07024293
00000000: 20ec f7bc fb32 c73c cfee 1dbd 90a5 a1bd
00000010: 396b 613e c031 1f3b 8103 bdbd 80a6 d3bd
00000020: f999 4a3e e25a 193f 106c 02be 189e 953e
00000030: a702 553e 9de6 953d 2ebb 80bd 2181 503e
00000040: 7591 423d 7e0f 1f3e 507d 2f3d 4e9c e23e
00000050: dd15 403e 176b 303f 04b3 87be f75e 23be
00000060: dce1 67bd 6575 95be 6591 073e 530b 41bd
00000070: 7c28 52bd 0c90 c23e a8c4 97bd ec1b 3f3e
00000080: d446 003e 4658 cc3e d7b1 3a3b 8b4e 8b3d
00000090: e1b7 8ebd 6e8a 823d 7a0d 5f3e 9aae dc3d
000000a0: 44b9 1dbe 2c8a 1c3f 43e7 cc3e b827 f2bd
000000b0: 1298 d1bb 8e25 3dbe 156d c53e 40d1 a33c
000000c0: e94d 583d 0e25 253d 1f31 20be 8d01 0e3f
000000d0: fe77 8bbd 5bcc 89bd 14c1 8a3e 2d96 8fbe
000000e0: 1888 8ebe b044 07be 466a c63a 21bf 00be
000000f0: 805f 533d 26fc ea3e e24e 363e 86db 8fbd

fc3.weight f4 [4, 64]
0.51516354 0.07203665 -0.07437353 -0.33508575 0.22406839 0.18656944 -0.1787898 -0.09538176
0.35174313 0.16909455 -0.32201868 0.30882135 0.2690425 0.255107 -0.16018605 0.16004568
0.5255075 0.23084956 0.094255924 0.219773 0.054458007 0.23691113 -0.48618528 -0.14171112
-0.28633416 -0.06793181 -0.66761273 -0.06393254 -0.004099477 0.13748083 -0.12539284 0.122242376
0.31705412 0.24914123 -0.013793962 0.25296736 0.10355981 0.03529125 0.122492105 0.12107429
0.022094056 0.1824678 0.18732816 -0.19340928 0.20551154 -0.111157075 0.15492606 0.13595082
0.4447342 0.13995355 -0.19019525 0.21917701 -0.41181427 0.16424863 0.22164911 -0.16019908
-0.29286757 -0.012514564 0.22937673 -0.099975735 -0.060243156 0.18930295 0.14011605 0.015705353
0.42261815 0.010906555 0.087922744 -0.33442056 0.27327457 0.30629954 -0.1841189 -0.22413
0.21612117 0.16051337 0.15364987 0.16864951 0.14339209 0.30436552 -0.06625367 0.12206416
0.5593963 0.14574923 0.27213398 0.14071475 0.11803177 0.29265642 -0.2609126 0.049142644
0.21352753 -0.21057549 0.009575748 -0.14291263 0.039674327 0.14057806 -0.22180027 0.12883857
0.13776723 0.19631347 0.07397252 0.25716105 0.1495204 0.18431279 0.18253888 0.17900573
0.110719934 0.16065505 0.17136647 -0.12623999 0.27361286 -0.06009917 0.18081458 0.37627295
0.4068198 0.12744118 -0.10518843 0.23637342 0.13374808 0.48303777 0.26769355 -0.16396159
-0.22267762 -0.039824516 -0.29424787 -0.44599026 -0.251635 0.14303008 0.018419381 0.24483693
0.29828987 0.40874884 0.15384786 -0.042734798 0.12337111 0.38786548 -0.20881222 -0.23306628
0.14187683 0.18709403 -0.4177799 0.23020485 0.17762938 0.19384575 -0.5831321 0.30687353
0.32609537 0.026313575 -0.024402376 0.11393146 0.15113267 0.28695095 -0.3928167 0.20845675
-0.23599264 -0.089714125 -0.060007997 0.09783731 -0.07626975 0.20251083 -0.42104962 -0.04572805
-0.07858465 0.26251498 0.29161653 0.46671775 0.34621194 0.3868241 0.27600673 0.26548362
0.08239911 0.2222203 0.21657555 0.018936414 0.08956149 -0.1303915 0.13005133 0.21986602
0.49111646 -0.016156057 -0.060601942 0.31928098 -0.1182618 -0.2150074 0.1662146 -0.16628884
-0.13479887 -0.005521539 -0.05744761 -0.49030277 -0.46461552 0.21823303 -0.4340908 -0.6920914
0.50226456 0.30667597 -0.10605799 -0.40513453 0.017820626 0.58086646 -0.30469555 -0.19758536
0.2717876 0.23171404 -0.36795768 0.056818184 0.22657852 0.09531029 -0.07088052 0.061716583
0.62844366 0.062214922 0.4534857 0.20589074 -0.025834372 0.28910118 -0.2763521 0.26038292
-0.13275087 -0.2490978 0.33372703 0.30947337 0.3973229 0.037973814 -0.033788297 0.11580116
-0.0773027 0.26034036 -0.008280891 0.13808139 -0.08004993 0.2698627 0.23241843 0.3078887
-0.07699912 0.24845693 0.23104754 -0.3918243 0.72546935 -0.20918477 0.13357496 -0.029410008
-0.059518013 0.01056618 0.11342418 0.29522985 -0.44069362 0.4341484 0.2844735 -0.1203599
-0.19458613 -0.07806024 -0.5557553 -0.589978 -0.34203997 0.1299909 -0.29658872 0.47801366
00000000: c2e1 033f f387 933d 2651 98bd 5c90 abbe
00000010: 2f72 653e 0f0c 3f3e ac14 37be 8357 c3bd
00000020: ad17 b43e 1f27 2d3e a2df a4be d51d 9e3e
00000030: f0bf 893e 629d 823e d007 24be 04e3 233e
00000040: a987 063f d463 6c3e 4009 c13d 2c0c 613e
00000050: 5c0f 5f3d d598 723e 47ed f8be b81c 11be
00000060: 649a 92be d51f 8bbd abe8 2abf 10ef 82bd
00000070: e854 86bb c6c7 0c3e fb66 00be 365a fa3d
00000080: eb54 a23e e11e 7f3e 1200 62bc f084 813e
00000090: 2a17 d43d 8f8d 103d 24dd fa3d ccf5 f73d
000000a0: 98fe b43c d7d8 3a3e f4d2 3f3e 150d 46be
000000b0: 9e71 523e 52a6 e3bd f0a4 1e3e b136 0b3e
000000c0: 33b4 e33e fc4f 0f3e 8bc2 42be f06f 603e
000000d0: 52d9 d2be cb30 283e fcf7 623e 3a0b 24be
000000e0: bdf2 95be e309 4dbc bce1 6a3e 14c0 ccbd
000000f0: 87c1 76bd a2d8 413e 957a 0f3e 83a8 803c
00000100: 6861 d83e 68b1 323c d710 b43d 2c39 abbe
00000110: a5ea 8b3e 4bd3 9c3e aa89 3cbe 5682 65be
00000120: de4e 5d3e 9e5d 243e 6456 1d3e 75b2 2c3e
00000130: 60d5 123e ccd5 9b3e 01b0 87bd c6fc f93d
00000140: 9934 0f3f 493f 153e 2555 8b3e 8717 103e
00000150: a4ba f13d 10d7 953e 5696 85be cc49 493d
00000160: f6a6 5a3e 1aa1 57be 99e3 1c3c b057 12be
00000170: 8c81 223d b2f3 0f3e 9c1f 63be 42ee 033e
00000180: da12 0d3e 6606 493e e87e 973d 9daa 833e
00000190: e01b 193e 7ebc 3c3e 79eb 3a3e 474d 373e
000001a0: 22c1 e23d c282 243e b17a 2f3e 0e45 01be
000001b0: fc16 8c3e 8c2a 76bd 7527 393e d9a6 c03e
000001c0: af4a d03e f17f 023e 086d d7bd e00b 723e
000001d0: 42f5 083e ba50 f73e 210f 893e 8ce5 27be
000001e0: 9a05 64be 081f 23bd a8a7 96be d658 e4be
000001f0: 4dd6 80be 7a76 123e 3ee4 963c 88b6 7a3e
00000200: 73b9 983e 8747 d13e 4b8a 1d3e af0a 2fbd
00000210: fea9 fc3d 4e96 c63e dfd2 55be eda8 6ebe
00000220: 2948 113e 9495 3f3e 3fe7 d5be d2ba 6b3e
00000230: 7ae4 353e 807f 463e 2548 15bf 871e 9d3e
00000240: f9f5 a63e 918f d73c 7ee7 c7bc e654 e93d
00000250: 86c2 1a3e 3ceb 923e 451f c9be b075 553e
00000260: 0ea8 71be 0abc b7bd f2ca 75bd ed5e c83d
00000270: 5133 9cbd 005f 4f3e d193 d7be 564d 3bbd
00000280: fdf0 a0bd 5d68 863e c34e 953e a1f5 ee3e
00000290: b142 b13e cf0d c63e c150 8d3e 78ed 873e
000002a0: ddc0 a83d b88d 633e fbc5 5d3e 8a20 9b3c
000002b0: 046c b73d 5985 05be 2d2c 053e 8f24 613e
000002c0: 9e73 fb3e b559 84bc be39 78bd cc78 a33e
000002d0: 3e33 f2bd e62a 5cbe 2934 2a3e 9f47 2abe
000002e0: b708 0abe 07ee b4bb 2f4e 6bbd f708 fbbe
000002f0: 16e2 edbe 7b78 5f3e 2641 debe e72c 31bf
00000300: 6994 003f a204 9d3e ee34 d9bd cb6d cfbe
00000310: 90fc 913c aab3 143f 0e01 9cbe d153 4abe
00000320: bf27 8b3e 7246 6d3e f364 bcbe 2fba 683d
00000330: 3304 683e 0b32 c33d ce29 91bd 87ca 7c3d
00000340: afe1 203f 13d5 7e3d 472f e83e 06d5 523e
00000350: 9ba2 d3bc 1205 943e 067e 8dbe e950 853e
00000360: d8ef 07be 7e13 7fbe 45de aa3e 4b73 9e3e
00000370: e86d cb3e 6e8a 1b3d 9965 0abd 2929 ed3d
00000380: e150 9ebd 554b 853e 93ac 07bc 3565 0d3e
00000390: 38f1 a3bd 722b 8a3e 19ff 6d3e 96a3 9d3e
000003a0: b7b1 9dbd 7e6b 7e3e ba97 6c3e 329d c8be
000003b0: 5cb8 393f 8834 56be e0c7 083e 42ed f0bc
000003c0: 29c9 73bd c51d 2d3c f04a e83d 5e28 973e
000003d0: 98a2 e1be b348 de3e 83a6 913e 407f f6bd
000003e0: 9641 47be 0cde 9fbd fb45 0ebf cc08 17bf
000003f0: dd1f afbe 561c 053e 7ada 97be 35be f43e

fc3.bias f4 [4]
0.4155447 0.3282465 0.26236805 0.31339213
00000000: 46c2 d43e ed0f a83e 1b55 863e ef74 a03e
