Reacher/checkpoint_critic.pth (torch_old, 435432 bytes, 7 tensors)

fcs1.weight f4 [256, 33]
0	0xbe4c7b1d	-0.19968839
1	0xbf15b449	-0.5847822
2	0xbdea1d5a	-0.114313796
3	0xbea398aa	-0.3195241
4	0xbec546c2	-0.38530546
5	0xbeec8ce9	-0.46201256
6	0x3f6f0cb4	0.9337876
7	0x3cc83adc	0.024442129
8	0x3caf8a0c	0.02142813
9	0xbde66357	-0.11249416
10	0x3dcc14a7	0.099648766
11	0x3ca47a29	0.020077782
12	0xbe426cff	-0.18986891
13	0x3e881d0a	0.26584655
14	0x3e236fe5	0.15960653
15	0x3ddf8837	0.10914653
16	0xbf6d7ad4	-0.92765546
17	0xbf1ff30a	-0.62480223
18	0xbf44cd0d	-0.7687538
19	0x3e55f1db	0.20893042
20	0xbd39cbd6	-0.04536041
21	0xbe801adf	-0.250205
22	0x3e6eeabc	0.23331732
23	0xbd9fb95a	-0.07799025
24	0x3c91225c	0.01771658
25	0x3d4cfa59	0.050043438
26	0xbe85f2c6	-0.26161784
27	0x3f1a9b08	0.6039281
28	0xbe46540c	-0.19367999
29	0x3c9f1cb4	0.019422866
30	0xbf2054d0	-0.62629414
31	0xbc9e32e8	-0.019311383
32	0xbe17d9b8	-0.14829147
33	0xbec6bc3e	-0.38815492
34	0xbca9aca5	-0.020712206
35	0xbe274362	-0.16334298
36	0xbf0a5be5	-0.5404647
37	0x3e85d609	0.26139858
38	0xbf194e32	-0.5988494
39	0xbfebf8f7	-1.8435353
40	0x3e80671c	0.25078666
41	0xbf7aaf77	-0.9792399
42	0x3dab95db	0.08378192
43	0xbdfa204e	-0.12213193
44	0x3de61d65	0.11236075
45	0xbda49b11	-0.08037389
46	0x3e89f906	0.26947802
47	0x3e599a53	0.21250276
48	0x3eb775c6	0.35832042
49	0xbd87c853	-0.06630006
50	0xbf3cb575	-0.7371438
51	0xbe97d7c6	-0.2965681
52	0xbf26face	-0.6522645
53	0xbdb6440a	-0.08899696
54	0x3e72a2a5	0.23694856
55	0x3e44ecf3	0.19231014
56	0xbde318b5	-0.11088697
57	0x3e1986d5	0.1499284
58	0xbd850be5	-0.06496409
59	0xbe950aa3	-0.29109678
60	0x3f0db2f9	0.55351216
61	0xbd8d3ea1	-0.06896711
62	0xbd645cbc	-0.0557525
63	0xbf14338a	-0.5789114
64	0xbced9788	-0.02900292
65	0xbf64ce43	-0.8937723
66	0x3e02d49b	0.12776415
67	0xbe484ca4	-0.19560486
68	0x3e74a02b	0.23889224
69	0x3e397978	0.18112743
70	0x3f712851	0.9420214
71	0x3f71b77c	0.944206
72	0x3f5c3cb3	0.8603012
73	0x3ec8c1b6	0.3921029
74	0x3eafd85b	0.34344754
75	0xbd559eff	-0.052153584
76	0xbdc92a58	-0.098225296
77	0x3dda0992	0.10646357
78	0x3d17228f	0.036898192
79	0xbec8de84	-0.39232266
80	0x3ec8b09a	0.39197236
81	0x3d9ab6b2	0.075543776
82	0xbe28c062	-0.16479638
83	0xbe56a3fb	-0.20960991
84	0xbec37f8f	-0.38183257
85	0xbec5afa5	-0.3861057
86	0xbb734f69	-0.003712619
87	0x3c40fc06	0.011778837
88	0xbcdce689	-0.026965396
89	0xbc3d2ad7	-0.011545858
90	0xbd064606	-0.032781623
91	0x3c41b7ae	0.011823578
92	0x3e907d11	0.28220418
93	0x3f0e3785	0.55553466
94	0x3da4b5cf	0.0804249
95	0x3d12f30c	0.03587632
96	0xbf1319d4	-0.57461286
97	0xbcc8d668	-0.0245163
98	0xbfb70b86	-1.4300392
99	0x3e5f8b13	0.21830396
100	0x3ed761ee	0.42066902
101	0x3d692a3b	0.05692504
102	0x3e88b698	0.26701808
103	0x3e2dc9fb	0.1697158
104	0x3b5fc116	0.0034142188
105	0xbec931b6	-0.3929574
106	0xbe5b9411	-0.21443202
107	0x3e0b680d	0.13613911
108	0x3ea162ac	0.31520593
109	0x3e7e06bc	0.24807256
110	0xbe0624c8	-0.13099968
111	0x3e3d7b8d	0.18504162
112	0xbe248326	-0.16065654
113	0x3e20d35c	0.15705627
114	0x3d2b878f	0.041877326
115	0xbf048672	-0.5176765
116	0xbe0076fb	-0.12545387
117	0x3d28ade2	0.041181453
118	0xbd6a9cbd	-0.057278384
119	0xbc38d140	-0.011280358
120	0xbd65f8ad	-0.05614536
121	0xbdca6264	-0.09882048
122	0x3e6ff68a	0.23433891
123	0x3d94b125	0.0726035
124	0x3e61dce0	0.22056913
125	0xbd878446	-0.06617026
126	0x3f4011cc	0.75027156
127	0x3e9be119	0.30445173
128	0x3d52c984	0.05146171
129	0xbf40fe0f	-0.7538766
130	0xbce30f60	-0.027717292
131	0xbf234c5b	-0.63788384
132	0x3e8edd06	0.27903003
133	0x3dced7a3	0.10099723
134	0xbe5a6e7f	-0.21331213
135	0x3e689a2f	0.22715066
136	0x3e754f83	0.23956113
137	0xbefb2dfb	-0.49058518
138	0x3e405767	0.18783341
139	0x3d3a6bde	0.045513026
140	0x3d5798e1	0.05263603
141	0xbd7ed6c8	-0.06221655
142	0x3dcade63	0.09905698
143	0xbd809218	-0.06277865
144	0xbd9c0b09	-0.07619292
145	0xbe58c106	-0.21167383
146	0xbdb6e025	-0.08929471
147	0x3eeae260	0.45875835
148	0x3d53515e	0.05159127
149	0x3f4b7dc6	0.7948879
150	0x3fa18f0a	1.2621777
151	0x3f823394	1.017199
152	0xbda3d3b4	-0.079993635
153	0xbdcd25b4	-0.10016957
154	0xbd465164	-0.048417464
155	0xbb099136	-0.0020991093
156	0xbdc15dbc	-0.094417065
157	0xbd1c2197	-0.03811797
158	0x3d8e814d	0.06958256
159	0x3f35bcdb	0.70991296
160	0xbdcb07db	-0.09913608
161	0xbd48bebc	-0.049010023
162	0xbf32c18d	-0.69826585
163	0x3c260ca8	0.010134853
164	0xbfb1c6ac	-1.3888755
165	0x3ee10e9c	0.4395646
166	0x3d90cfa3	0.070708536
167	0xbe346f45	-0.17620571
168	0x3f3c006c	0.73438144
169	0x3ec29bea	0.38009578
170	0x3e62cf44	0.22149378
171	0x3eac0d93	0.33604106
172	0xbd5bea71	-0.053690378
173	0x3e403224	0.18769127
174	0xbed5dd3d	-0.41770354
175	0xbe3f67bd	-0.18691917
176	0xbd7b8f7b	-0.06141613
177	0x3e09cac4	0.13456255
178	0xbe191667	-0.14949952
179	0x3e97ebae	0.29671997
180	0xbe5a9c28	-0.21348631
181	0xbec2a4d2	-0.38016373
182	0x3eba65f7	0.36405918
183	0xbf5dd6d7	-0.86655945
184	0x39f699f3	0.00047035477
185	0x3ee18956	0.44050092
186	0x3ec57eda	0.38573343
187	0x3ee1e5f3	0.4412075
188	0xbd3b5149	-0.045731816
189	0xbd8b49ba	-0.068011716
190	0xbe2b9c24	-0.16758782
191	0xbdc87100	-0.09787178
192	0x3f0830ee	0.5319966
193	0xbd38438b	-0.04498629
194	0xbd7293bc	-0.05922292
195	0xbf05779e	-0.52135646
196	0x3c89f58c	0.016840719
197	0x3eaedacd	0.34151307
198	0x3e8044d1	0.25052503
199	0xbe201a97	-0.15635143
200	0x3f343ffc	0.7041013
201	0x3ec01846	0.3751852
202	0x3ea9d4ad	0.3317007
203	0xbebc965e	-0.3683347
204	0xbe1f383a	-0.15548792
205	0x3dacf5fa	0.08445354
206	0xbdba7bca	-0.09105642
207	0x3ec0d22f	0.37660357
208	0x3d5654f8	0.052327126
209	0xbdb501ef	-0.088382594
210	0xbdb99869	-0.09062273
211	0xbd322952	-0.043496437
212	0x3e8e6179	0.2780874
213	0xbf1dc4bc	-0.6162832
214	0xbea10de0	-0.31455898
215	0x3ec4a6fd	0.38408652
216	0x3dc2a5c5	0.09504274
217	0x3e532252	0.20618561
218	0xbe4e719c	-0.20160526
219	0xbdb1bd97	-0.086787395
220	0x3df73625	0.12070874
221	0xbdcb1bf0	-0.09917438
222	0x3df6b9ea	0.12047179
223	0xbcc1c4b1	-0.02365336
224	0xbe9e7066	-0.30945128
225	0x3e7e0247	0.24805556
226	0x3c6a0345	0.014283006
227	0xbd65cb58	-0.056102127
228	0xbe49ecd8	-0.19719255
229	0x3c5c65a0	0.013451964
230	0x3eb2ed93	0.3494688
231	0x3e885a3b	0.2663134
232	0x3e3776b6	0.17916378
233	0x3e6af5f4	0.22945386
234	0x3d87f809	0.06639106
235	0xbf78ab66	-0.97136533
236	0xbf17e7f2	-0.59338295
237	0xbc1c204c	-0.009529185
238	0x3dcf6289	0.10126216
239	0xbc9cdb86	-0.019147646
240	0xbcdafbe3	-0.026731437
241	0x3dfb87db	0.12281772
242	0x3e9a03f4	0.3008114
243	0x3daaf184	0.08346847
244	0xbe6cb855	-0.23117192
245	0x3ec1467e	0.37749094
246	0xbd7aa83f	-0.06119561
247	0x3f664016	0.8994154
248	0xbeab3e5e	-0.3344602
249	0x3f3002e2	0.687544
250	0x3fc75967	1.5574158
251	0xbc43ac6a	-0.011942962
252	0xbdc9ee84	-0.09859946
253	0x3d8bb221	0.06821085
254	0xbcaed7b6	-0.021343093
255	0x3e4a4172	0.19751528

fcs1.bias f4 [256]
0	0xbef1fcc3	-0.47263154
1	0xbf319fa3	-0.6938421
2	0xbf152d13	-0.582719
3	0xbf316e9b	-0.69309396
4	0xbf0cb7c5	-0.5496791
5	0xbec4c89e	-0.3843431
6	0xbe940cd8	-0.2891605
7	0xbf1fbf15	-0.62400943
8	0xbee95ff9	-0.45581034
9	0xbf480890	-0.78138065
10	0xbf19f826	-0.6014427
11	0xbf446f9d	-0.7673281
12	0xbee410f5	-0.44544187
13	0xbf17a19c	-0.5923097
14	0xbf5d697a	-0.8648907
15	0xbf5ef21b	-0.87088174
16	0xbf0a6e10	-0.5407419
17	0xbedd1c02	-0.4318543
18	0xbf36013d	-0.7109564
19	0xbd439f08	-0.047759086
20	0xbeeac228	-0.45851254
21	0xbeffa838	-0.49933028
22	0xbf0e8c32	-0.5568267
23	0xbea513ec	-0.32241762
24	0xbf01d95a	-0.5072228
25	0xbe7d01f4	-0.24707776
26	0xbf4ec1e6	-0.80764616
27	0xbed3f954	-0.4140116
28	0xbf9baa5a	-1.2161362
29	0xbed1d5f7	-0.40983555
30	0xbef00d15	-0.4688498
31	0xbf119150	-0.56862354
32	0x3de1b828	0.11021453
33	0xbec1a23a	-0.37819082
34	0xbdea144f	-0.11429655
35	0xbf133090	-0.57495975
36	0xbecf0807	-0.40435812
37	0xbf236a80	-0.6383438
38	0xbecba110	-0.39771318
39	0xbee12ed4	-0.4398104
40	0xbf780e80	-0.96897125
41	0xbe16800a	-0.1469728
42	0xbf1613ee	-0.5862416
43	0xbf193048	-0.59839296
44	0xbf2b7afa	-0.6698452
45	0xbd9f6878	-0.07783598
46	0xbf044ec7	-0.51682705
47	0xbf2cae32	-0.674533
48	0xbf2c6475	-0.67340785
49	0xbf0fcc4e	-0.5617112
50	0xbf096957	-0.5367636
51	0xbe88fd61	-0.26755813
52	0xbdd1ae4d	-0.10238323
53	0xbef3c7b6	-0.47613305
54	0xbec6704e	-0.38757557
55	0xbe48ca81	-0.19608499
56	0xbef7e6b1	-0.4841819
57	0xbf0588d9	-0.5216194
58	0xbed09779	-0.40740564
59	0xbe854b7f	-0.2603416
60	0xbe87e42f	-0.26541278
61	0xbf64e645	-0.89413863
62	0xbeb5a323	-0.35476026
63	0xbe686d72	-0.22698
64	0xbeb66488	-0.35623574
65	0xbe8af688	-0.27141213
66	0xbf21245c	-0.62946105
67	0xbed49737	-0.41521618
68	0xbf44a054	-0.7680714
69	0xbf2275d5	-0.6346105
70	0xbea300d0	-0.31836557
71	0xbf430e9a	-0.76194155
72	0xbec41d75	-0.38303724
73	0xbefb316f	-0.49061152
74	0xbf18050d	-0.59382707
75	0xbe7bbed7	-0.24584518
76	0xbeea5b06	-0.4577257
77	0xbe833e8b	-0.25633654
78	0x3d47a79b	0.048743825
79	0xbf02c42f	-0.510806
80	0xbf30a041	-0.6899453
81	0xbe1bed2a	-0.1522719
82	0xbe56860d	-0.20949574
83	0xbf70fc78	-0.94135237
84	0xbebef1f2	-0.37293965
85	0xbeedad46	-0.4642126
86	0xbe4af76e	-0.1982095
87	0xbeb7a91b	-0.35871205
88	0xbe89d81c	-0.2692269
89	0xbf10ae86	-0.565163
90	0xbf1e1cb6	-0.6176256
91	0xbf6fb21f	-0.93631166
92	0xbe580da9	-0.21098961
93	0xbf0788a2	-0.5294286
94	0xbe860cb8	-0.2618158
95	0xbdd916f9	-0.10600085
96	0xbf23be2c	-0.63962054
97	0xbe9435ad	-0.289472
98	0xbf77529c	-0.96610427
99	0xbf440109	-0.7656408
100	0xbcfd67f9	-0.030933367
101	0xbd441e22	-0.0478803
102	0xbf36e07e	-0.714363
103	0xbf2ec1e4	-0.68264604
104	0xbeda861a	-0.42680436
105	0xbea6b2a4	-0.32558167
106	0xbeda4acd	-0.42635193
107	0xbeb4ccfd	-0.35312644
108	0xbf4bf77d	-0.7967451
109	0xbf25248d	-0.645089
110	0xbf137f75	-0.5761636
111	0xbe3cabc1	-0.18424894
112	0xbec2f497	-0.38077232
113	0xbeaa9264	-0.33314812
114	0xbf8d719e	-1.1050298
115	0xbf246e87	-0.6423115
116	0xbf272468	-0.65289927
117	0xbefac609	-0.48979214
118	0xbf184a84	-0.594887
119	0xbe9c480e	-0.30523723
120	0xbf1b52d3	-0.60673255
121	0xbf34bdf8	-0.7060237
122	0xbf269b25	-0.6508048
123	0xbf038a3b	-0.513828
124	0xbd663db0	-0.056211174
125	0xbf4aa950	-0.791646
126	0xbf25471c	-0.6456163
127	0xbefa62bb	-0.4890345
128	0xbece0cb7	-0.40244076
129	0xbe74723a	-0.23871699
130	0xbf1b4879	-0.6065746
131	0xbf729e2f	-0.9477262
132	0xbe77aa77	-0.24186121
133	0xbf21c1ac	-0.63186145
134	0xbea47a5f	-0.32124612
135	0xbf4fe42b	-0.8120753
136	0xbe81d329	-0.25356415
137	0xbdfeb7ed	-0.12437425
138	0xbe4dc53b	-0.20094769
139	0xbeef452a	-0.46732455
140	0xbee6c5be	-0.4507274
141	0xbf3ce066	-0.73779905
142	0xbee356b7	-0.44402096
143	0xbeb994ec	-0.3624643
144	0x3b7483db	0.0037310037
145	0xbeea3785	-0.45745483
146	0xbf25b786	-0.6473316
147	0xbf0dcb5b	-0.5538842
148	0xbef4ac89	-0.47787884
149	0xbf0212ad	-0.50809747
150	0xbf06cf05	-0.52659637
151	0xbf11679b	-0.56798714
152	0x3ca305fa	0.01990031
153	0xbef3d33d	-0.476221
154	0xbe498675	-0.19680198
155	0xbf413ca2	-0.75483143
156	0xbf277dcd	-0.6542633
157	0xbf092425	-0.5357078
158	0xbf1843ca	-0.5947844
159	0xbe805bee	-0.25070137
160	0xbf06bdc7	-0.5263333
161	0xbe3e82c4	-0.1860457
162	0xbf1f0437	-0.62115806
163	0xbe95595b	-0.29169735
164	0xbf21ac1f	-0.6315326
165	0xbf201533	-0.6253235
166	0xbf2e2b85	-0.68035156
167	0xbf86e3ae	-1.0538232
168	0xbecdb498	-0.40176845
169	0xbe555a10	-0.20835137
170	0xbf0217ba	-0.50817454
171	0xbe08d8ed	-0.13364
172	0xbce82fa6	-0.028343033
173	0xbf05b6b9	-0.5223194
174	0xbe8c7903	-0.27436075
175	0xbe856e1a	-0.26060563
176	0xbf515fde	-0.81786907
177	0xbe5c0af5	-0.21488555
178	0xbf2dbec0	-0.67869186
179	0xbf0dfcb2	-0.5546371
180	0xbd140719	-0.03613958
181	0xbf1704ea	-0.58991873
182	0xbdca3f7f	-0.09875392
183	0xbf1d94c6	-0.61555135
184	0xbf1045f4	-0.5635674
185	0xbde52afb	-0.111898385
186	0xbe5c379d	-0.2150559
187	0xbe014b29	-0.12626328
188	0xbd608505	-0.054814357
189	0xbecb3d90	-0.39695406
190	0xbf31da88	-0.6947408
191	0xbe5b7ebd	-0.21435066
192	0xbf2afaf9	-0.66789204
193	0xbf6f577e	-0.9349288
194	0xbf1b6878	-0.6070628
195	0xbf68ff9a	-0.9101502
196	0xbec55f26	-0.38549155
197	0xbef71698	-0.48259425
198	0xbf04ced6	-0.51878107
199	0xbee11fad	-0.4396948
200	0xbecf8e7d	-0.40538397
201	0xbf2f81ad	-0.68557245
202	0xbed6185b	-0.41815457
203	0xbecd37ca	-0.40081626
204	0xbe760913	-0.24026899
205	0xbeb7a434	-0.35867465
206	0xbf15ffae	-0.5859326
207	0xbe822b5a	-0.254237
208	0xbe257177	-0.16156565
209	0xbf32da08	-0.6986394
210	0xbf1026cf	-0.5630922
211	0xbeabb821	-0.33538917
212	0xbf0c22c9	-0.5474058
213	0xbf3b9cd8	-0.732862
214	0xbd831a97	-0.06401556
215	0xbf76837a	-0.9629437
216	0xbf33ffcb	-0.70312184
217	0xbf33a2b5	-0.70170146
218	0xbeaba78d	-0.3352627
219	0xbf0349f0	-0.51284695
220	0xbefa9919	-0.4894493
221	0xbf20e932	-0.6285583
222	0xbeef348f	-0.46719787
223	0xbf201624	-0.62533784
224	0xbf471a90	-0.77774906
225	0xbe88b804	-0.26702893
226	0xbf182c73	-0.59442824
227	0xbdca154d	-0.09867344
228	0xbe2f1afa	-0.17100134
229	0xbeb0734d	-0.34462968
230	0xbf4e7cc6	-0.8065914
231	0xbe4689c4	-0.19388491
232	0xbf1f3668	-0.6219239
233	0xbecf5e57	-0.40501663
234	0xbf132e46	-0.5749248
235	0xbebb4bb9	-0.3658121
236	0xbeb58abb	-0.35457405
237	0xbebe393e	-0.37153047
238	0xbeca5d40	-0.3952427
239	0xbf47e829	-0.78088623
240	0xbea9e519	-0.331826
241	0xbf2cfb78	-0.6757121
242	0xbee5c509	-0.44876888
243	0xbea73bf5	-0.3266293
244	0xbed5eefb	-0.4178389
245	0xbee88f00	-0.454216
246	0xbef4712c	-0.47742593
247	0xbebb7474	-0.36612284
248	0xbf2c578f	-0.67321104
249	0xbf2f72e6	-0.68534696
250	0xbf4abd40	-0.7919502
251	0xbe9397c4	-0.28826725
252	0xbdde8e56	-0.10866992
253	0xbeb7bd51	-0.35886624
254	0xbf228461	-0.63483244
255	0xbf44d97d	-0.7689436

fc2.weight f4 [256, 260]
0	0x3ea3d7ff	0.3200073
1	0x3f08c426	0.534243
2	0xbf1a0d08	-0.60176134
3	0xbe2b6909	-0.16739286
4	0x3cef5968	0.029217437
5	0x3daafd90	0.083491445
6	0xbe8ee6b2	-0.27910382
7	0xbe239509	-0.15974821
8	0x3ee67ae8	0.45015645
9	0xbd6219cd	-0.055200387
10	0xbe808041	-0.2509785
11	0x3ede6d3f	0.43442723
12	0xbf8c755b	-1.0973314
13	0xbe1b714d	-0.1517994
14	0x3f00b58b	0.5027701
15	0xbe98ad00	-0.2981949
16	0xbe44f5b1	-0.19234349
17	0x3d71864e	0.058965974
18	0x3e7b8887	0.245638
19	0x3ea4d0f2	0.32190663
20	0xbe69835b	-0.22804014
21	0xbf24ebd7	-0.64422363
22	0xbe05d11e	-0.13068053
23	0x3dded3e8	0.10880262
24	0xbe8a60c1	-0.27026942
25	0x3dc6d89d	0.097092845
26	0x3c82adbc	0.015951984
27	0xbc2ce12e	-0.010551734
28	0x3f18484c	0.59485316
29	0x3cf67579	0.030085312
30	0x3e07bae5	0.13254888
31	0xbbd299db	-0.0064270324
32	0xbd0ee037	-0.034881797
33	0x3c39ec82	0.011347892
34	0x3dcbb128	0.09945899
35	0x3e634865	0.22195585
36	0x3f070709	0.5274511
37	0xbe021da4	-0.1270662
38	0x3e0b5844	0.1360789
39	0xbeca71fa	-0.39540082
40	0x3cf47990	0.029843122
41	0xbf04777b	-0.5174481
42	0x3d724ac9	0.059153352
43	0x3eac0170	0.33594847
44	0x3e96991c	0.29413688
45	0x3ea70dcf	0.32627723
46	0xbe2d772c	-0.16939992
47	0x3cf061ce	0.029343512
48	0x3ed4462b	0.41459784
49	0xbed2e628	-0.4119122
50	0xbe2caa97	-0.1686195
51	0x3e179f7c	0.14806932
52	0xbe14b064	-0.14520413
53	0x3de3c57a	0.1112165
54	0xbf6da4bf	-0.9282951
55	0xbcff5c7b	-0.031172028
56	0x3de166c2	0.110059276
57	0xbea6c21d	-0.32569972
58	0x3e26b741	0.16280843
59	0xbeca1550	-0.39469385
60	0x3e69c30f	0.22828315
61	0xbdee40e3	-0.1163347
62	0x3dfc871b	0.12330457
63	0x3dab6551	0.08368934
64	0xbda7749b	-0.081765376
65	0xbe7d7743	-0.24752526
66	0xbd4e7062	-0.050400145
67	0xbd811327	-0.06302481
68	0x3d9a5efe	0.075376496
69	0x3e25c093	0.16186742
70	0x3ea34048	0.3188498
71	0xbe33286e	-0.17495891
72	0x3f0b7d48	0.5448804
73	0xbe00ce7e	-0.1257877
74	0x3e2595b8	0.16170394
75	0xbe350537	-0.1767777
76	0xbdf8988c	-0.12138471
77	0x3d88bfee	0.06677233
78	0xbd1816fb	-0.03713129
79	0x3ea3ecc8	0.32016587
80	0x3ef0e8be	0.47052568
81	0xbdd24dc7	-0.10268741
82	0x3e6968f7	0.22793947
83	0x3e9a16ab	0.3009542
84	0xbe9f42b9	-0.31105593
85	0xbe3d17ee	-0.1846616
86	0x3eccf873	0.40033302
87	0x3e08b822	0.13351491
88	0x3d54a6b2	0.051916786
89	0x3d960352	0.07324852
90	0x3cbe2921	0.023212971
91	0x3ed3d095	0.41370073
92	0x3de48e1c	0.11159918
93	0xbd889251	-0.06668533
94	0xbdc90fc1	-0.09817458
95	0x3e43fb7c	0.19138902
96	0xbe1f6949	-0.15567507
97	0xbe5980e8	-0.2124058
98	0xbd7b2a97	-0.061319914
99	0xbf1eeac2	-0.6207696
100	0x3e7fae5b	0.24968855
101	0x3e8bea81	0.2732735
102	0x3e26f92b	0.16305988
103	0x3c043d8a	0.008071313
104	0x3e9405ea	0.28910762
105	0x3ddb08d1	0.10695041
106	0xbdc09714	-0.09403816
107	0xbea6d4ed	-0.32584324
108	0x3e3ed1a7	0.18634664
109	0xbe950350	-0.2910409
110	0xbdc98105	-0.09839062
111	0xbebb6264	-0.36598504
112	0x3ea32a51	0.31868222
113	0x3e656bb8	0.22404373
114	0xbf06a598	-0.52596426
115	0xbd1e5fc0	-0.038665533
116	0xbe561585	-0.20906647
117	0x3eb1ccab	0.34726462
118	0xbd8b1dd1	-0.067927964
119	0x3d1f1004	0.038833633
120	0x3c4765e3	0.012170288
121	0xbed022e3	-0.40651616
122	0xbe8745ba	-0.26420385
123	0xbe2008e7	-0.15628396
124	0xbe855ab4	-0.26045763
125	0x3e85530e	0.26039928
126	0x3b87b72d	0.0041417093
127	0x3cca2f66	0.024680804
128	0x3e85ffbf	0.2617168
129	0x3d393ade	0.045222156
130	0x3e06105e	0.13092181
131	0xbe9f9a01	-0.31172183
132	0xbe688a59	-0.22709025
133	0x3e69e9ce	0.22843096
134	0xbe535f4f	-0.20641826
135	0x3e933c7f	0.28757092
136	0xbd5e26c2	-0.05423618
137	0xbe1edbf9	-0.155136
138	0xbf238cad	-0.6388653
139	0xbdf5cc8e	-0.12001906
140	0x3ea84601	0.3286591
141	0x3d92ca16	0.07167451
142	0xbe62236d	-0.22083826
143	0xbedffc2a	-0.43747073
144	0x3e17c823	0.1482244
145	0x3e7e0af9	0.24808873
146	0xbe3bc255	-0.1833585
147	0xbeb5f1d6	-0.3553607
148	0x3dc2d6ae	0.09513603
149	0xbea4f8bc	-0.3222102
150	0xbd90407d	-0.0704355
151	0x3e7b8ee0	0.24566221
152	0xbf0d3b91	-0.55169016
153	0xbe6dc297	-0.23218761
154	0x3e8a52c0	0.27016258
155	0xbe929570	-0.28629637
156	0x3f19e81b	0.6011979
157	0xbacbb1cf	-0.0015540662
158	0x3d3dda20	0.0463506
159	0xbdfeb9a3	-0.12437751
160	0x3e5f0a3f	0.21781252
161	0xbbd2dc45	-0.0064349496
162	0xbeab1970	-0.33417845
163	0xbe09f7e9	-0.13473476
164	0xbeae2b4e	-0.34017414
165	0xbebab1ec	-0.3646387
166	0xbde11705	-0.10990719
167	0x3c405fd2	0.011741595
168	0x3ed9b0d9	0.42517737
169	0x3e71d661	0.23616935
170	0x3e6a6b37	0.22892462
171	0xbeda7c91	-0.42673162
172	0xbea525a9	-0.32255295
173	0xbe6af1dd	-0.22943826
174	0x3eb07a6d	0.34468403
175	0x3f117e0b	0.5683295
176	0xbf4486b6	-0.7676805
177	0xbdce2e02	-0.10067369
178	0x3e8cc170	0.2749133
179	0xbf01ea0b	-0.50747746
180	0xbe8df840	-0.27728462
181	0xbf61be7d	-0.8818129
182	0x3d42c74e	0.047553353
183	0x3e611296	0.21979746
184	0xbe411d1f	-0.18858765
185	0xbea0b84b	-0.31390604
186	0x3d9eb52d	0.077494
187	0x3ea24ade	0.31697744
188	0xbea52361	-0.32253554
189	0x3d2f8ca2	0.042858727
190	0xb9ecd737	-0.00045173775
191	0x3dbf7ba5	0.09349755
192	0xbe048e4e	-0.1294491
193	0x3dbb6b7b	0.0915136
194	0x3eb61e97	0.35570213
195	0x3f18a509	0.59626824
196	0xbd06b7c5	-0.0328901
197	0xbf2aae94	-0.66672635
198	0xbddc4e02	-0.10757066
199	0x3e28748b	0.16450708
200	0xbeab4c33	-0.33456573
201	0xbbcc4a8d	-0.006234473
202	0x3dd6968f	0.104779355
203	0x3e778d2d	0.24174948
204	0xbc3a2268	-0.011360742
205	0xbe6334da	-0.2218813
206	0xbf10ae53	-0.56516
207	0xbef9f9b5	-0.48823324
208	0xbe2eea95	-0.17081673
209	0x3e5b9dee	0.21446964
210	0x3db08d09	0.0862065
211	0x3e9abb4f	0.3022103
212	0xbe5bbe24	-0.21459252
213	0x3e7deea4	0.24798065
214	0xbefdd431	-0.49575952
215	0x3e863836	0.2621476
216	0xbe2d3eba	-0.1691846
217	0x3eaf09b4	0.3418709
218	0xbe9db01d	-0.30798426
219	0x3e048bc5	0.12943943
220	0xbcea9767	-0.028636647
221	0x3d281fc4	0.04104592
222	0xbd272116	-0.040803038
223	0xbdaac089	-0.083375044
224	0xbe320efa	-0.17388526
225	0x3d8d6d49	0.0690561
226	0xbddcd267	-0.107823186
227	0xbe47bb4e	-0.19505045
228	0x3e7eb9a7	0.24875508
229	0xbe772348	-0.24134552
230	0xbed04076	-0.4067418
231	0xbe3cb6fe	-0.18429181
232	0xbe9683df	-0.29397485
233	0x3ed72ee8	0.42027974
234	0x3ddb0576	0.10694401
235	0xbe016675	-0.1263674
236	0x3ec937e2	0.39300448
237	0xbd2b1f6b	-0.04177801
238	0xbe2d0fb4	-0.16900522
239	0x3e58b4c0	0.211627
240	0xbf0a4e86	-0.5402607
241	0xbda5cf1e	-0.08096145
242	0x3d21cb2e	0.039500408
243	0x3e08c4e3	0.13356356
244	0x3b6adbdf	0.003583662
245	0x3d79f44a	0.061023988
246	0xbe93ccc9	-0.28867176
247	0x3dccb186	0.099947974
248	0x3e4d136b	0.20026939
249	0xbd7c4b86	-0.061595462
250	0x3e054dbb	0.13017933
251	0x3e0dcc40	0.13847446
252	0x3e2463b0	0.16053653
253	0x3e024b70	0.1272409
254	0x3ab7c603	0.0014020804
255	0x3eded438	0.43521285

fc2.bias f4 [256]
0	0xbf9e471c	-1.2365451
1	0xbdc6bdb6	-0.09704153
2	0xbea3b895	-0.31976762
3	0x3c6e7574	0.01455437
4	0xbddbf8ab	-0.10740789
5	0xbeff845b	-0.49905667
6	0xbf3e37af	-0.74303716
7	0xbf73c100	-0.9521637
8	0x3e3376a1	0.17525722
9	0xbf47ad70	-0.7799902
10	0xbf24d65f	-0.64389604
11	0xbf1ce1b7	-0.61281914
12	0xbf942330	-1.1573238
13	0x3ea67dc4	0.32517827
14	0xbf012217	-0.5044264
15	0xbf4fe17c	-0.81203437
16	0xbef5f213	-0.4803625
17	0xbf2dd2df	-0.6789989
18	0xbdf36144	-0.11883786
19	0x3e18512e	0.14874718
20	0x3e8a3632	0.26994473
21	0x3e9492a2	0.29018122
22	0x3c7faa2d	0.015604538
23	0x3ec6b728	0.38811612
24	0xbdf96ab5	-0.12178556
25	0xbfaa47c3	-1.330315
26	0xbed697a8	-0.4191258
27	0xbf42472b	-0.75889844
28	0x3e15d1cd	0.14630814
29	0x3e4925a6	0.19643268
30	0xbe2967dc	-0.16543525
31	0xbe189af2	-0.14902857
32	0x3f073d3c	0.5282781
33	0xbf0f942b	-0.5608546
34	0x3e06667d	0.13125034
35	0xbf00ee00	-0.5036316
36	0x3d136306	0.035983108
37	0xbe6b05e9	-0.22951473
38	0xbe861454	-0.26187384
39	0x3e70eb97	0.2352737
40	0xbfe6ce3d	-1.8031689
41	0x3b3d9358	0.0028926935
42	0xbe8715c5	-0.26383796
43	0x3bb041e6	0.0053789495
44	0xbec726a3	-0.38896665
45	0x3e1d7550	0.15376782
46	0x3ee9ee13	0.4568945
47	0xbf48939e	-0.78350246
48	0xbea51352	-0.32241303
49	0x3f093e2f	0.5361051
50	0x3e378056	0.1792005
51	0x3eafe460	0.34353924
52	0xbe217c5d	-0.15770097
53	0xbf8db6dc	-1.1071429
54	0xbe0a74ee	-0.13521168
55	0xbfdb0517	-1.7110928
56	0xbf086094	-0.53272367
57	0xbf4c23f0	-0.79742336
58	0xbfdb2c3f	-1.7122878
59	0xbf30628e	-0.6890038
60	0xbf7666b7	-0.9625048
61	0x3ebc908f	0.3682904
62	0xbee9794c	-0.45600355
63	0x3f088ece	0.533429
64	0xbd3c5f65	-0.045989413
65	0x3ed6394e	0.41840595
66	0xbe82a1eb	-0.2551416
67	0xbee8c6cc	-0.4546417
68	0xbd0eae77	-0.03483435
69	0xbf3e518d	-0.74343187
70	0xbf138b28	-0.5763421
71	0xbf971bd0	-1.1805363
72	0xbe6aa802	-0.22915652
73	0xbf973be9	-1.1815158
74	0xbe80b719	-0.25139692
75	0xbede752a	-0.43448764
76	0xbeafdbc4	-0.34347355
77	0x3d50dc21	0.05099118
78	0xbe40365a	-0.18770733
79	0x3e60cd3e	0.21953294
80	0xbfd083f2	-1.6290267
81	0x3eeb84cf	0.45999762
82	0xbc94e5bb	-0.01817595
83	0x3e32c6cc	0.17458647
84	0xbecd4552	-0.4009195
85	0xbe5e2bf9	-0.21696462
86	0xbe0ba497	-0.13637005
87	0xbe8b8d57	-0.2725627
88	0x3edbf0fa	0.42957288
89	0xbe650452	-0.2236493
90	0xbf437016	-0.76342905
91	0xbf2fda4f	-0.6869249
92	0x3e3f1ad6	0.18662581
93	0xbec265e9	-0.37968376
94	0x3e2892c6	0.1646224
95	0xbf1e0ede	-0.61741436
96	0xbda2867f	-0.07935809
97	0x3db64886	0.089005515
98	0xbe8c9ff2	-0.2746578
99	0x3f21a25c	0.63138366
100	0x3e5eede3	0.21770434
101	0x3e2063d7	0.15663086
102	0xbf029386	-0.5100635
103	0xbe8e046a	-0.27737743
104	0xbeb7c1d2	-0.3589006
105	0x3e0c0648	0.13674271
106	0xbece2c7d	-0.40268317
107	0x3f45370b	0.77037114
108	0xbf3e62fe	-0.743698
109	0xbe921e55	-0.28538767
110	0xbf20f407	-0.62872356
111	0xbe34a011	-0.17639185
112	0x3f133545	0.5750316
113	0xbe071584	-0.13191801
114	0xbf3f12cc	-0.74638057
115	0xbf34d317	-0.706346
116	0xbf52fdef	-0.8241872
117	0x3e8984c2	0.268591
118	0x3e6a9089	0.22906698
119	0x3d97d7ab	0.07414182
120	0xbeae5813	-0.3405157
121	0xbee10d4d	-0.4395546
122	0x3ef6c97a	0.4820059
123	0xbe0212d6	-0.12702498
124	0x3d87d97f	0.06633281
125	0x3f24a1e8	0.6430955
126	0xbe75aab7	-0.23990904
127	0xbe54f720	-0.20797396
128	0x3b83289a	0.004002643
129	0x3edaec86	0.42758578
130	0xbca6bebe	-0.020354625
131	0x3ee4be3b	0.44676384
132	0xbeb3e073	-0.3513218
133	0x3e550fd3	0.20806818
134	0x3dba5e5e	0.0910003
135	0xbf846804	-1.0344243
136	0xbf108fea	-0.56469595
137	0x3f07a1fc	0.52981544
138	0xbf0fa052	-0.56104004
139	0xbf02870c	-0.50987315
140	0xbf3debed	-0.7418812
141	0xba17eff4	-0.00057959487
142	0xbf3e481c	-0.7432878
143	0x3f057362	0.52129185
144	0x3e79fbb9	0.24412431
145	0xbfa5a84b	-1.2941984
146	0xbd8b4ad7	-0.06801384
147	0xbf3821fc	-0.71926856
148	0x3e9a32bf	0.3011684
149	0xbf323a4a	-0.6962019
150	0x3e55bfab	0.20873897
151	0xbea9445a	-0.3305996
152	0xbde779da	-0.11302538
153	0xbf607a7e	-0.8768691
154	0x3ed79229	0.421037
155	0xbfa0f709	-1.2575389
156	0x3ec71e0d	0.38890114
157	0xbf12ff02	-0.5742036
158	0x3f058002	0.5214845
159	0x3d6edf9e	0.058318727
160	0xbf9d06a3	-1.226765
161	0x3e5b2d6c	0.21404046
162	0x3e842b81	0.2581444
163	0x3e91653a	0.28397542
164	0xbea2f096	-0.31824178
165	0xbf84c892	-1.0373709
166	0xbf90af49	-1.1303493
167	0x3ed7fff0	0.42187452
168	0xbe98163b	-0.2970446
169	0xbf42c2c8	-0.7607846
170	0xbea90de5	-0.33018413
171	0x3e969cf7	0.2941663
172	0xbf0fb631	-0.5613738
173	0xbf115b29	-0.56779724
174	0xbf9ab9f1	-1.2087995
175	0xbe802983	-0.2503167
176	0xbc00a312	-0.007851379
177	0xbe446483	-0.19178967
178	0x3d124eef	0.03571981
179	0x3dd537a3	0.104110025
180	0xbfaf8dc2	-1.3715136
181	0xbf3ee616	-0.74569833
182	0x3dbe9b25	0.09306935
183	0xbf364d10	-0.7121134
184	0x3e0d8c32	0.13823012
185	0xbe213e51	-0.15746428
186	0xbea04ae1	-0.31307128
187	0xbe2ff065	-0.17181547
188	0x3d4a647b	0.049412232
189	0x3dc2f837	0.095199995
190	0xbf310bd0	-0.6915865
191	0xbe3610a8	-0.17779791
192	0x3f514265	0.81741935
193	0xbf1315ef	-0.57455343
194	0xbf046f08	-0.5173192
195	0xbea16951	-0.31525663
196	0xbdc5cc73	-0.09658136
197	0xbee7cd7e	-0.45273966
198	0xbd2adeff	-0.041716572
199	0xbfc63b43	-1.5486835
200	0xbfa717fb	-1.3054193
201	0xbf77436f	-0.9658727
202	0xbeae668a	-0.34062606
203	0xbea32ffc	-0.31872547
204	0xbf1a2a64	-0.6022093
205	0x3d408c01	0.047008518
206	0xbf6256c0	-0.8841362
207	0xbfb082fb	-1.3789972
208	0xbf331e8d	-0.6996849
209	0xbf5f4591	-0.87215525
210	0xbfaae595	-1.3351313
211	0xbe1b2a05	-0.15152748
212	0x3ecbd6bd	0.3981227
213	0x3d17d011	0.037063662
214	0x3f19e708	0.6011815
215	0xbed4f8f1	-0.41596177
216	0xbdde7eff	-0.10864066
217	0xbe86e83d	-0.2634906
218	0xbf07a67f	-0.5298843
219	0xbd9951ac	-0.07486281
220	0x3e218d30	0.15776515
221	0xbed4c641	-0.41557506
222	0x3ee5052b	0.44730505
223	0x3e6af178	0.22943676
224	0xbf52a938	-0.8228946
225	0xbf8d648b	-1.1046308
226	0xbf0b66ec	-0.5445392
227	0xbedfcfea	-0.43713313
228	0xbe910404	-0.28323376
229	0x3e1420d9	0.14465655
230	0xbf2dc4b1	-0.6787825
231	0xbd375cdc	-0.044766292
232	0x3e8ae200	0.2712555
233	0xbf3dae27	-0.7409386
234	0xbea7986a	-0.3273347
235	0x3d3a4d4c	0.045483872
236	0xbee59985	-0.4484369
237	0x3f25d8bb	0.6478383
238	0x3cff0fee	0.031135526
239	0x3e38210f	0.17981361
240	0x3ebb4a8c	0.36580312
241	0xbf2745f3	-0.6534111
242	0x3e48feac	0.196284
243	0xbf0dab9a	-0.5533997
244	0xbedfb428	-0.43692136
245	0xbec5d28c	-0.38637197
246	0x3e60bdda	0.21947423
247	0x3ecd2764	0.40069115
248	0xbe715563	-0.23567729
249	0x3e555d90	0.20836473
250	0xbe3d8a1b	-0.18509714
251	0xbeed6d43	-0.46372423
252	0x3e409302	0.18806079
253	0xc004117d	-2.0635674
254	0x3e86a147	0.2629492
255	0xbfa4771c	-1.2848849

fc3.weight f4 [128, 256]
0	0xbeee98fb	-0.4660109
1	0xbe26fef7	-0.16308199
2	0xbcc25701	-0.023723127
3	0x3e3973b5	0.18110545
4	0x3f45f5ab	0.77327985
5	0x3ed32e1c	0.41246116
6	0xbec87401	-0.39151004
7	0x3d4845b4	0.0488946
8	0x3ecf8429	0.40530518
9	0xbe234099	-0.15942611
10	0xbf86038f	-1.0469836
11	0xbea6158b	-0.3243831
12	0xbf2893b4	-0.6585038
13	0xba1177d0	-0.00055491645
14	0x3e00eb19	0.12589683
15	0x3c3ba6da	0.011453355
16	0x3de48183	0.11157515
17	0x3eb367f9	0.35040262
18	0x3cbe15d1	0.023203762
19	0x3e42018a	0.189459
20	0x3dfe3e4e	0.124142274
21	0xbe7d1d39	-0.24718179
22	0x3da4b1ca	0.08041723
23	0x3db8a50e	0.09015857
24	0xbe5d8b91	-0.21635272
25	0xbdd27273	-0.10275736
26	0xbf036525	-0.5132621
27	0x3e28b907	0.16476832
28	0x3ea93d76	0.33054703
29	0x3e907541	0.28214458
30	0xbd8a1e83	-0.06744101
31	0xbec04591	-0.37553075
32	0xbe04ad0f	-0.12956642
33	0x3d56dd24	0.05245699
34	0xbd779003	-0.060440075
35	0xbf19483f	-0.59875864
36	0x3ec545c2	0.38529783
37	0x3eb85b46	0.36007136
38	0x3d9141b9	0.07092614
39	0x3dbe4a61	0.092915304
40	0xbb37bc42	-0.0028035794
41	0x3e06bf00	0.13158798
42	0xbd895775	-0.06706134
43	0x3e1ac5bb	0.1511449
44	0xbe5348dc	-0.20633262
45	0xbbed4ec8	-0.0072420575
46	0x3e917140	0.28406715
47	0x3e95ec0e	0.29281658
48	0x3f0b1f33	0.5434448
49	0xbda6174e	-0.08109914
50	0xbd089c41	-0.03335214
51	0x3e3500f0	0.17676139
52	0x3ecf8082	0.4052773
53	0x3e21bbf1	0.1579435
54	0xbd9b23bb	-0.075751744
55	0x3c4a0286	0.012329703
56	0xbe47dc26	-0.19517574
57	0xbe840316	-0.25783604
58	0x3e1fdef9	0.15612401
59	0x3cf7c1c4	0.030243762
60	0xbf7ecd5a	-0.9953209
61	0x3e0727ea	0.1319882
62	0x3e057795	0.13033898
63	0x3ea1fe65	0.316394
64	0xbe62f826	-0.22164974
65	0x3e0e34c1	0.13887312
66	0xbe97cae9	-0.29646996
67	0xbe480bb7	-0.19535719
68	0x3e1adf93	0.1512435
69	0xbf0932fc	-0.5359342
70	0xbf0cca83	-0.5499651
71	0xbeb07051	-0.3446069
72	0x3e93448f	0.28763244
73	0xbbb97e2a	-0.005660792
74	0x3d59c2d6	0.053164326
75	0xbea613a2	-0.32436854
76	0xbe979086	-0.2960245
77	0x3e7a6a85	0.24454696
78	0xbeae44e5	-0.34036937
79	0x3d900b1b	0.07033368
80	0xbebd7569	-0.3700364
81	0x3ee722d6	0.45143765
82	0xbc58f044	-0.013240878
83	0x3d1ddfd8	0.038543552
84	0xbe9fcfe2	-0.3121329
85	0xbe7fbe3e	-0.24974915
86	0x3e69caeb	0.22831313
87	0x3d9501a0	0.072757006
88	0xbd6506ed	-0.055914808
89	0x3e29206b	0.16516273
90	0xbca5166b	-0.020152291
91	0x3f1390af	0.57642645
92	0xbc17bf03	-0.009261849
93	0x3ef0f915	0.47065035
94	0x3e3cfb19	0.18455161
95	0xbf034868	-0.5128236
96	0xbec4f33d	-0.38466826
97	0x3e32c5bb	0.1745824
98	0x3e0b2027	0.13586484
99	0xbe5889df	-0.21146344
100	0x3eab970c	0.33513677
101	0x3d7caaff	0.061686512
102	0x3cb8d1b6	0.022560935
103	0x3dbcab32	0.092123404
104	0xbea5a1e0	-0.32350063
105	0xbcb76096	-0.022384923
106	0x3ec1d556	0.37858075
107	0x3e0f6462	0.14003137
108	0x3e36c493	0.17848425
109	0xbe88a2b9	-0.26686648
110	0xbc50d021	-0.012744934
111	0x3e24292b	0.1603133
112	0xbe0f5ec8	-0.14001
113	0x3e604d0e	0.21904394
114	0x3d87a686	0.06623559
115	0x3e1fe8b9	0.1561612
116	0xbeda937f	-0.42690656
117	0xbe8bd3cc	-0.27310026
118	0x3d55ed21	0.052228097
119	0x3e045f31	0.12926938
120	0xbbfc33a9	-0.007696588
121	0x3ee17778	0.4403646
122	0x3dddfe30	0.10839498
123	0xbe6c1ce5	-0.23057897
124	0x3f06a062	0.52588475
125	0x3d770e2a	0.060316242
126	0xbecb513e	-0.3971042
127	0xbe799305	-0.2437249
128	0xbdbe3895	-0.09288136
129	0xbdf11ff8	-0.11773676
130	0x3db3fb90	0.08788216
131	0xbeb5d043	-0.35510454
132	0x3d3fe9cb	0.04685382
133	0x3e2823e3	0.1641994
134	0xbdc61be0	-0.096732855
135	0x3e86f0c8	0.26355577
136	0x3d828923	0.06373813
137	0xbeb297e7	-0.34881517
138	0xbf328832	-0.6973907
139	0x3e07266a	0.13198248
140	0xbd19fa5c	-0.037592277
141	0x3d058aeb	0.032603186
142	0xbed94bcc	-0.4244064
143	0xbec8aa69	-0.39192513
144	0xbe1737ea	-0.14767423
145	0x3c9b885c	0.01898592
146	0xbd1fdc3a	-0.039028384
147	0xbece2e18	-0.40269542
148	0x3e160dee	0.14653751
149	0xbeb91cdc	-0.3615483
150	0xbed6fdc7	-0.41990492
151	0xbd5558c3	-0.052086603
152	0xbe33de8d	-0.17565365
153	0xbe51d6b6	-0.20492062
154	0x3eaf873a	0.34282857
155	0xbe6dab27	-0.2320982
156	0xbe0ef8ad	-0.1396205
157	0xbc0496e6	-0.008092618
158	0x3e991f14	0.29906523
159	0xbdb2d51c	-0.08732054
160	0x3ef102e6	0.47072524
161	0xbdddb8ad	-0.1082624
162	0x3e1da6ac	0.15395612
163	0x3dbdecfe	0.09273718
164	0xbe21070b	-0.15725343
165	0x3de4cd3e	0.11171959
166	0x3e86c449	0.2632163
167	0x3f503b6b	0.81340665
168	0xbee95f48	-0.45580506
169	0x3e1339d3	0.14377527
170	0x3e093a85	0.1340123
171	0xbeb1a82b	-0.34698614
172	0xbe71a080	-0.23596382
173	0xbede8fb5	-0.43469015
174	0xbeb2ff2a	-0.349603
175	0x3d899164	0.06717184
176	0xbea8b214	-0.32948363
177	0x3e81ad86	0.253277
178	0xbe1dc845	-0.15408428
179	0x3e14ef6b	0.14544456
180	0xbda3921b	-0.07986852
181	0x3d811acc	0.06303939
182	0x3eced0ff	0.40393826
183	0x3e9cdd92	0.30637795
184	0xbf0a7131	-0.54078966
185	0x3e98ab9b	0.29818425
186	0xbf229b32	-0.6351806
187	0xbdb89bc6	-0.090140864
188	0xbe6563a0	-0.22401285
189	0x3e354594	0.17702323
190	0x3cafbeb8	0.021453246
191	0x3e944e7e	0.28966135
192	0xbd0627f3	-0.032752942
193	0x3d1aee38	0.03782484
194	0xbba256f4	-0.0049542133
195	0x3dd88c87	0.105736785
196	0x3ec74b8a	0.3892482
197	0x3dbc2233	0.091862105
198	0xbe509919	-0.20370902
199	0x3d4a31af	0.04936379
200	0xbf05cd53	-0.52266425
201	0xbe941c9b	-0.28928074
202	0xbed1a341	-0.40944865
203	0x3ec95f2d	0.39330426
204	0x3d94c161	0.072634466
205	0xbe4397de	-0.19100901
206	0xbf1d716a	-0.6150118
207	0xbeabec45	-0.33578697
208	0xbe334017	-0.17504917
209	0xbf12b31d	-0.57304555
210	0xbf663c78	-0.8993602
211	0xbe205f58	-0.15661371
212	0xbdddc604	-0.10828784
213	0xbda53cf0	-0.080682635
214	0x3e83db6c	0.25753343
215	0xbefed6bb	-0.497732
216	0x3e5cae28	0.2155081
217	0xbe90187a	-0.28143674
218	0x3d822a25	0.06355695
219	0x3e99fcf5	0.30075803
220	0x3ec5251b	0.38504872
221	0xbee620c2	-0.44946867
222	0xbd7b90d9	-0.061417434
223	0x3e2fa7e3	0.17153887
224	0xbe43d38d	-0.19123669
225	0xbed1dde7	-0.4098961
226	0xbe745f4b	-0.23864476
227	0xbd4d9d9a	-0.05019913
228	0xbe8e8e9e	-0.27843183
229	0x3cecfc03	0.028928762
230	0x3db0dddf	0.086360686
231	0x3ec1df9e	0.3786592
232	0x3d60dcf1	0.054898206
233	0xbf04683d	-0.51721555
234	0xbecaa44b	-0.3957847
235	0x3ce7a189	0.028275268
236	0xbf402717	-0.75059646
237	0xbebf4f89	-0.37365368
238	0xbe06f579	-0.13179578
239	0xbebe3a9b	-0.37154087
240	0xbd0c09a2	-0.034188874
241	0x3d3d09e0	0.046151996
242	0x3df433f3	0.11923971
243	0xbe7c0622	-0.24611714
244	0xbe6ce16c	-0.23132867
245	0x3e371149	0.17877688
246	0xba490491	-0.0007668222
247	0xbe9dbeed	-0.30809727
248	0xbe00d623	-0.12581687
249	0x3e544a9d	0.20731588
250	0x3ed0c2f3	0.40773734
251	0x3df55daa	0.119807556
252	0xbf2083de	-0.62701213
253	0xbe3b8e08	-0.183159
254	0xbd24ebe9	-0.040264044
255	0x3b0c4a04	0.0021406421

fc3.bias f4 [128]
0	0xbf9b2da6	-1.2123306
1	0xbfa1ca48	-1.2639856
2	0xbf61cef1	-0.8820639
3	0xbf1ff392	-0.62481034
4	0xbf72bd7b	-0.94820374
5	0x3fafb39f	1.3726691
6	0xbf3d23cf	-0.73882765
7	0x3fa89922	1.3171732
8	0xbfba2152	-1.4541419
9	0xbfccf294	-1.6011529
10	0xbf64c85a	-0.8936821
11	0xbf8a76f0	-1.0817547
12	0xbf8a1811	-1.0788594
13	0xbf41a7ed	-0.7564686
14	0xbf680093	-0.90625876
15	0xbe239d4c	-0.15977973
16	0x3f5ab4af	0.8543195
17	0x3d0a7893	0.033806395
18	0xbf35ac3b	-0.7096593
19	0x3e703c45	0.23460491
20	0xbf0e73f8	-0.55645704
21	0xbf8c2e93	-1.0951713
22	0xbf7ecdfc	-0.9953306
23	0xbfac0382	-1.343857
24	0xbf53a1df	-0.8266887
25	0x3f36cd79	0.71407276
26	0x3f34f853	0.7069141
27	0xbf41fa64	-0.7577269
28	0xbe484a5a	-0.19559613
29	0xbf4b90ec	-0.7951801
30	0x3ef283fa	0.47366315
31	0x3e9480b7	0.29004452
32	0xbfa8b9bf	-1.3181685
33	0xbf677766	-0.9041656
34	0x3fbaf37e	1.4605558
35	0xbf6908f5	-0.9102929
36	0xbf3fc61f	-0.74911684
37	0xbf9e422f	-1.2363948
38	0xbf80538b	-1.0025495
39	0xbf8216b2	-1.0163176
40	0x3fea9974	1.832808
41	0xbfce1e8e	-1.6103075
42	0x3f4aa877	0.79163307
43	0x3f1a2cf6	0.60224855
44	0x3fc29950	1.5203037
45	0x3f97bde0	1.185482
46	0x3d8dcc20	0.069236994
47	0xbf52c1ca	-0.8232695
48	0x3ee834f7	0.4535291
49	0xbf51e612	-0.81991684
50	0xbf565263	-0.8371946
51	0xbf8cb39b	-1.0992311
52	0xbf8c3bfe	-1.0955808
53	0xbf93055c	-1.148601
54	0xbfadb7d2	-1.3571723
55	0x3ff19f04	1.8876653
56	0xbf17ecf9	-0.59345967
57	0xbf66a8ad	-0.9010113
58	0x3f37902e	0.71704376
59	0x3ea0e627	0.31425592
60	0x3eacac92	0.3372541
61	0x3fb1c634	1.3888612
62	0x3ca47db3	0.02007947
63	0xbf9bc420	-1.2169228
64	0xbf4d72a0	-0.8025303
65	0xbd0d0a38	-0.034433573
66	0xbfdb2b93	-1.7122673
67	0xbf80fa6c	-1.0076423
68	0xbf5c0e78	-0.8595958
69	0xbf996007	-1.198243
70	0xbf2fc6f9	-0.68662983
71	0xbf121a5d	-0.5707148
72	0x3f6e1240	0.929966
73	0x3f464883	0.77454394
74	0xbf799087	-0.97486156
75	0xbf8207ea	-1.0158665
76	0xbfaff511	-1.3746663
77	0xbf6bcdf0	-0.9211111
78	0xbfb41fcb	-1.4072202
79	0xbfbefada	-1.4920304
80	0x3e4399a7	0.19101582
81	0xbf988ff0	-1.1918926
82	0x3f87e9b8	1.06182
83	0xbf7783c7	-0.9668545
84	0xbf53a6fa	-0.8267666
85	0xbf4ecd79	-0.80782276
86	0x3f86f7dd	1.0544392
87	0x3f008dcc	0.50216365
88	0x3f8f666d	1.1203133
89	0xbfdc82d2	-1.7227423
90	0xbf21c472	-0.63190377
91	0x3d22e563	0.03976954
92	0x3d4f355e	0.050588004
93	0x3ff7243f	1.9307936
94	0xbf8b4a29	-1.0882007
95	0x3f7e1732	0.99254143
96	0x3f0286c1	0.5098687
97	0x3e43417f	0.19067954
98	0xbf79580f	-0.9739999
99	0xbf5d8590	-0.86531925
100	0xbf173670	-0.5906744
101	0x3f3fb066	0.7487854
102	0xbcc073f0	-0.023492783
103	0xbfafd7c9	-1.3737727
104	0x401b6ca4	2.428506
105	0xbf60e8da	-0.87855303
106	0xbf981996	-1.1882808
107	0xbf87e26a	-1.0615971
108	0xbf6f54a1	-0.9348851
109	0x3ee6bca1	0.45065787
110	0xbf7fd542	-0.9993478
111	0xbf858699	-1.0431701
112	0xbf7248c9	-0.9464231
113	0x3fa86125	1.3154646
114	0xbf488dfd	-0.78341657
115	0x3e8835ea	0.26603633
116	0x3f9ab822	1.2087443
117	0xbf65c6ab	-0.8975627
118	0xbf49ed61	-0.78877836
119	0xbf3354a8	-0.7005105
120	0xbf2e8b7b	-0.6818158
121	0xbf6f9ac5	-0.93595535
122	0xbf76c309	-0.9639135
123	0x4004e16c	2.0762587
124	0x3f01ecc1	0.5075188
125	0xbfae01b8	-1.3594275
126	0xbf7eb485	-0.994942
127	0xbf0a0238	-0.53909636

fc4.weight f4 [1, 128]
0	0xbcae0ef8	-0.021247372
1	0xbd16904d	-0.03675871
2	0xbe2558a8	-0.16147101
3	0xbe264b5e	-0.16239688
4	0xbd89361b	-0.06699773
5	0x3c6ecab6	0.014574697
6	0xbdfff2f8	-0.124975145
7	0x3c81ad75	0.015829781
8	0xbcc2885b	-0.02374666
9	0xbcaa4703	-0.020785814
10	0xbe2d363e	-0.16915223
11	0xbe951b08	-0.29122186
12	0xbd202551	-0.039098088
13	0xbe209bb5	-0.15684398
14	0xbe5da69d	-0.21645589
15	0xbce1cb87	-0.02756287
16	0x3ccfa88c	0.025348924
17	0x3d63b107	0.05558875
18	0xbd5c059f	-0.0537163
19	0x3d89a10b	0.0672017
20	0xbdc039d9	-0.093860336
21	0xbd614641	-0.05499864
22	0xbea8c098	-0.32959437
23	0xbcd113b7	-0.025522096
24	0xbe4f8057	-0.20263802
25	0x3cd32db7	0.025778634
26	0x3ca42c9f	0.020040808
27	0xbdb72420	-0.08942437
28	0x3dfe1b83	0.12407591
29	0xbe17561b	-0.1477894
30	0x3dd54a3e	0.10414551
31	0x3d335157	0.043778744
32	0xbde3d79b	-0.11125108
33	0xbde0bf93	-0.1097404
34	0x3cd334da	0.025782038
35	0xbcda8988	-0.026676908
36	0xbe7f538a	-0.24934211
37	0xbde38653	-0.11109605
38	0xbdae3eef	-0.085080974
39	0xbe0a3de3	-0.1350017
40	0x3d196b89	0.03745607
41	0xbcd8a730	-0.026446909
42	0x3cad8f3b	0.021186462
43	0x3f3f6046	0.74756277
44	0x3cf4d65f	0.029887376
45	0x3cb2eb1e	0.021840628
46	0x3d0228b0	0.031777084
47	0xbe723fd7	-0.23657165
48	0x3d016d89	0.0315986
49	0xbe019ecb	-0.12658231
50	0xbd9c80fd	-0.0764179
51	0xbd7cd7e1	-0.061729316
52	0xbd3aa92a	-0.045571484
53	0xbde8bd72	-0.11364259
54	0xbd2051b1	-0.039140407
55	0x3d9d8a5d	0.07692406
56	0xbca97365	-0.020684907
57	0xbe4caa5c	-0.19986862
58	0x3d80ea44	0.062946826
59	0x3f199f3f	0.60008615
60	0x3ecf0b82	0.40438467
61	0x3cf66716	0.030078452
62	0x3dbe60ae	0.09295784
63	0xbd61591a	-0.055016614
64	0xbdba717f	-0.09103679
65	0x3de07d9a	0.109614566
66	0xbd10c8bb	-0.03534768
67	0xbe8848b2	-0.26617962
68	0xbd306601	-0.04306603
69	0xbdd0dfb7	-0.1019892
70	0xbe69df76	-0.2283915
71	0xbe7606ad	-0.24025984
72	0x3cc550be	0.024086352
73	0x3cdb9d7b	0.026808491
74	0xbd34712f	-0.044053253
75	0xbdf5ad87	-0.11995988
76	0xbd45d746	-0.048301004
77	0xbde8783e	-0.113510594
78	0xbcb0b143	-0.0215689
79	0xbcdae197	-0.026718898
80	0x3d6445f5	0.05573078
81	0xbe4c8ebf	-0.19976328
82	0x3ca81647	0.020518435
83	0xbd734763	-0.05939425
84	0xbda29af6	-0.07939713
85	0xbe52e084	-0.20593458
86	0x3c82b686	0.015956175
87	0x3d00c2d8	0.031435817
88	0x3c9e87a8	0.019351795
89	0xbd616b17	-0.05503377
90	0xbdc3c47c	-0.09558961
91	0x3da03446	0.0782247
92	0x3d6a5914	0.057213858
93	0x3d261362	0.04054583
94	0xbd98c0c3	-0.074586414
95	0x3d058ec6	0.032606862
96	0x3d102deb	0.03520004
97	0x3d4ad7ad	0.04952209
98	0xbdc8bda2	-0.098017946
99	0xbe840c95	-0.2579085
100	0xbd0382ba	-0.032107092
101	0x3ccbb7ce	0.024867918
102	0x3e969d3b	0.29416832
103	0xbd229d8d	-0.039701033
104	0x3e0295de	0.12752482
105	0xbe6f708f	-0.23382781
106	0xbd29b660	-0.041433692
107	0xbdd935e0	-0.10605979
108	0xbdfd020c	-0.12353906
109	0x3cd1689c	0.025562577
110	0xbd1a6e9e	-0.03770315
111	0xbd7819d2	-0.0605715
112	0xbdfdb16b	-0.123873554
113	0x3ca136e0	0.019679487
114	0xbd8f673b	-0.070021115
115	0x3d2bf694	0.041983202
116	0x3ccd6673	0.025073266
117	0xbcebcf91	-0.028785499
118	0xbe8d6570	-0.27616453
119	0xbe2080fa	-0.156742
120	0xbccd1d78	-0.025038466
121	0xbd8f6bb5	-0.07002965
122	0xbd98f052	-0.074677125
123	0x3d9aa363	0.07550695
124	0x3d071063	0.032974612
125	0xbdf7635c	-0.12079498
126	0xbd20967d	-0.039206017
127	0xbdaaf692	-0.08347811
